ZHECKPOINT/50RL-55opp/model.pt (torch, 266434 bytes, 32 tensors)

_batch_norm.mean f4 [16]
000000 00 00 00 00 03 7f b4 be 34 23 42 3e fe ce ab 3c
       0.0 -0.35253152 0.18958741 0.020972725
000010 f7 83 18 bd fd c4 b1 3b f1 aa 2f 42 dd e0 70 3f
       -0.037235226 0.005425094 43.916935 0.94093114
000020 00 00 00 00 00 00 00 00 00 00 00 00 00 00 00 00
       0.0 0.0 0.0 0.0
000030 00 00 00 00 00 00 00 00 00 00 00 00 00 00 00 00
       0.0 0.0 0.0 0.0

_batch_norm.var f4 [16]
000000 00 00 80 3f be 7a ac 40 4f c8 94 40 58 75 56 40
       1.0 5.389983 4.6494517 3.350912
000010 e1 b2 fd 3d 2d 16 ef 3d 5f d6 5b 44 e6 5d a9 3c
       0.12387634 0.116741516 879.34955 0.020674657
000020 00 00 80 3f 00 00 80 3f 00 00 80 3f 00 00 80 3f
       1.0 1.0 1.0 1.0
000030 00 00 80 3f 00 00 80 3f 00 00 80 3f 00 00 80 3f
       1.0 1.0 1.0 1.0

AT_obs_encoder.0.weight f4 [48, 16]
000000 76 a6 4f 3e 04 e0 6a bc d1 7b bf 3d ce dd 1d 3e
       0.20278344 -0.014335636 0.09349788 0.15416643
000010 88 cc 8b 3e 1c ce 12 be 7c 49 4c 3c 0d b3 bd 3d
       0.27304482 -0.14336437 0.012468692 0.09262667
000020 e8 db 9a bb 41 f8 cf 3c 3b ce d1 3c 03 76 04 3d
       -0.004725922 0.025386931 0.025611034 0.032339107
000030 c2 80 68 3d 82 3f f2 3d e9 24 14 3e 63 15 4f be
       0.056763418 0.118285194 0.14467205 -0.20223002
000040 13 dc e2 3e c2 69 a0 be 51 6d 32 bf 0c 8f bc bb
       0.44308528 -0.31330687 -0.69698054 -0.005754357
000050 1e 46 2a bc fc 9e 8e bc 31 dc 1d be 03 90 43 bb
       -0.010392694 -0.017409794 -0.15416028 -0.0029840476
000060 f4 95 91 3b 2b b1 4c 3b 5e 34 c0 3c fb ff fe 3c
       0.0044429246 0.003123353 0.02346247 0.03112792
000070 0c b3 63 3d 8a 26 1b 3e 2f 13 f6 bd 58 b6 49 3d
       0.055590674 0.1515142 -0.12015378 0.049246162
000080 34 d3 ac 3e 85 d4 91 be fc 12 00 be ba 18 ed 3c
       0.33754885 -0.28482452 -0.12507242 0.028942455
000090 e0 84 8c 3d 5d 1d f0 bc 92 56 95 be f8 8d 9d 3d
       0.068612814 -0.029310877 -0.2916761 0.07693094
0000a0 3f d7 19 3c 53 c1 62 bc c5 7d bd bb 2a 31 9f bc
       0.009389698 -0.013840037 -0.005782815 -0.019432623
0000b0 6e 78 85 3c 4d b7 9c ba 20 5a 9f b9 4a 53 ab 3d
       0.016292777 -0.0011956483 -0.00030393992 0.083654955
0000c0 3b e8 83 3e d8 ec e5 be 31 50 1a 3f 9c 68 3e 3c
       0.25763115 -0.4490726 0.6027861 0.0116216205
0000d0 81 f0 7b bc f9 61 4e 3c 9b e3 d2 bd 8c a6 7b bb
       -0.015377165 0.012596601 -0.102973185 -0.003839883
0000e0 e2 48 06 3c 61 15 b8 3b 43 89 bb 3c d9 10 8f 3c
       0.008196088 0.005617783 0.0228926 0.017464088
0000f0 e7 03 19 3d c1 65 c0 3d 23 01 11 3e 0b 84 40 3e
       0.037357237 0.09394408 0.1416059 0.1880037
000100 57 41 22 be 57 24 4a bc 94 bf 98 3d 2e 8f 0b 3f
       -0.15845238 -0.012337766 0.07458416 0.5451535
000110 e9 4d c9 bd 73 0e ed 3d 5d 24 40 be fa 3d 1c 3d
       -0.09829313 0.115750216 -0.18763871 0.038145043
000120 a2 fb 62 3c 4b 3b 53 bb 5d e1 81 3c a2 c1 6c 3d
       0.013853939 -0.0032231386 0.015854532 0.05780185
000130 7d c0 5d 3d 5b 65 03 3d bb 4f 0d 3e 4e cd 22 be
       0.05413865 0.032079082 0.13799946 -0.1589863
000140 3f 79 1f 3e 13 60 59 bf cf cb 01 be b0 d5 c3 3b
       0.15573595 -0.8491222 -0.12675403 0.0059764013
000150 2c 30 00 bd b2 96 05 bd 23 f5 5e bd 2d 64 02 bb
       -0.03129594 -0.032614417 -0.054433 -0.0019896135
000160 20 16 4c 3c 01 4b 3f bc 68 a5 08 3c 26 3e f7 3c
       0.012456447 -0.011675597 0.008340217 0.030181002
000170 86 1e 33 3d 4f 65 d4 3d b5 ee 48 3e 32 f4 93 3d
       0.04373028 0.103708856 0.1962231 0.07224311
000180 be 01 3a 3e a2 71 41 3f 96 ac 88 3d 4c 8e 3c bc
       0.18164727 0.75564015 0.06673543 -0.011508536
000190 76 cd 24 3d 05 1b 8f 3c 48 14 2d 3d 68 f6 fb 3a
       0.040235005 0.017468939 0.04225567 0.0019223215
0001a0 fe 79 15 bb a4 0b 8c bc 3e 7e 0f bc 68 5b 9f bc
       -0.0022808309 -0.017095394 -0.008758126 -0.019452766
0001b0 a5 16 2e bd 65 f4 ad bd 9a e3 01 be 21 26 24 3d
       -0.042502064 -0.0849388 -0.1268448 0.040075425
0001c0 28 12 53 3e 71 d3 b1 3e dd f3 c2 be 26 2a 97 3d
       0.20612395 0.3473163 -0.38076678 0.07381086
0001d0 18 fe 15 3d b8 f3 ef bb 33 49 6f 3b 10 39 d1 bc
       0.036619276 -0.0073227547 0.0036512136 -0.025539905
0001e0 62 7f 6d ba 54 59 b7 bb e7 b8 43 bc e8 24 81 bd
       -0.0009059814 -0.0055953655 -0.01194594 -0.063058674
0001f0 e4 3a 07 be d6 a3 59 be b7 0f 3c 3e ee f0 95 bc
       -0.13206059 -0.21253905 0.1836537 -0.01830336
000200 39 b6 d7 3e fb ee 87 3e ba bf 05 3f 23 19 c1 3b
       0.42131212 0.26549515 0.52245677 0.005892889
000210 b2 2e fb bb f0 46 00 3d 40 dc b5 bd 34 9d 22 3c
       -0.0076654786 0.03131765 -0.088799 0.009925175
000220 eb db 40 3b 07 6f 00 3b 2c c4 50 3c 08 ef 21 3c
       0.0029427956 0.0019597427 0.0127420835 0.00988365
000230 07 74 af 3b 85 a8 29 3d 24 f0 e4 3d 4f a5 ac 3d
       0.0053544077 0.04142048 0.11178616 0.084299676
000240 c4 53 6a 3e 47 07 80 bf ac f8 36 3e 40 c2 ad 3c
       0.22883517 -1.0002221 0.17868298 0.02121079
000250 af 41 0f bd 68 ec d2 3c 88 3f 7b bd 3c 85 40 bc
       -0.03497475 0.025747493 -0.061339885 -0.011750516
000260 5a 49 6e 3b 2f 53 69 3c 9c 68 18 3c d2 38 b2 3c
       0.003635964 0.014241024 0.009302285 0.02175561
000270 23 77 93 3d 09 53 e9 3d 6d 59 2f 3e 6e 53 d7 bd
       0.07200458 0.11392791 0.17123957 -0.1051396
000280 48 0d 44 3e eb ef dd 3d 5c a5 be 3e 97 77 57 3d
       0.19145691 0.10836776 0.37235534 0.052604284
000290 6d 01 a7 bb 1c 23 0d 3d 3e 1b b3 3e 40 20 2c 3e
       -0.0050966055 0.03445731 0.34981722 0.16809177
0002a0 cf bc 0d 3c a2 0e 12 3d f0 76 15 3d 82 b1 b5 3d
       0.0086509725 0.035658486 0.03649038 0.088717476
0002b0 8a 4f 2d 3d 2a b0 90 3e f7 56 29 3e b9 ff f1 3d
       0.042312182 0.28259403 0.1653708 0.11816353
0002c0 99 76 da 3e 6f b4 b2 3c 50 87 c2 bd ad 04 7b bd
       0.42668608 0.021814553 -0.09498465 -0.061283756
0002d0 1e c2 d6 3c c3 dd 8b 3d 37 80 f2 3c b2 75 b8 3e
       0.02621561 0.06829407 0.029602153 0.36027294
0002e0 4c 49 b7 bc aa dc 64 ba 2e b5 57 3c 23 b8 6b 3b
       -0.022373818 -0.0008730391 0.013165755 0.0035967908
0002f0 53 ce de 3c 57 82 39 3b 82 dc 5e 3d 46 4c c5 bd
       0.027197992 0.0028306448 0.05440951 -0.09633689
000300 37 dd 6e 3c d8 25 53 3f dd d8 0a be be ef 5f bc
       0.014579109 0.8247962 -0.1355929 -0.013667999
000310 73 96 af 3b 1f 3a 75 bc 8e ee e4 bd 02 66 fa bb
       0.005358511 -0.01496747 -0.11178313 -0.007641555
000320 8d b2 0e 3c f9 27 7e 3c 8b 0d 03 3c 1c b4 d9 3b
       0.008709562 0.01551246 0.007998834 0.006643785
000330 41 c1 0c 3d 63 cf 8a 3d 55 6d 0b 3e 60 a9 2f be
       0.03436399 0.06777837 0.13615926 -0.17154455
000340 a4 06 93 be 05 e0 00 3f 1a 1d ac bc 81 44 68 38
       -0.28716004 0.50341827 -0.02100997 5.537691e-05
000350 79 49 03 3d 68 56 1c b9 60 19 02 bf 81 2e e7 3c
       0.03205249 -0.00014909508 -0.5081997 0.028220417
000360 44 db ab 3c 15 1d e1 3a 75 ec ad 3c 71 90 97 3d
       0.020978577 0.0017174805 0.021230916 0.07400597
000370 9a 2d ad bd c7 fd 5b be 8f 0c e1 be 9d b3 21 be
       -0.084559634 -0.21483527 -0.43954894 -0.15791173
000380 71 f1 1f 3d 7e c0 0e bf 11 63 4b 3f 28 d8 05 3c
       0.039048616 -0.5576247 0.7944804 0.008169211
000390 50 4b 51 bc 16 eb a3 3c d2 f1 a4 bc d3 e7 e3 ba
       -0.012774304 0.020009559 -0.02013484 -0.0017387815
0003a0 d5 80 f2 3b 18 04 ac ba 87 fa 9b 3b 0e 27 9d 3c
       0.007400612 -0.0013123779 0.00476009 0.019183662
0003b0 5f 20 4d 3d 87 2e 70 3d 0f 73 2b 3e 05 fa 17 be
       0.0500797 0.058638122 0.1674311 -0.14841469
0003c0 7a 3c bf bc 24 f6 85 3d e6 89 3c 3c e6 0e 30 bf
       -0.023344267 0.06541088 0.011507487 -0.68772733
0003d0 f8 76 9a bd b9 c4 2c bd 4a af 0a 3d 87 ff c2 bb
       -0.07542223 -0.042179797 0.033858575 -0.0059508714
0003e0 a1 5e 5c 3c 01 d1 10 bc c6 dc 3b 3d 9e ae 3c 3d
       0.013450296 -0.008838893 0.045864843 0.046064965
0003f0 67 10 bc 3b be 19 02 3c 7f b3 a0 bd e1 0a db bd
       0.00573926 0.007940708 -0.07846736 -0.10695434

AT_obs_encoder.0.bias f4 [48]
000000 26 17 e2 3d 3b 43 0f 3e b5 7f 5c 3e 69 d4 95 3e
       0.110395715 0.1399049 0.21533091 0.2926362
000010 fd dd dd bd fa 28 3a 3e ee 82 25 3c f3 ef 04 3e
       -0.108333565 0.18179694 0.010102017 0.12982158
000020 66 80 6f 3e 75 16 74 3e 0b 21 a5 3c df 3a 17 3e
       0.23388824 0.23836692 0.020157358 0.14768551
000030 bf ad 46 3c b2 85 91 bd 5c 50 d6 3d df 8c ba bd
       0.012126385 -0.071055785 0.10464546 -0.091089
000040 a1 3a a2 3e dc fa d0 3e d7 98 bc bc 6d c9 30 3d
       0.31685355 0.4081639 -0.023022098 0.043160845
000050 ff 8b f8 3c df 35 b3 3d 9b 43 09 be af 11 bf bd
       0.030340193 0.087505095 -0.13404696 -0.09329545
000060 18 ac 3c 3e c6 4a f7 3d cc 02 02 3f f9 52 b3 3d
       0.18425024 0.12074809 0.5078552 0.0875606
000070 22 2c f4 3d 26 bb 9b 3e 31 dd 97 3d 3c 7b 9a 3d
       0.1192248 0.3041622 0.07415236 0.07543036
000080 41 ff 44 3e 76 40 98 3e 3b 35 1a 3e 4b 79 a3 3d
       0.19237997 0.2973668 0.15059368 0.07982119
000090 18 93 e8 3e b8 23 c7 bc c1 9d 4b 3d 78 fd 5b 3d
       0.45424724 -0.024309024 0.049710993 0.053708524
0000a0 2c 3a d8 3c 90 ac 0a 3e 2f a2 85 3d 5f a8 aa bd
       0.026394926 0.1354239 0.06525075 -0.083328955
0000b0 e9 a7 68 bd 4e ba aa 3e 0e 8e c7 3d 00 ed 82 bd
       -0.056800757 0.33345264 0.09743892 -0.063928604

AT_obs_encoder.2.weight f4 [48, 48]
000000 29 54 4c 3d 11 ee 4f be d2 54 9c bd f2 a1 16 3d
       0.04988495 -0.20305659 -0.07633366 0.036775537
000010 bc 2b 92 3d 48 2b 1b be 0e 49 6c 3e 1c e4 03 be
       0.07137248 -0.15153229 0.23074743 -0.12879986
000020 8b d6 f1 3d 1e 1b 7a 3e c4 c9 d0 bb 8d 9c c5 3d
       0.11808499 0.24424407 -0.0063717086 0.09649
000030 6c 99 f9 bd dc 80 4f be 4c d3 0f 3e 6f 74 5b 3d
       -0.12187466 -0.20264 0.14045447 0.053577837
000040 d9 3f 94 3e aa 57 9c 3d d5 37 ae 3e ca 15 6b be
       0.28954962 0.07633908 0.3402697 -0.2295753
000050 46 49 5c 3e ff fd 48 be f8 7e 7c 3e ea c3 7f bc
       0.21512327 -0.19628142 0.2465781 -0.015610674
000060 10 46 87 3d 2c fe cf 3c d0 72 d7 3d 2e 93 83 3e
       0.0660516 0.025389753 0.105199456 0.25698227
000070 2b 95 07 be da 99 22 bd cb 92 a7 3e 56 ae 8c bc
       -0.13240497 -0.039697506 0.32729182 -0.017172974
000080 4f fe 94 be 7d df ca bd cc 9a ef bd 49 fc 0c 3e
       -0.29100272 -0.09905908 -0.11699447 0.13768114
000090 ea c5 19 3f df 41 e3 3d fb 57 54 3e 8b 8a 08 be
       0.6006762 0.11096548 0.20736687 -0.133341
0000a0 d1 27 6d 3d 7e 70 78 3d d7 5a c5 3d 59 43 39 bd
       0.0578993 0.060654156 0.09636467 -0.045230243
0000b0 1d 46 88 3e db e4 f5 bd 48 f2 ac be 23 61 79 be
       0.26615992 -0.12006541 -0.33778596 -0.24353461
0000c0 8e 60 c5 3d 1a cf 17 3e d8 9b 87 3d f1 e2 1c be
       0.09637557 0.14825097 0.06621522 -0.15320946
0000d0 c8 d3 21 be 32 ae 0a 3e 94 68 1d be ef de af 3d
       -0.15803444 0.13543013 -0.15371925 0.08587443
0000e0 50 f8 fc be d8 e4 82 bd ef d9 b0 3e b6 c6 a8 3c
       -0.49408197 -0.06391305 0.3454127 0.020602565
0000f0 40 1c 6d be 69 98 34 bd 4a f2 20 3e b7 4d 0a be
       -0.23155308 -0.044090662 0.15717426 -0.13506208
000100 a8 19 a1 bd 06 a2 d1 3e 9c a3 22 be 8d 59 11 bd
       -0.07866222 0.40943927 -0.15882725 -0.035485793
000110 5f 57 84 bd 51 27 b9 bd 15 cf 9e be 66 c1 48 be
       -0.06461977 -0.09040702 -0.31017366 -0.19605026
000120 fd 68 38 3e 7e db 30 3b 52 d4 bb bc ce c9 c0 be
       0.180088 0.0026986296 -0.02292839 -0.37653965
000130 f2 b9 96 3d 26 dd ac bd 03 ca b2 be d3 21 0f be
       0.07359685 -0.08440618 -0.34919748 -0.13977747
000140 6a da 35 3d e8 b4 22 bd bf 33 24 be e9 18 38 be
       0.04439775 -0.039723307 -0.16035365 -0.17978252
000150 ed 5f ba bc 2f 39 ed 3c 36 c4 f5 bd cc ee 0f be
       -0.02275082 0.028957931 -0.12000315 -0.14055938
000160 8d a2 8c be 18 a8 a0 be 4b 11 a3 be ec 4d 07 3d
       -0.27467766 -0.31378245 -0.3184913 0.033033296
000170 d1 aa 49 bd a0 be 94 bc 1d cc c6 be fc 50 da bd
       -0.04923517 -0.018157303 -0.388276 -0.10659978
000180 89 8d c9 bc 50 7f 6e be 41 ae 0f 3d 2e 2b 12 bd
       -0.024603622 -0.23290753 0.03507829 -0.03568571
000190 bb 18 be 3d a6 da 5a be e0 02 8f 3c 86 13 23 bd
       0.09282061 -0.2137247 0.017457426 -0.03981354
0001a0 f5 36 ae bd 7b ec 35 be f4 f3 27 ba 90 19 11 be
       -0.08506576 -0.17765991 -0.0006406896 -0.14169908
0001b0 a8 af 8d be 9d f2 bb 3d 7f ec c7 3c 23 93 28 bd
       -0.27673078 0.09177134 0.024404762 -0.041155946
0001c0 16 0a ed bd 44 7d 8f 3c c4 ba 2f bd e6 b0 38 3e
       -0.11574189 0.017515786 -0.042902723 0.18036231
0001d0 58 e8 f9 bd 79 c0 4c be d2 bc 83 bd e2 c5 a9 3d
       -0.12202519 -0.19995297 -0.06432499 0.08289696
0001e0 30 d4 d0 be 1f 4f c5 3e a9 75 d9 be 2e 2a b9 bd
       -0.40786886 0.38536927 -0.4247258 -0.09041248
0001f0 c5 08 02 bf 98 e6 44 be c7 d4 1d 3e 03 97 85 be
       -0.5079463 -0.1922859 0.154132 -0.26091775
000200 ed 33 6d 3e 85 96 e2 3d 8a 57 c0 3d bb 44 53 b9
       0.2316434 0.110638656 0.09391697 -0.00020148132
000210 44 10 6a be a4 00 7e 3e c2 f4 5b be cf b4 c8 3d
       -0.22857767 0.24804932 -0.21480086 0.098001115
000220 21 8b 90 3e b9 2a c7 bd 71 3d f5 be 02 7e 21 be
       0.28231147 -0.097249456 -0.4789844 -0.15770724
000230 6b af 07 3f 06 8a 59 be b0 44 8f 3d e1 df 26 be
       0.5300204 -0.21244058 0.06995523 -0.1629634
000240 64 ac bd 3d 48 04 2c be c0 f0 a4 bd 01 57 db bd
       0.092613965 -0.16798508 -0.08053732 -0.10709954
000250 13 e5 1f be fb 87 c3 bd 3f f9 7e be 59 95 8c bd
       -0.15614729 -0.095474206 -0.24899767 -0.06864423
000260 7f 50 23 bd ab d4 83 bd d2 18 13 3e 5e 40 59 bd
       -0.03987169 -0.064370476 0.14364937 -0.0530399
000270 c0 05 59 3c 54 09 b8 3d e1 20 2c 3e bb 61 4c be
       0.013246 0.08986154 0.16809417 -0.19959156
000280 eb 4a 42 be 6a 11 82 bd 17 ee d1 3d 00 39 c1 3d
       -0.18973891 -0.06350978 0.1025049 0.094347
000290 cd cf ff bc 7b 56 7f 3d 8a 30 d6 3d 16 a2 aa bd
       -0.031227017 0.062338334 0.10458477 -0.08331697
0002a0 e7 c6 57 3e bc 59 12 be 1f b3 4e be ad ea 0f 3e
       0.21071969 -0.14292043 -0.20185517 0.14054365
0002b0 0d 2e 1f 3e a9 cd ed bd 74 07 7e 3e 22 2c 20 3d
       0.1554491 -0.11611492 0.2480753 0.03910459
0002c0 b3 7f 04 bd 5c 0e c6 3e 54 9e 6e 3d fa c5 38 be
       -0.032348346 0.3868283 0.058256462 -0.18044272
0002d0 cb cd 4d 3d 3e 71 89 3d ad 14 1c 3e 12 9c 3c 3e
       0.050245088 0.06711052 0.15242262 0.18418911
0002e0 53 21 1a 3e 83 67 c8 bc e5 60 c8 bd e2 d0 f9 3e
       0.15051775 -0.02446342 -0.09784106 0.48792177
0002f0 de 60 c4 bd a8 a4 52 bc 9b 98 15 be 2a 77 d3 bd
       -0.095887884 -0.01285664 -0.14608996 -0.10325463
000300 c1 18 40 be 60 e9 36 3b 08 4d 0e bc eb 0f 72 3e
       -0.18759443 0.0027910098 -0.008685358 0.23638885
000310 8b 6c 93 bd 33 2f 5b 3e ec 94 72 3e 1d c4 1c be
       -0.07198437 0.21404724 0.23689622 -0.15309186
000320 02 a9 8b be 0f 6e e2 bd de 85 91 3d 39 e9 e9 bc
       -0.2727738 -0.11056148 0.07105611 -0.028553592
000330 a6 f5 62 3e 64 e5 56 be 4f 5a 7d 3d 4b ae 80 be
       0.2216402 -0.20985943 0.061853703 -0.25132975
000340 c5 1d 0b 3e 85 a8 e7 bd 5b 07 6d 3e 3a 4f 23 be
       0.13585575 -0.113114394 0.23147337 -0.15948191
000350 c6 34 59 be ff f8 fa bd 8e ed 93 3e a1 b5 01 be
       -0.21211538 -0.122545235 0.28892177 -0.12666942
000360 d9 89 51 3e 59 40 e4 3d 82 31 44 be b4 31 04 bf
       0.20462741 0.11145086 -0.1915951 -0.5163834
000370 3e 5c d0 3d 8e d5 27 be e7 b4 10 3e 79 15 56 bc
       0.10173844 -0.16390058 0.14131509 -0.013066643
000380 3e 00 24 3e b9 f3 98 3e 64 f4 6d bd 78 17 f4 bd
       0.16015717 0.29873446 -0.058094397 -0.11918539
000390 21 d6 06 3e 98 fe 3b 3e a7 64 70 bd 39 e3 95 3d
       0.13167621 0.18358839 -0.05868974 0.0731873
0003a0 1e 71 b2 3c 25 1e 84 3c 2e 0e 97 3e c6 e3 69 3d
       0.021782454 0.016127655 0.29503006 0.057101987
0003b0 02 67 92 bd 13 f8 a1 3d 27 c1 c7 3c 58 50 b9 3e
       -0.071485534 0.079086445 0.024384094 0.3619411
0003c0 3d 5b c2 bd 96 c8 01 3e a4 45 18 3d dc 30 97 3d
       -0.094900586 0.12674174 0.03717579 0.07382366
0003d0 a2 1b 6f 3e 85 17 00 3e 26 3f 7a be 97 be e1 3a
       0.23350385 0.12508972 -0.24438152 0.0017222938
0003e0 30 97 90 3d af 27 8a 3d 4f b9 c9 3d 0d e2 e0 be
       0.07060087 0.0674585 0.09849798 -0.43922463
0003f0 9a b7 09 3e 03 a6 ad 3d 5b 58 48 be 0b f0 92 bd
       0.13448945 0.0847893 -0.19564955 -0.07174691

AT_obs_encoder.2.bias f4 [48]
000000 08 ce de 3c 77 d9 97 3d 5e 83 b1 bd fb 06 c5 bd
       0.027197853 0.07414525 -0.086676344 -0.09620472
000010 2f 8f 78 bd b2 30 3f 3e 33 21 30 be cb 35 69 bd
       -0.060683426 0.1867092 -0.17200164 -0.056936067
000020 85 4a 9f 3c fc 9c e5 bd e9 ab 8d 3e dc 97 35 3e
       0.019444713 -0.11211583 0.2767022 0.17733711
000030 c4 80 d4 3d 2f 35 32 3e 66 5f a2 bd fe 10 86 3d
       0.103761226 0.174031 -0.07928352 0.0654621
000040 71 02 18 bd 6e 99 df bd 73 e8 49 bd f5 e2 a6 bd
       -0.037111703 -0.10917936 -0.049293946 -0.08148757
000050 0d b2 40 3b 95 f9 a4 bd 92 64 39 3d 29 ef bd 3c
       0.0029403002 -0.080554165 0.045261927 0.02318533
000060 99 0d f3 3b 42 2e 8b 3d d5 64 03 3d 19 e7 53 be
       0.0074173925 0.06795932 0.032078583 -0.20693626
000070 e2 cc c5 bd 08 e9 88 bd d5 57 dc bd da 1d d6 be
       -0.09658219 -0.06685072 -0.1075894 -0.4181965
000080 f7 41 1c be d7 df 0c bd 26 c0 8e be 1e 8d dc 3d
       -0.15259539 -0.034393158 -0.27880973 0.107691035
000090 7a ce 94 bd d0 30 b6 be 0c 18 a2 3e 8f 43 6b be
       -0.07265945 -0.35584116 0.3165897 -0.2297499
0000a0 f4 e6 50 3d 14 15 80 3c 85 a4 e5 bd eb b3 6f be
       0.051001504 0.01563505 -0.1121302 -0.23408477
0000b0 21 14 b5 3d 8f 9d c4 3d f3 df 83 be 4a 9b b5 3e
       0.0884173 0.096003644 -0.25756797 0.3547004

MIX_conc_core_f.CT_W_query f4 [48, 48]
000000 43 bb d2 bf 5b 85 09 c0 b9 50 56 bf d7 26 67 3e
       -1.6463398 -2.1487644 -0.83716923 0.2257341
000010 9f 0c 01 40 58 df ae bf bb 59 7e 3f 5d fe 69 3f
       2.0163953 -1.3661909 0.9935567 0.9140375
000020 c3 86 40 40 d7 42 92 be 04 da a7 bd 2a 83 6f bf
       3.0082252 -0.2856662 -0.0819588 -0.93559515
000030 b6 8d 0d c0 05 c8 8f be 9e 5b c1 3f 7c fd e1 3e
       -2.2117743 -0.2808229 1.5106084 0.44138706
000040 8b 10 a7 3f ce 30 28 3f 96 28 0e bd 61 e2 1f be
       1.3051924 0.6569947 -0.034706675 -0.156137
000050 d4 08 31 3e 5a a4 00 c0 eb 12 e0 bf 0c 77 14 bf
       0.17288524 -2.0100312 -1.7505773 -0.5799415
000060 21 c8 4a 3e 43 f1 40 3f cf c4 ea 3f 25 bf 9f 3f
       0.19802906 0.75368136 1.8341311 1.2480208
000070 26 46 98 bf 97 32 8e 3e 46 91 93 3e 12 66 7e 3f
       -1.1896408 0.27772972 0.28821772 0.99374497
000080 eb 9b f1 3f 2e fe 9f bf 70 02 90 3d c8 c7 0c 3f
       1.8875707 -1.2499444 0.07031715 0.5499234
000090 be dc 42 3e 65 60 2c 3e 82 c8 a8 bf 3c 66 42 3f
       0.19029519 0.16833647 -1.318619 0.7593725
0000a0 14 2b 10 c0 f1 f8 1a bf 4a 71 1c 3f 7c 86 ef 3e
       -2.2526293 -0.60536104 0.61110365 0.4678229
0000b0 f2 f8 e4 3f c1 fb ec bf 4e f1 a5 bf 5a 5f 1d 3f
       1.7888472 -1.8514329 -1.2964265 0.6147362
0000c0 b5 93 a4 3f 7d d7 80 3f 4e 5b 18 bf fd 6f 59 bf
       1.2857577 1.0065762 -0.5951432 -0.84936506
0000d0 99 7d 0e c0 f7 9b 06 40 7d f5 b2 bf 03 b6 9d bf
       -2.2264159 2.1032693 -1.3981167 -1.232117
0000e0 c7 2e c5 bf d2 25 2d 3f 13 91 b4 3f d8 38 1d 3f
       -1.54049 0.67635834 1.4106773 0.6141486
0000f0 3c 1e 59 be 7d 6c 1f be 2b 50 06 bf c2 9a 80 3f
       -0.2120294 -0.15568729 -0.52466077 1.0047228
000100 af e9 2a c0 fa 11 2e 3f f4 33 0e be d5 01 00 c0
       -2.670513 0.6799618 -0.13887006 -2.0001118
000110 26 d4 57 3f 95 c5 0a 40 a6 2c ba 3e 2a dd 2c be
       0.8430809 2.1683095 0.3636219 -0.16881242
000120 57 ba e4 3f 11 43 1a c0 b3 25 bb bf aa a5 a3 3f
       1.7869366 -2.4103434 -1.462088 1.2784932
000130 91 fc 8c bf 76 89 e0 bf 05 3a bf 3e 93 07 72 bf
       -1.1014577 -1.754195 0.37348953 -0.9454281
000140 cc 7d 72 3d d9 d9 b6 3f 0b 82 70 3e ce e6 d4 3f
       0.059202 1.4285232 0.23487107 1.6632936
000150 69 a8 e6 bf 9e 3d d7 3f d8 1e 1d bf c8 71 3c bf
       -1.8020145 1.6815679 -0.6137519 -0.73611116
000160 b3 04 a9 3e 6e b3 f3 bf a6 74 04 c0 f2 15 02 bf
       0.33011398 -1.9039133 -2.0696197 -0.50814736
000170 0e 59 a5 3e 64 c6 ea 3e 76 61 b8 3f 77 1e 3a bf
       0.32294506 0.45854485 1.4404743 -0.72702736
000180 6f f2 84 3f b4 68 d7 3e ba 32 1f 40 57 fe f0 bf
       1.0386485 0.4207207 2.487471 -1.8827618
000190 9e cd 39 3f 28 53 b5 3e 50 1f 18 bf 14 04 24 bf
       0.7257937 0.35415006 -0.5942278 -0.6406872
0001a0 b9 6e 5f 3f 14 74 11 c0 89 ab 80 3f 69 54 22 3e
       0.87278324 -2.2727098 1.0052348 0.15852512
0001b0 16 03 5b 3e 4c 5c d7 bf 7d f7 0a bf 83 6c 31 40
       0.21387896 -1.6825042 -0.5428389 2.772248
0001c0 dc 01 8e 3f 93 7f f8 bf 2c 25 14 40 a7 9d 8b 3f
       1.1094317 -1.9413933 2.3147688 1.0907487
0001d0 a3 24 e1 bf 52 49 84 3e e8 eb 1c bf 47 2b 1b c0
       -1.7589306 0.2583719 -0.61297464 -2.4245164
0001e0 2d 04 8c 3e a0 13 76 3f 15 0d df bf a4 53 8b be
       0.27346936 0.96123695 -1.7425867 -0.2721225
0001f0 98 82 79 3f 6b 49 b9 3e b2 0c c3 3e 91 fe 16 bf
       0.97464895 0.36188826 0.38095623 -0.5898219
000200 ab 98 fc bd b5 5d 54 bf 7f a0 18 40 4b 3d 0f 3f
       -0.123338066 -0.82955486 2.384796 0.559529
000210 6c a7 d4 bf b7 4f ea 3f c7 ae b9 be ff bb 7d bf
       -1.6613593 1.8305577 -0.36266157 -0.99114984
000220 34 4b ef bd 9b 1d fb 3e 0b 88 d8 bf 70 36 03 bd
       -0.11684266 0.49046025 -1.6916517 -0.032034338
000230 ed 94 27 3f 0b 64 5c 3e 53 40 29 bf db 58 2c 3f
       0.6546162 0.21522538 -0.66113776 0.6732308
000240 d5 88 54 3f 7f 18 c5 3e a6 67 18 3f 44 41 63 c0
       0.8302129 0.38495252 0.59533155 -3.5508585
000250 85 62 40 bf 29 55 1f 40 2b 6d 62 c0 8f 9e 23 c0
       -0.7515033 2.4895728 -3.537913 -2.5565526
000260 97 50 81 3f 15 b8 20 bf 91 59 be 3f ee 5b 84 3e
       1.0102719 -0.62780887 1.4871083 0.25851387
000270 50 87 6d bf 8c f2 01 c0 ff 4b 79 3f 9c 7f 13 40
       -0.92784595 -2.030429 0.97381586 2.3046637
000280 a2 f3 60 bf 05 a2 f1 bc 16 8d 4d bf a7 72 56 bf
       -0.87871754 -0.029496202 -0.80293405 -0.83768696
000290 57 62 21 3f 25 88 c5 3f 5a 7b a8 3f b7 cc 28 c0
       0.6304068 1.5432173 1.3162644 -2.6374948
0002a0 56 08 31 40 bf 12 dd bf c6 fa 25 c0 16 c2 25 40
       2.7661338 -1.7271346 -2.593431 2.589971
0002b0 f4 6a cd bf 50 57 13 c0 22 82 d2 3f fb 30 a8 bf
       -1.6048265 -2.3022041 1.6445963 -1.3139948
0002c0 05 94 b0 3f 8f cb d5 be 83 49 78 3f eb d8 11 40
       1.3795172 -0.41756865 0.9698717 2.2788646
0002d0 76 24 64 c0 7f 92 1a 40 f5 7f 5d 3f 40 df 5f 3f
       -3.5647254 2.4151914 0.8652337 0.8745003
0002e0 72 7e 07 3f b8 87 eb bf 13 59 19 c0 5d f8 9b 3f
       0.52927315 -1.8400793 -2.3960617 1.218517
0002f0 b4 a9 0c 40 f1 6e 58 bf aa 89 a9 be 4b 69 c3 be
       2.1978579 -0.84544283 -0.33112842 -0.3816627
000300 9d dc b4 3d fc 95 c5 3f 61 d3 15 be 30 f6 bc 3f
       0.08831141 1.5436397 -0.14631416 1.476263
000310 48 07 65 bf 61 8c 4f bf e1 4c 13 3d b3 83 91 bf
       -0.89464235 -0.81073576 0.03596199 -1.1368316
000320 9b 49 39 bf 61 1f 85 3f ad 67 dc 3b 80 2f 63 40
       -0.7237794 1.0400201 0.0067262263 3.5497742
000330 94 59 bb 3e b4 a6 15 c0 36 48 34 bf 39 f7 33 bf
       0.3659178 -2.3382998 -0.70422685 -0.70299107
000340 7f de 3a 3f bd 21 d6 bf 08 a3 c3 3f a4 c2 cf 3f
       0.7299575 -1.6729046 1.5284128 1.6231275
000350 a8 60 39 bd b5 d1 42 3e 2b f4 a7 3f 1b 02 95 3f
       -0.045258194 0.1902531 1.3121389 1.1641268
000360 b1 bc e7 3e cd 4b a7 bd fe 8d b9 be 60 31 07 c0
       0.45261148 -0.08168755 -0.36241144 -2.1123886
000370 c6 ef e3 3d bf 42 ce be ba 91 2d 40 fe d0 f9 3f
       0.111297175 -0.40285298 2.7120194 1.9516904
000380 2b f3 89 3f 62 d9 81 3f f1 0b ad 3d 8e 46 56 bf
       1.0777334 1.0144465 0.08449543 -0.8370141
000390 ed 87 09 bf 2d 2a 85 3e 3a 8a cd 3f 00 d1 b3 3e
       -0.5372303 0.2600874 1.6057808 0.35120392
0003a0 f1 88 98 3f 43 ca 1d 3f 78 e2 52 3f 6a 26 1b bf
       1.1916791 0.6163675 0.82376814 -0.6060549
0003b0 b6 f7 e7 bf bd 02 87 bf ce 73 85 be eb 36 16 bf
       -1.812247 -1.0547711 -0.26064914 -0.5867755
0003c0 4e cb 3b c0 65 e9 fb bf 07 a6 e1 be cb 21 70 be
       -2.9342837 -1.9680601 -0.4407198 -0.23450391
0003d0 ec 72 2a 3f f0 57 9c bf d4 c7 3f bf 88 2e 57 3d
       0.66581607 -1.2214336 -0.7491429 0.05253461
0003e0 fa 5f 2b 40 61 67 0f 3f 6e 63 10 c0 56 86 fb 3d
       2.677733 0.5601712 -2.2560687 0.12281482
0003f0 7e 0a 05 c0 b4 51 0c 3f 50 56 05 40 27 31 85 bf
       -2.0787654 0.5481217 2.083393 -1.0405625

MIX_conc_core_f.CT_W_key f4 [48, 48]
000000 e8 3a f3 be 9a f9 d7 bf 91 06 37 3e 58 f5 ec be
       -0.4750588 -1.6873047 0.17873599 -0.46280932
000010 8d 72 29 40 98 e1 7c bf 6e f6 f1 3e 26 6b 20 3f
       2.6476166 -0.9878173 0.47258323 0.62663496
000020 b9 38 3b 40 ec 91 da bf 8c b9 2d 3f 77 1e 0a bf
       2.925337 -1.7075782 0.6786125 -0.53952736
000030 18 a3 8e bf b1 e3 00 c0 42 d2 83 3f ef 4f a1 3f
       -1.1143522 -2.0138972 1.029854 1.2602519
000040 d0 b5 1c 40 4c ae bf bf 0f ac 11 40 9c 0f 63 3f
       2.448597 -1.4975066 2.2761266 0.88695693
000050 f5 e6 9a bf c9 7d b8 bf 26 23 27 c0 58 00 d2 bf
       -1.2101732 -1.4413387 -2.6115203 -1.6406355
000060 6f 01 07 bf 1b f7 fa 3f 26 3a 40 3e 65 0d 9d bd
       -0.5273656 1.9606661 0.18772182 -0.076685704
000070 ab 81 fb bc a7 2c 43 3f 69 92 2c 3f 38 f8 f3 3e
       -0.030701479 0.7624001 0.67410904 0.47650313
000080 fa e7 82 3f cb 06 df bf 8f 29 95 3f 90 c7 0b 3f
       1.0227044 -1.7423948 1.1653308 0.54601383
000090 3c 5a 09 bf 52 02 52 3f 72 78 9f bf 9c 24 20 be
       -0.5365331 0.8203479 -1.2458632 -0.15638965
0000a0 c2 d3 c5 bf cb 79 95 bd 83 3c 98 bd 48 e2 f0 3e
       -1.5455248 -0.07298621 -0.07433417 0.4704764
0000b0 5e 30 82 3f 67 88 1d bf 77 2a fd bf 2f 38 d4 be
       1.017101 -0.6153626 -1.9778584 -0.41449115
0000c0 7a e3 b3 3c 6e 28 bf 3e 28 13 fd be e4 41 8a 3e
       0.021959055 0.37335533 -0.49428678 0.27003396
0000d0 26 26 b9 be 88 f3 9e be a7 12 29 3f 59 8b ae 3e
       -0.36161917 -0.31045175 0.66044086 0.3409069
0000e0 17 1d 22 bf 4c 10 e1 3f 84 ec 5d bf 0e 69 4d 3f
       -0.6332564 1.7583098 -0.8668902 0.80238426
0000f0 72 e0 2a be 70 57 ac 3d f5 c6 51 bf e3 49 6a bf
       -0.16687182 0.08415115 -0.8194421 -0.9151899
000100 f6 81 89 bf 59 29 06 3f 78 cd 9f bf 49 15 93 bf
       -1.0742786 0.5240684 -1.2484579 -1.1490871
000110 83 27 79 3f 81 57 1b 3f 8f 76 30 be 44 92 74 3f
       0.97325915 0.60680395 -0.17232727 0.95535684
000120 f3 8a 8e be a3 b5 96 bf 65 dd 9d bd 50 85 01 3e
       -0.27840385 -1.1774181 -0.07708243 0.12648511
000130 95 6a 60 bf e7 dd 9b 3f bc 8b ae 3f a6 94 2c 3e
       -0.8766263 1.2177094 1.3636394 0.1685358
000140 1a 8c 80 3e ab a8 94 3f 18 c1 c6 bf 92 a6 fc be
       0.2510689 1.1613973 -1.5527678 -0.49345833
000150 55 cd 4d 3e f3 72 40 3e d9 c3 b8 bc e9 36 2e 3f
       0.20097859 0.1879385 -0.022554325 0.68052536
000160 04 56 49 3f 01 22 2b 3f 0a ec 86 3f 50 3e df 3e
       0.78646874 0.6684876 1.0540783 0.43602228
000170 d8 8e c8 be 1f 2f 4f bf 6f c9 06 3f 0d 9a ea 3f
       -0.3917148 -0.80931276 0.52651113 1.8328263
000180 ae 8c 1d bf b3 c5 aa bf e8 18 d2 bf 6d e8 89 3e
       -0.61542785 -1.3341583 -1.6413851 0.2693514
000190 35 69 e0 3e bf 4c 3c 3d bb 2f 8e bc 5c 3a fa bd
       0.43830267 0.04597163 -0.017356744 -0.122181624
0001a0 61 1d 84 3f e3 68 0c 3f 73 11 29 3f 46 51 b7 be
       1.0321466 0.54847544 0.6604225 -0.35804194
0001b0 ce 63 a4 bf 4a f5 0b 3e 73 84 93 3f 90 04 3f 3d
       -1.2842958 0.13667789 1.1524795 0.04663521
0001c0 9b d1 d8 3e 80 e5 ec 3f 0f b7 63 bf ca 85 d2 3e
       0.42347416 1.8507538 -0.889512 0.41117698
0001d0 24 6c 8c 3f cc 8c 7a bf 82 b8 a6 bf 14 4b cf be
       1.0970502 -0.9787109 -1.3025057 -0.40486968
0001e0 81 aa 8c 3f d1 d5 40 bf 7f 14 5b 3f d6 54 62 3f
       1.0989534 -0.7532626 0.8557815 0.884107
0001f0 bf 86 ba bf 30 0a bc bf 0c bf 88 3f 08 56 e3 3e
       -1.4572371 -1.4690609 1.0683303 0.44401574
000200 91 5c 42 3f 86 73 5b bd 95 68 27 3e a6 62 94 3f
       0.75922495 -0.05357697 0.16348489 1.1592605
000210 a7 e6 d5 be 3f af 42 be 88 aa d0 bf 0d 29 81 3f
       -0.41777536 -0.19012164 -1.6302042 1.0090653
000220 20 46 0e c0 ba 5f 20 c0 63 66 d5 be 30 2c 80 be
       -2.22303 -2.5058427 -0.41679677 -0.25033712
000230 51 0d 86 3f 06 43 13 bf f9 2a bc 3d f9 f2 e5 bf
       1.0472814 -0.57524145 0.09187884 -1.7964774
000240 1f a7 5d 3f e3 c7 84 3e a6 0c d6 3f ec a6 ea bf
       0.8658313 0.2593375 1.672261 -1.833219
000250 47 14 1d 3e 42 ca aa 3f 07 d3 fa bf 43 6d f2 bf
       0.15339766 1.3342974 -1.959565 -1.8939594
000260 93 a4 82 3f 95 00 f4 be 18 24 11 3e 3a 3b 44 3f
       1.0206474 -0.47656694 0.14173925 0.7665287
000270 20 58 4a bf 20 8b 14 c0 8e 20 4d 3e 2a c2 8f 3f
       -0.7904072 -2.3209915 0.2003195 1.1231129
000280 d4 f2 8f bf b1 c0 3d bf f7 75 fd be 4a 1a 92 bf
       -1.124598 -0.7412215 -0.49504063 -1.1414273
000290 69 0e 97 bb 5b a0 bf 3f 13 07 b3 3f 96 5e c5 bf
       -0.004609872 1.4970812 1.3986534 -1.541949
0002a0 d1 0f bd 3f 6b a0 af bf c3 bc d0 bf 01 17 2a 40
       1.4770452 -1.3720831 -1.6307606 2.657654
0002b0 7c 64 84 bf c6 d9 c3 bf c9 83 04 40 60 ac 89 bf
       -1.0343165 -1.5300834 2.0705435 -1.075573
0002c0 52 51 62 3f 65 fd 34 bf 13 c5 cc 3e 5b 82 a6 3f
       0.88405335 -0.7069915 0.39994106 1.3008531
0002d0 7b b2 0b c0 bc 59 e6 3f 9c 03 c0 3f fa b0 87 3f
       -2.1827686 1.7996135 1.5001101 1.0600884
0002e0 9e 82 1f 40 07 6c 42 be 71 a0 52 bf c5 cd da 3f
       2.4923472 -0.18986522 -0.82276064 1.7094046
0002f0 2e 7a d7 3f ea 51 92 bf 40 3e b0 bf ce c0 be 3f
       1.6834161 -1.1431248 -1.3768997 1.4902589
000300 e3 23 1f 3f 86 ea 18 40 bd 40 84 3d 71 2c 69 3e
       0.62164134 2.3893142 0.0645766 0.2277086
000310 16 88 b7 bf 3e d2 af be 10 54 e4 3e ce bd 24 bf
       -1.4338405 -0.3434009 0.44595385 -0.6435212
000320 b8 bb b2 bf 23 8f f4 3e 11 6f 33 bf d4 8d 03 40
       -1.3963537 0.47765455 -0.7009135 2.0555315
000330 49 77 07 40 dd 5e 0a bf 3d 71 08 c0 08 8d 85 bf
       2.1166556 -0.54051 -2.1319115 -1.0433664
000340 c0 db 13 3f f6 fa 92 bf 5a dd b4 3e 69 65 18 40
       0.57757187 -1.1482837 0.35325128 2.3811896
000350 a8 3d ba 3d 4b 41 05 3d 4c 0f f8 3f 65 d5 d3 3e
       0.09093791 0.03253297 1.9379668 0.41373745
000360 f3 98 71 bf 66 ce 88 3d b5 13 66 bf ea 48 1f c0
       -0.94374007 0.066799924 -0.8987382 -2.4888253
000370 e9 9e 84 3f 6a 2f 9d be 87 0e f7 3f 72 99 ff 3e
       1.0360996 -0.30700237 1.9301308 0.49921757
000380 32 30 13 bf b8 30 0b 3f b4 a6 b5 bf a4 f7 b6 bf
       -0.57495415 0.54371214 -1.4191499 -1.4294324
000390 2d fc 91 bc 77 4c 86 bf 89 ee 46 40 14 e1 04 3e
       -0.017820442 -1.0492085 3.108309 0.12976485
0003a0 b9 b6 8d 3f 35 78 a2 3f bb 93 a7 3e 80 f4 8a bf
       1.1071388 1.2692934 0.32729897 -1.0855865
0003b0 18 99 c9 bf 1e f8 67 3e fb 29 93 3e bc 07 28 c0
       -1.5749846 0.22653243 0.28742966 -2.625472
0003c0 17 8f 94 bf b0 67 a5 bf c5 60 fe 3d fa f9 51 bf
       -1.1606168 -1.2922268 0.12420801 -0.8202206
0003d0 ca bd 93 3f 89 f8 2c bf e1 3f 43 bf c5 85 50 be
       1.1542294 -0.67566735 -0.76269346 -0.20363529
0003e0 e8 03 2b 40 ac cc 78 bf c5 84 99 bf f7 84 ce 3e
       2.6721134 -0.97187304 -1.1993643 0.4033582
0003f0 90 de 66 bf 41 b8 94 bf 0a de d2 3f 71 e8 96 3e
       -0.90183353 -1.161873 1.6474011 0.29474214

MIX_conc_core_f.CT_W_val f4 [48, 48]
000000 bc 95 82 3e 2f 25 9d be a7 da 87 3e 07 7f 7c 3d
       0.25504863 -0.3069243 0.26534006 0.06164458
000010 8a dd 6a bc 78 5f f4 be 30 0f f5 bd a1 9f dc 3d
       -0.014335046 -0.47729087 -0.119657874 0.10772634
000020 b0 77 0c 3f 3d 06 25 3e d1 9d 94 be 6b 44 36 3e
       0.5487013 0.16115661 -0.29026654 0.17799537
000030 48 90 67 3e 4b c1 5f bc ae 27 03 be 05 e8 93 be
       0.22613633 -0.0136569245 -0.12808105 -0.28887954
000040 b8 44 40 3d 74 b3 9d 3e 8e 7b a0 be 90 4d b9 be
       0.046940535 0.30800974 -0.31344265 -0.36191988
000050 19 26 f0 3e 7e 0f b5 bd cd a5 6e 3e 53 f0 89 3e
       0.46904066 -0.088408455 0.23305435 0.26941165
000060 2a bb 1b 3b 1e 62 aa bb 06 c6 44 3e 85 a1 45 3e
       0.0023762682 -0.0051996848 0.19216165 0.19299896
000070 a3 b9 ff bc 82 c5 33 be 8d 9a 0b be 2f db 9a 3e
       -0.031216448 -0.17555812 -0.13633175 0.3024535
000080 63 5e 20 3e 34 67 db be 40 b7 ac bd e1 fd 5d 3c
       0.15661006 -0.42852175 -0.0843339 0.013549299
000090 da a4 e8 bd c0 a3 88 be 12 7c e0 bc 86 ff 80 be
       -0.11359568 -0.2668743 -0.027402911 -0.2519495
0000a0 3b f9 9b 3e 21 2e 66 be 62 a7 0b bf 21 ed 85 3c
       0.30463585 -0.22478534 -0.5455228 0.016348423
0000b0 da 35 3b be b4 68 49 3e d5 44 7e 3e 71 39 42 3e
       -0.18282261 0.19668847 0.24830945 0.18967225
0000c0 f3 ae 02 3e a9 ae 96 bd 80 36 b2 be 54 df b3 be
       0.1276205 -0.073575325 -0.34807205 -0.35131323
0000d0 7b 39 af 3e 9b cc 22 bd a2 30 2f 3e 8d 19 0d 3e
       0.34223542 -0.03974591 0.17108396 0.13779278
0000e0 d6 95 e8 3d 11 3c 11 3f d9 08 7e bd b3 9d db 3e
       0.11356704 0.5673228 -0.062020157 0.42893752
0000f0 2d 10 2a bf 3d 28 82 3e ad 93 1e bc 29 5d d3 3c
       -0.6643093 0.25421324 -0.009678763 0.025801258
000100 2e 95 35 3c 33 4f b7 bd 14 6a f4 3c 44 c3 cc be
       0.0110829305 -0.08950653 0.029835738 -0.39992726
000110 bd 7c b9 3e b4 64 0f 3f 8f b7 03 3d 48 35 86 be
       0.3622798 0.56013036 0.032157477 -0.26212525
000120 31 ff ac bd 41 54 ce bc 55 f1 9d be 0d 41 4e 3d
       -0.084471114 -0.02518666 -0.30848184 0.050355006
000130 89 a4 20 bd 41 ee 24 be 5d d5 0c be 24 d1 e7 3d
       -0.039219413 -0.16106512 -0.13753267 0.11319187
000140 5f 18 4c 3d 48 bb ac 3e 59 5f 96 3a ae 42 97 3e
       0.04982793 0.33736634 0.0011472508 0.2954306
000150 bb 7a 99 3e 2c 8a 9c be 25 70 15 bf 76 77 15 bf
       0.29976448 -0.30574167 -0.58374244 -0.5838541
000160 ba a7 89 bd e5 8b 0e 3f 7b 05 23 3f 40 ba d4 3e
       -0.067214444 0.5568221 0.6368024 0.41548347
000170 63 21 a7 3d 03 a5 22 be e8 48 66 be bb c4 d3 3d
       0.08160665 -0.1588326 -0.22488749 0.10340258
000180 38 76 86 3e 4c 16 58 3d 0d 7f a7 3d 76 a2 38 3e
       0.2626207 0.05275564 0.0817853 0.18030724
000190 5d 90 5c be 4a fd dc bd ed 17 c3 3c d5 31 e7 bd
       -0.21539445 -0.107904986 0.02381512 -0.112888016
0001a0 c7 9c 6b bc 4e 9e a3 3e e7 1a 78 bc 09 85 89 be
       -0.01438064 0.31956714 -0.015143133 -0.2685931
0001b0 f0 74 63 bd 90 df f6 3d 30 4c 8e bd cb 01 9e 3d
       -0.055531442 0.1205436 -0.06948125 0.07715186
0001c0 81 54 70 bc 5e 87 f1 bd 68 de 8f 3e 0b ff 4f bc
       -0.014668585 -0.11793397 0.2809937 -0.012695084
0001d0 f4 8e 0c bf 4f 02 81 3e 9b c2 40 3e fd ed 24 3e
       -0.5490563 0.25197074 0.18824236 0.1610641
0001e0 b8 36 49 be ea c4 d1 3c 4c d1 40 bc 3d 95 b8 bd
       -0.1964978 0.025606591 -0.01176865 -0.0901284
0001f0 a4 09 1f 3e 24 40 bc 3e 7e fd e9 bc fa 98 a9 3e
       0.15531021 0.36767685 -0.028563257 0.33124524
000200 6b 8b b0 be b8 c2 15 3e 97 72 37 be 53 88 d5 bd
       -0.34481367 0.1462506 -0.17914806 -0.104263924
000210 47 b6 dc be b2 21 09 be 2a 0f 2f be a7 38 12 3e
       -0.43107817 -0.1339176 -0.17095628 0.14279424
000220 78 d7 c4 bd d0 15 8a be 38 b0 30 be 94 46 85 3d
       -0.0961141 -0.26969767 -0.17254722 0.06507602
000230 8d 73 05 3f 55 af fd bc 51 bc 0b 3e 2c a7 d4 ba
       0.5212944 -0.030967394 0.13646056 -0.0016224138
000240 1c 02 1d 3f 04 6f cd be 68 31 11 bf 6b 75 43 3e
       0.61331344 -0.4012376 -0.5671601 0.1908776
000250 bf 4d cb 3e c9 dd 74 be 0b d1 96 bd 95 bc 8b bd
       0.39707753 -0.2391273 -0.073640905 -0.068230785
000260 02 68 af 3e 30 4e 50 3e 19 b4 bd 3c ad 8f 02 3d
       0.3425904 0.20342326 0.023157166 0.0318753
000270 43 19 04 bc bc 5b 0f bf 57 e1 c0 bd ba 58 86 be
       -0.0080626635 -0.5599935 -0.0941798 -0.26239568
000280 e5 46 62 3d 90 2f 0b 3e 81 b9 fe bc 0f 68 c3 bd
       0.05524339 0.13592362 -0.031094315 -0.09541332
000290 8a 9a 9b be b0 f2 d2 bd 4a d7 24 3f 27 93 07 be
       -0.3039134 -0.10300195 0.64391005 -0.13239728
0002a0 b8 16 19 be 17 11 3f be ad ac 20 3e bc 5c 0e 3f
       -0.14950073 -0.18658863 0.1569087 0.5561025
0002b0 93 e3 a4 be 64 84 01 3d 09 cf 06 3e bf 1b e9 bd
       -0.32204875 0.0316204 0.13164915 -0.11382245
0002c0 03 9c 0e be 1b 66 18 3f 2a d5 5d be 55 cc 01 3f
       -0.13926701 0.595308 -0.21663347 0.5070241
0002d0 f8 a2 d5 be 75 36 5b be 69 de 80 be de 49 42 ba
       -0.41725898 -0.21407492 -0.25169685 -0.000741152
0002e0 af 89 ee bd 33 fc 1c be ba a1 cf be 48 d6 8c be
       -0.11647355 -0.15330581 -0.40553075 -0.27507234
0002f0 50 e5 cf be 4f 51 e5 3e 03 b2 b4 bd d3 4a 9a 3d
       -0.4060464 0.44788596 -0.088230155 0.07533803
000300 7b 40 59 3e cc 51 67 3d 75 ea 17 bf d2 65 aa bc
       0.21216004 0.056474492 -0.5934213 -0.020800505
000310 18 27 92 be a2 ef 45 3d 63 d4 bc 3d 75 1d 52 3e
       -0.2854545 0.048324235 0.09220197 0.2051905
000320 32 c4 00 bf 16 1b c4 3e 8e af 38 3d 1b 70 a5 3d
       -0.5029937 0.38301915 0.045089297 0.08078023
000330 a0 3f 7e be 61 1c c9 be e3 b5 00 bf 1e 59 ce bd
       -0.24828959 -0.39279464 -0.5027754 -0.100755915
000340 3f a1 1a 3f cc 48 cd bd a9 19 2f be be 69 dc 3e
       0.6040229 -0.100236505 -0.17099632 0.43049425
000350 af ba cd be 98 11 de 3d bb 95 7c be aa 03 c7 3d
       -0.4018149 0.108431995 -0.24666493 0.09717496
000360 9a 92 a2 bd 5f b0 08 bf e6 53 ae be 2e 91 40 3e
       -0.07938118 -0.5339412 -0.34048384 0.18805382
000370 d4 7d af bf 3a d6 bb 3e 45 95 ec 3b d8 75 73 3f
       -1.3710275 0.3668688 0.0072199428 0.9510169
000380 09 4f ae bc 66 5b 0c bc 66 a9 c2 3e c2 64 c1 bc
       -0.021277921 -0.008566713 0.38019866 -0.023607615
000390 49 7f de be d3 a0 a7 bd c3 b5 84 3e 08 43 db bd
       -0.43456486 -0.08184972 0.25919923 -0.107061446
0003a0 7f 82 a3 3e e5 ae 55 be 34 4b 75 3f 0b f9 60 3e
       0.31935498 -0.20867498 0.95817876 0.21970002
0003b0 b3 94 27 be e0 68 11 be 16 2b b4 3d 8f 42 54 3d
       -0.16365318 -0.14200163 0.087972805 0.051821288
0003c0 23 c5 27 3b 20 54 33 3b ae 97 9c 3e e6 f5 22 be
       0.002559968 0.0027363375 0.30584472 -0.15914115
0003d0 7d a4 9f 3e 23 0f ba be c6 cb 0a 3c 48 12 be 3c
       0.31180182 -0.36339673 0.008471435 0.023202077
0003e0 e6 1f e2 3d 83 6c 8a 3d 10 31 ee 3d 37 e5 b9 bd
       0.110412404 0.06758978 0.11630452 -0.090769224
0003f0 64 ed 46 3e 2c d3 a3 3e 2a f8 5a bd 0a 4b 01 bf
       0.19426495 0.3199705 -0.053459324 -0.50505126

MIX_conc_core_f.CT_motivate_mlp.0.weight f4 [48, 96]
000000 ff fe 1f 3e 78 c9 1b bf cb 3a 3c be 5d 85 cb bf
       0.15624617 -0.6085429 -0.18381803 -1.5900074
000010 06 4c 28 bf 0b 15 eb 3d be 64 c3 3f 49 c0 18 bf
       -0.65741 0.11478623 1.5265119 -0.59668404
000020 92 e4 97 be 95 15 ca be 8c b4 0b 3e 6b f0 81 bf
       -0.29666573 -0.3946959 0.13643092 -1.0151495
000030 bd f1 33 3e 87 8b 02 bf 7f fe 89 bf 58 2f 61 bf
       0.17572685 -0.5099415 -1.0780791 -0.87962866
000040 b5 d3 c1 bf 95 fd c5 be c2 1e 7f bf 37 b2 85 bf
       -1.5142733 -0.3867003 -0.9965631 -1.0445012
000050 07 71 12 bd b4 ec bf 3e fb c6 72 3e 0a f4 88 be
       -0.035752323 0.37485278 0.23708718 -0.26748687
000060 c2 8a c4 be aa f3 2d be 14 ee 83 3f 56 b1 d9 3e
       -0.38387114 -0.16987482 1.0307031 0.4251811
000070 1f ba 04 3e 05 58 13 3f f3 fc 96 3e a3 e6 5e bf
       0.12961625 0.5755618 0.2948986 -0.87070674
000080 1e 9e 4a 3e da 31 5d be 75 08 0f bf 6c 44 26 3d
       0.1978688 -0.21601048 -0.5587228 0.040592596
000090 ba 6c cc be 34 4d de bd 02 e8 73 bf c6 53 7c 3f
       -0.39926702 -0.10854569 -0.9527589 0.9856533
0000a0 e3 32 d8 3d ac b0 ea 3e 3d 87 e1 3f 1d fa 54 3e
       0.10556581 0.45837915 1.7619396 0.20798536
0000b0 dc c7 65 bf 12 4c bf bf d7 4b cc 3e 69 3b 06 3f
       -0.89758086 -1.494509 0.3990161 0.524344
0000c0 5c 20 bb 3e 0c 1c 7e be d7 dc d0 bd a3 9d 48 3e
       0.36548126 -0.24815387 -0.10198372 0.19591384
0000d0 54 a5 bc 3d ea 78 35 be 5e 8a b4 be ac 1e 41 3e
       0.09211221 -0.17721906 -0.35261816 0.18859357
0000e0 32 c3 90 3d df e2 56 3e b8 3e dc bd ed a0 47 bd
       0.070684806 0.20984982 -0.1075415 -0.048737455
0000f0 53 d9 67 3e 26 4d 35 3f 46 0f 08 3c 80 35 53 bd
       0.22641496 0.70820844 0.008304423 -0.051564693
000100 6d 9b 13 3c 95 01 2d be 9c 59 d3 bd b1 de 97 be
       0.009009224 -0.16895135 -0.10319826 -0.29662088
000110 78 a6 bb be fb 1e 99 3e 09 f1 92 3d 0d 06 9a 3d
       -0.36650443 0.2990645 0.0717488 0.07520685
000120 1d 4b 0a 3d fd c6 83 bd 79 7c 0b be 26 ca f6 3d
       0.03376304 -0.064344384 -0.13621701 0.120502755
000130 92 2f 9b 3e 1c 1a 0b 3e de 2b ce bb 85 96 aa be
       0.3030973 0.13584179 -0.0062918505 -0.33317962
000140 43 25 cd be 5f fe 36 bd 21 ed e7 bd e4 33 77 3d
       -0.4006749 -0.04467618 -0.113245256 0.06035222
000150 09 88 49 be cc ec c6 3d e8 a4 c6 bd a3 ae 86 3d
       -0.196808 0.09713134 -0.09699422 0.06576278
000160 d8 82 4c be d9 d7 d2 3d b3 38 44 be db 7b 8c be
       -0.19971788 0.10295076 -0.19162254 -0.27438244
000170 1f b5 7a bc 20 66 80 3e 79 17 ac 3d bb 10 23 bc
       -0.015301972 0.25077915 0.084029146 -0.009952719
000180 42 f1 4a 3f 5b 9c 2d 3f 4f e1 61 bf e8 17 d4 be
       0.7927438 0.67816705 -0.8823442 -0.4142449
000190 e2 ba 60 3d 6d 15 ef be 6e b4 95 3e 33 d1 16 40
       0.054865725 -0.46696034 0.2923922 2.3565185
0001a0 d5 24 e4 bf e4 c3 20 c0 51 02 da 3e 01 70 c2 3f
       -1.782374 -2.5119562 0.42579892 1.5190431
0001b0 da 77 fd be 3f 33 25 be c8 73 88 3f 72 3f a9 bf
       -0.49505502 -0.1613283 1.0660334 -1.3222487
0001c0 27 0a ed 3d d9 a7 c9 be 66 60 98 3f 12 4c 05 bd
       0.11574202 -0.3938587 1.1904418 -0.03254325
0001d0 74 16 08 40 f2 d0 a7 3e 72 97 bc 3d e3 0c db 3d
       2.1263704 0.327766 0.092085734 0.10695817
0001e0 ce f0 a9 3f 7e 7a 9c 3f e9 36 ba 40 0d 76 b6 bd
       1.3276613 1.2224882 5.819203 -0.08909235
0001f0 ce 13 f7 3e a4 4f 14 bf bf 75 21 40 39 30 d3 be
       0.48257297 -0.5793402 2.5228117 -0.41247728
000200 e7 bc cb 3f 43 41 18 c0 d6 83 ab 3e 11 1d 23 3f
       1.5917023 -2.3789833 0.3349902 0.63716227
000210 a6 81 d4 3e bc 52 16 bf 4e 9b 72 3f a1 c7 65 3f
       0.41505164 -0.5871999 0.94768226 0.89757735
000220 ac 26 86 bf e0 eb 5c 3f 08 8e 33 3f e8 5a a0 be
       -1.0480552 0.86297417 0.701386 -0.31319356
000230 ae 16 46 c0 0e 4a 86 bf db 4a 0a c0 f0 91 49 3f
       -3.0951343 -1.049135 -2.1608188 0.7873831
000240 63 aa b9 be f5 8f 27 bd 28 43 0d bf 63 de 9d bf
       -0.36262807 -0.040908772 -0.551806 -1.2333492
000250 12 1a 92 3f 45 01 35 bd 99 44 c6 3e 8d 9b 83 be
       1.1414206 -0.044190664 0.3872421 -0.25704613
000260 7b 7c 14 3e 1d 26 ba 3d 9b 4a 9f 3e b5 e6 1b 3d
       0.1450061 0.09089301 0.31111607 0.038061816
000270 b6 6d c1 3d 00 cf 46 3f eb 6d 0b 3e 74 e4 93 bc
       0.09444754 0.77659607 0.13616149 -0.01805327
000280 43 1e 37 bd 24 63 5a bf 0a 22 54 3f fd 8a 8c 3d
       -0.044706594 -0.85307527 0.8286444 0.068624474
000290 67 71 3c 3d e5 53 34 3b 2e 1d 0b 3e be e8 63 bd
       0.046006586 0.0027515825 0.1358535 -0.055641882
0002a0 7d f6 1a 3d 84 2e 3f 3e 89 64 a1 be 22 c4 20 bf
       0.037832726 0.18670088 -0.31522015 -0.62799275
0002b0 3f 6c 6e bf a3 bd 8e 3d 88 9c 9d be fa 29 e0 3f
       -0.9313392 0.06969764 -0.30783486 1.751281
0002c0 8e 3c f4 3e 26 e8 7e 3e df d5 98 be 0e 22 e9 3d
       0.4770245 0.24893245 -0.2985067 0.113834485
0002d0 89 59 6f be 6b 4e 3c 3f 51 ee 96 bf fd 46 82 3b
       -0.23373999 0.73557156 -1.1791478 0.0039757476
0002e0 f7 4b b2 bd 19 0e 2d 3f 80 8d 9b 3d 62 94 43 3f
       -0.087058954 0.67599636 0.07595348 0.7639829
0002f0 25 bf 11 3f d8 23 03 bd 83 8b 2f 3e 86 eb 9e 3d
       0.5693229 -0.032016605 0.17143063 0.07759766
000300 43 f6 b4 be 75 72 67 3e fe 3b db be 01 78 44 40
       -0.35344133 0.22602256 -0.42819208 3.0698245
000310 df 5e 77 3f f0 68 98 3f 69 e1 eb be 20 f2 5d 3e
       0.96629137 1.1907024 -0.46070412 0.21674395
000320 0e aa ad bf 9c d3 6b 3f 46 b5 b8 be a4 da 26 bf
       -1.3567522 0.92119765 -0.360758 -0.6517737
000330 c4 43 dd 3e a1 2b 22 c0 3d ed b1 3f f2 25 97 bf
       0.43215764 -2.533913 1.3900524 -1.1808455
000340 97 bf 94 3e 74 cd 3a 3e 0c 08 d2 3f 45 36 53 c0
       0.2905242 0.18242437 1.6408706 -3.3001873
000350 f5 b2 90 bf 0d f4 a1 bf aa f8 1a 3e eb 22 dc 3e
       -1.1304613 -1.2652603 0.1513392 0.4299539
000360 6f 73 86 3f 17 f5 0d bf 73 2e 78 3f 82 d8 06 3f
       1.0503978 -0.554521 0.96945876 0.52674115
000370 c9 bb 85 be 22 96 40 3f 4e 6d 20 3f 2a 72 8e bf
       -0.2611983 0.75229084 0.62666786 -1.112859
000380 71 f3 ab be 6c 2d a8 3e e7 1f 89 3e e4 e8 83 be
       -0.3358417 0.32847154 0.26782152 -0.2576362
000390 cd 61 8c 3f 2f ba 26 c0 70 5f 04 bf 53 65 e8 3d
       1.0967346 -2.6051137 -0.51708126 0.11347451
0003a0 d4 ec 54 be 1a 20 8b 3e d2 28 dd 3f a4 3a e3 be
       -0.20793468 0.2717293 1.7278082 -0.44380677
0003b0 0d 51 5d 3e d6 d1 c7 3f aa 2e 51 3f d9 21 87 3d
       0.2161295 1.5610912 0.8171183 0.06598253
0003c0 2f f6 88 3d d8 a0 a1 be db db b9 3d 2a 92 86 be
       0.06687581 -0.31568027 0.09075137 -0.2628339
0003d0 1e 43 78 3e 93 11 01 3f e1 da 10 3e 06 8c 29 3e
       0.24244353 0.5041744 0.14145996 0.16557321
0003e0 17 22 40 3e fc ce 40 3e 09 9e 27 bf ef f1 1a 3e
       0.18763004 0.18828958 -0.6547552 0.15131353
0003f0 2d bb 11 3f 1a a8 33 3f d6 69 2c 3e cc cf 72 3f
       0.5692623 0.7017838 0.16837248 0.9484832

MIX_conc_core_f.CT_motivate_mlp.0.bias f4 [48]
000000 4f af 1e 3d 5c b7 47 be de 7a c3 be f0 03 aa be
       0.038741406 -0.1950354 -0.38179678 -0.3320613
000010 0a 74 40 bf 54 03 52 bf 59 2d ac bf 0c 50 3f bf
       -0.7517706 -0.8203633 -1.3451339 -0.74731517
000020 b0 6b a2 bf b8 ec 00 c0 c0 a0 68 bd f0 bd 72 bf
       -1.2689114 -2.0144482 -0.05679393 -0.9482107
000030 a1 bf 2b bf 2b 5c 7c be 2e c6 29 bf c3 50 6d bf
       -0.6708928 -0.24644534 -0.66318023 -0.9270136
000040 c8 df 84 be 1d ca bc bd 63 6b 56 bf df 30 5a be
       -0.25951982 -0.092182375 -0.8375761 -0.21307705
000050 f5 68 e1 be 03 8b ff bd fd 48 3a be f6 eb c7 bf
       -0.44025388 -0.12477686 -0.18191905 -1.5618885
000060 8a f9 41 3f 59 5c 9b bd e7 31 5c be e5 cf 81 be
       0.7577139 -0.07585973 -0.21503411 -0.25353923
000070 0b 3b 44 be 98 ef 5f be 3e 7e 0e be 8c fd 1d 3f
       -0.19163148 -0.21868742 -0.13915345 0.61715007
000080 cb 17 2a 3e ba 70 bc be 77 82 69 bf 5b ef 9b be
       0.16610639 -0.36804754 -0.912147 -0.3045605
000090 eb 69 b6 bd b2 29 00 3e 3a 02 1c bf 16 ce ca be
       -0.08906921 0.12515905 -0.609409 -0.39610356
0000a0 50 84 25 be 2f 71 75 3e ef 7b 1c bf 2c 3a 41 be
       -0.16163754 0.23968957 -0.6112661 -0.18869847
0000b0 35 64 2f 3e 81 b1 fe be 33 b7 e2 be e9 0d a1 bf
       0.1712807 -0.497448 -0.44280395 -1.258237
