ZHECKPOINT/50RL-55opp/model.pt (torch, 266432 bytes, 32 tensors)

_batch_norm.mean f4 [16]
00000000: 0000 0000 8d37 b1be 353a 423e ee69 593c
00000010: 70b6 14bd d483 b93b 1968 2f42 15eb 703f
00000020: 0000 0000 0000 0000 0000 0000 0000 0000
00000030: 0000 0000 0000 0000 0000 0000 0000 0000
0.0 -0.34612694 0.18967517 0.0132698845 -0.0363068 0.005661467 43.851658 0.94108707
0.0 0.0 0.0 0.0 0.0 0.0 0.0 0.0

_batch_norm.var f4 [16]
00000000: 0000 803f e207 ad40 463f 9540 e240 5640
00000010: 0d43 fd3d af20 ef3d feae 5b44 fe63 a93c
00000020: 0000 803f 0000 803f 0000 803f 0000 803f
00000030: 0000 803f 0000 803f 0000 803f 0000 803f
1.0 5.4072123 4.663974 3.3477101 0.123663045 0.11676156 878.73425 0.020677563
1.0 1.0 1.0 1.0 1.0 1.0 1.0 1.0

AT_obs_encoder.0.weight f4 [48, 16]
00000000: 4458 4f3e db50 05bd 290e b73d e7e5 1d3e
00000010: 42de 8f3e ae22 07be adc3 803c 2c49 a13d
00000020: 81f7 163c beb4 c33c 2b85 bf3c 7f98 183d
00000030: 7208 6e3d 3c19 013e c38a 0e3e 6315 4fbe
00000040: 9f77 e73e d812 a4be 3d74 31bf 30cb 86bc
00000050: c4f5 04bc a114 15bc aae3 1ebe fc73 2dbc
00000060: 68d7 7dbb 5ee5 993b 2b32 3f3c ec23 c43c
00000070: 5568 453d 3ec3 173e 6e8a debd 58b6 493d
00000080: a2f4 ae3e d0c8 89be 3af4 e1bd 7cee a63c
00000090: 1487 893d b11a ecbc 2d50 99be 93c1 c43d
000000a0: 5a12 63bb 81e6 9fbc 73c4 92bc 4ede 7bbc
000000b0: cc5e cd3c c2c0 6a3b e989 d7bb 4a53 ab3d
000000c0: bed8 823e 1e16 e1be 1eb9 1d3f 863e 9a3c
000000d0: 85b9 23bb 0e6c a43b 3691 ccbd e4b3 5e3c
000000e0: dca6 f93b afe9 ae3b 0fbb be3c f7aa a53c
000000f0: d8ca 383d 873e b73d 63e7 113e 0b84 403e
00000100: 63b7 18be 83d8 793b c8e4 8e3d 82d2 103f
00000110: 8c9b b1bd 25d4 f33d 1088 42be 2a5d 363d
00000120: 5362 0f3c fc35 d63b e654 c73c 8462 4b3d
00000130: 053a 353d 193f 443d 8b00 103e 4ecd 22be
00000140: cccf 1b3e 6ee2 5abf 967b efbd e93b 6e3c
00000150: d7aa c1bc cc49 ebbc c845 81bd e226 4abc
00000160: 60b4 d438 9595 073c e4c1 e83b dbd6 da3c
00000170: 7bb6 153d 820e e03d 8dd0 3f3e 32f4 933d
00000180: 8032 3e3e 5e4a 423f 307b 923d a7a4 5bbc
00000190: 70a5 173d 8f34 ae3c d512 6f3d a833 20bb
000001a0: 5a72 5d3b 0552 433a ad72 3cba c3db 4abc
000001b0: 02b7 0cbd 6c1a aabd a3c2 f1bd 2126 243d
000001c0: 3695 603e 8cd7 b93e 5621 b8be 8721 823d
000001d0: c511 063d 5e4e 33bc b410 c43c ce90 efbc
000001e0: a8df 393c cd8e 9a3c 3a7b 1fbc 6bbe 8abd
000001f0: 681c f9bd be72 55be b986 4e3e eef0 95bc
00000200: af17 e23e a816 8f3e b755 033f 3cc5 16ba
00000210: 7517 353b 62ea 993c 8369 a2bd 46b2 373c
00000220: 5b5f 313b 7d5d e13b 2dd2 6e3c c50c e33c
00000230: 9a84 673c 8ca1 413d 252d fb3d 4fa5 ac3d
00000240: 79e6 613e 0a96 83bf 33ac 2f3e c272 b93c
00000250: 8863 36bd 7598 9d3c 40ba 9abd 2c80 f6bb
00000260: dc19 2bbc 945c 0e3c 9f90 0a3c 4671 9e3c
00000270: b5d5 9f3d 1b90 f93d c42e 1b3e 6e53 d7bd
00000280: ff1e 3d3e 73fd fa3d ae0f c63e 05dc 203d
00000290: 7618 0ebc 1308 653d a956 bf3e c35a 2f3e
000002a0: a85e 31bb 5aa8 373d 91ec 1c3d 199e b63d
000002b0: db45 543d 9e3c 8b3e f136 373e b9ff f13d
000002c0: 39f6 dc3e d650 003d 6160 b4bd 0a7b 5cbd
000002d0: cf3c 9b3c 6e00 963d 58d4 963c df37 c03e
000002e0: f2c2 31bb 50a2 9bbb 8420 2e3c e009 113c
000002f0: 157b bc3c 1570 1ebc eb85 6b3d 464c c5bd
00000300: 3f92 8f3c ee69 513f 1609 04be 9fa8 20bc
00000310: 5ea2 ab3a e1a0 8cbb 241f d6bd a1fc 15bc
00000320: 3c71 cdbb 7e35 ca3b 306d 243c b4c9 d63b
00000330: 22d3 2f3d a981 a53d 3574 0b3e 60a9 2fbe
00000340: a45c 8bbe 5eab 053f 49ab 0bbd 9381 a0bc
00000350: fe4e 423d d19e 8bbc 6590 04bf f6b0 df3c
00000360: 85ee 983c 12af 5b3c 45bc 153d b0f1 933d
00000370: a472 84bd e9f5 53be d8f0 e4be 9db3 21be
00000380: 46dc 0f3d 6f0e 0dbf 8ef4 4b3f 5abd 2939
00000390: 5668 72bc e207 fa3b a925 9abc fba9 2c3b
000003a0: fff3 0c3c c75d aebb 7bc4 563c 1b4f b23c
000003b0: c348 443d 3fcc 883d 48ae 253e 05fa 17be
000003c0: 474e 07bd b64b 3c3d 3f31 983c 50c7 2ebf
000003d0: b6fe d8bd 6c32 3bbd 421b 4c3b a74f 08bc
000003e0: 35b1 813c 5cd9 cfbc aad1 133c fa44 733d
000003f0: c236 21bc ce5c ba39 43c3 d5bd e10a dbbd
0.20248514 -0.032547813 0.08938248 0.15419732 0.28099257 -0.13196823 0.015718305 0.078752846
0.009214283 0.023889896 0.02337893 0.037254807 0.058113523 0.12607282 0.13920121 -0.20223002
0.4520845 -0.32045627 -0.6931799 -0.01645431 -0.008115236 -0.009099157 -0.15516534 -0.010586735
-0.0038733128 0.004696532 0.011669676 0.02394291 0.048195202 0.14820573 -0.10866247 0.049246162
0.34171015 -0.2691102 -0.11032911 0.02037739 0.06715217 -0.028821321 -0.29943982 0.09607234
-0.003464839 -0.019519093 -0.01791594 -0.015372826 0.025069617 0.003582046 -0.0065777195 0.083654955
0.25555986 -0.43962187 0.6161059 0.018828642 -0.0024982404 0.005017764 -0.09988634 0.013592694
0.007618768 0.005337916 0.023282556 0.020223124 0.045115322 0.08947473 0.14248423 0.1880037
-0.14913706 0.0038123436 0.0697723 0.5657121 -0.08672246 0.11905698 -0.18997216 0.044522442
0.00875147 0.006537197 0.024332475 0.0496545 0.044244785 0.047911737 0.14062707 -0.1589863
0.15215987 -0.85501754 -0.11693494 0.014540651 -0.023641033 -0.028721713 -0.06312138 -0.012338372
0.00010142545 0.008275409 0.0071031917 0.02671378 0.03655098 0.10940267 0.187319 0.07224311
0.18573952 0.75894725 0.071524024 -0.013405955 0.037023008 0.021265296 0.05836757 -0.0024444852
0.0033790083 0.00074508815 -0.0007188719 -0.012381497 -0.034354217 -0.08305821 -0.11804702 0.040075425
0.2193192 0.36297262 -0.35962933 0.06354051 0.03273179 -0.010943977 0.023933746 -0.029243853
0.011344828 0.01886692 -0.009733969 -0.067746006 -0.12163621 -0.20844552 0.2016858 -0.01830336
0.44158694 0.27946973 0.51302665 -0.0005751436 0.002763239 0.01878852 -0.07930281 0.011211937
0.0027064893 0.0068775997 0.014576477 0.02771605 0.014130736 0.047273204 0.1226447 0.084299676
0.22060575 -1.0280163 0.17155533 0.022637729 -0.044528514 0.019237736 -0.075550556 -0.0075226035
-0.010443177 0.0086890645 0.008457332 0.019341122 0.07804433 0.12185689 0.15154558 -0.1051396
0.18468855 0.12255373 0.38683838 0.039272327 -0.008672824 0.055915903 0.37370804 0.17124467
-0.0027064476 0.044838287 0.038311545 0.089168735 0.051824432 0.27194685 0.17892052 0.11816353
0.43156603 0.03132709 -0.08807445 -0.053828277 0.018949894 0.07324301 0.0184118 0.37542626
-0.0027124253 -0.004749574 0.0106278695 0.008852452 0.023007909 -0.009670277 0.05750076 -0.09633689
0.01752579 0.8180226 -0.12894091 -0.009805827 0.0013094654 -0.004291639 -0.10455158 -0.00915447
-0.006269602 0.0061709275 0.010035798 0.0065548066 0.04292596 0.08081371 0.13618548 -0.17154455
-0.27219117 0.5221461 -0.034098897 -0.019593036 0.047438614 -0.017043503 -0.5178283 0.027306061
0.018668422 0.013408439 0.0365565 0.072238326 -0.064671785 -0.20699276 -0.44715 -0.15791173
0.03512218 -0.5510015 0.79670036 0.00016187635 -0.014795383 0.0076303342 -0.018816786 0.0026346433
0.008603095 -0.0053212377 0.013108368 0.021766236 0.047920953 0.06679582 0.16179764 -0.14841469
-0.033033635 0.04597064 0.01857817 -0.68272877 -0.10595457 -0.045702383 0.0031144177 -0.008319772
0.01583157 -0.0253722 0.009022156 0.059391953 -0.009839715 0.0003554583 -0.10437634 -0.10695434

AT_obs_encoder.0.bias f4 [48]
00000000: e4c4 e03d f3a0 183e 061f 603e 3dcd 943e
00000010: 17ca cabd bbc0 363e dbf9 723c 3a22 123e
00000020: d70e 823e 1cb3 6b3e fb15 5b3c 5de0 1b3e
00000030: 8d29 813c 2dbb 65bd 50c5 ce3d d764 cebd
00000040: a807 aa3e 8bb6 d53e 5b8f 04bd c2e2 023d
00000050: fc7a 073d 6517 cd3d 2ef3 10be 5fd2 cdbd
00000060: 7a41 453e 7085 ec3d 3d8b 023f 1f5d bf3d
00000070: 3f11 da3d 5756 a03e 4aaa 9e3d a2b8 933d
00000080: 2b1f 3a3e 6c6b 9b3e f8f9 263e ce27 8a3d
00000090: c954 eb3e 2bd5 f8bc 159e 3d3d 7a2e 5e3d
000000a0: 5337 213d c377 183e 3d6a 863d d267 aebd
000000b0: 91e1 84bd 5a6e a73e 5a7b b93d 5073 62bd
0.10975054 0.14905147 0.21886835 0.29062834 -0.09901827 0.17846958 0.014830078 0.14270869
0.25401947 0.23017544 0.01337194 0.15222307 0.015766883 -0.056086708 0.10096228 -0.100778274
0.33208966 0.41740832 -0.032363277 0.031954534 0.03307627 0.10014228 -0.14155266 -0.10049891
0.19263259 0.11548889 0.5099371 0.09343933 0.10647821 0.31315872 0.07747324 0.0721295
0.18175952 0.30355394 0.16306293 0.067458734 0.45963123 -0.030375084 0.046293337 0.054243542
0.039359402 0.14889435 0.06563232 -0.08515896 -0.06488336 0.3270138 0.090567306 -0.05528575

AT_obs_encoder.2.weight f4 [48, 48]
00000000: 32f8 313d 039e 57be 2d19 a5bd d33e 1e3d
00000010: 1be2 8b3d ffb3 23be e242 6e3e 861e 0dbe
00000020: 95e3 023e fc45 753e 39c2 29bc 5756 b73d
00000030: e632 f0bd 9411 51be e445 173e a823 443d
00000040: 0e90 943e 9916 8e3d 25fb ac3e ccf5 79be
00000050: 1bf6 593e cefc 45be f441 7f3e 3c45 48bc
00000060: 148e 863d c32a 173d f8d6 cb3d f415 853e
00000070: 55c8 11be e9c9 55bd 9948 a73e 267f c9bc
00000080: d2b5 96be bc86 cebd fe21 01be db4d 0c3e
00000090: 7d77 1a3f cee2 f63d 54a7 513e e071 0ebe
000000a0: e9fd 473d 4215 7f3d bf7d b33d 51cd 1cbd
000000b0: 71b2 8a3e 68a8 02be 71c6 acbe 0284 80be
000000c0: 2d8a cb3d 1f20 1f3e 0eef 833d b68a 1ebe
000000d0: 0a75 22be 3d68 0f3e 3cc0 19be a5cc bc3d
000000e0: b206 febe 624d 83bd 9463 b33e de56 ac3c
000000f0: 078a 64be 6bc9 54bd 02d0 1a3e 4baf 0abe
00000100: 8766 a0bd 58a2 d63e b569 23be 4c0c adbc
00000110: 9e07 81bd 329f aebd e4c5 9dbe 5aa9 4fbe
00000120: b4ed 393e b4cc 6fbb 4604 9cbc 1491 c0be
00000130: 376d ac3d 88cc 97bd 4f19 b3be 20c8 0cbe
00000140: 1536 323d 8ad9 36bd ae86 22be a19e 4ebe
00000150: 60e8 c2bc b389 fb3c 6488 eabd 257d 0fbe
00000160: 669c 8fbe 8211 9dbe 4233 9fbe 0e89 b33c
00000170: a979 12bd c150 17bc dad6 c5be 56e7 cabd
00000180: 912f debc fb6b 66be c067 343d e115 15bd
00000190: df2d c73d 78d3 5abe f8d5 9a3c 5111 3bbd
000001a0: 9eda aebd d6db 37be e96b dbbb 4176 14be
000001b0: 6444 8dbe 9324 b33d 67c0 b73c 7598 4cbd
000001c0: 400a f1bd 85c7 7a3c 8337 30bd 011b 323e
000001d0: e89b ffbd b1d8 50be aa6f 68bd 6f7d 873d
000001e0: ba2e d1be ec4c c53e b22c dcbe 7c9f bebd
000001f0: 7065 00bf e7bd 45be cfb0 1e3e 7b90 87be
00000200: 4249 773e 18d3 e83d d221 ba3d 9603 9abb
00000210: 4b91 69be 64c2 7c3e 446a 5abe 945e dd3d
00000220: 89fd 933e 0bf4 c0bd e766 fdbe bfaa 25be
00000230: 72a0 0b3f d93c 62be 2784 9c3d 0e4a 21be
00000240: d2e0 ca3d 0863 28be 66f0 a6bd 1ea9 e2bd
00000250: cbbe 27be 39a4 c8bd cc14 73be f90b 86bd
00000260: c1c1 27bd 9d93 72bd a2c3 123e 78c7 71bd
00000270: fa60 cb3c 4d13 c13d 7c12 263e e668 4bbe
00000280: f493 43be 7c4e 82bd b67f dd3d 8903 be3d
00000290: 757f 1fbd d943 833d 377d d13d d3bb 9fbd
000002a0: d4b9 4c3e 9785 09be 1b1d 4abe 4f3e 143e
000002b0: 327a 223e d74c e1bd 2efb 7f3e e51b 153d
000002c0: 21f3 f3bc e138 c43e 11e3 7d3d 9475 3ebe
000002d0: 8b21 553d 71ef 873d efa9 243e c85d 383e
000002e0: 8031 183e d92e 73bc 9f87 c3bd d7a4 f83e
000002f0: 8101 c3bd 8ea2 e3bb 45ac 12be 7bb0 d6bd
00000300: fbf1 41be 0f1c 22ba 464c d2bb 6154 623e
00000310: 5c16 88bd 1ad5 523e b9b0 6d3e 6912 2abe
00000320: f114 8cbe 661e f4bd e5d0 733d 3fac dcbc
00000330: b96b 593e 793e 62be 728f 463d b954 81be
00000340: ee41 0a3e 397d ecbd 2ee0 6f3e 1822 27be
00000350: a6b3 5bbe 986c 05be e773 943e f593 01be
00000360: 7aea 573e 49cf d73d 4672 47be c2c1 05bf
00000370: 6428 c23d 6379 39be b279 073e 34b7 60bc
00000380: c97a 1f3e d5c2 963e 3464 71bd db30 d0bd
00000390: ed68 053e ebd8 3d3e 3f81 83bd 913e b33d
000003a0: 2168 013d c833 4d3c 474e 943e e08e 5a3d
000003b0: 11b7 bcbd 90da 993d d4e5 b03c e13b ba3e
000003c0: 5ac1 bfbd 8ccc f43d 6620 fe3c d726 963d
000003d0: c080 663e ce43 f83d d8c6 6cbe 471a d9bb
000003e0: 2687 ab3d dada 823d e8c9 cd3d bc83 e9be
000003f0: 2738 153e 4ba0 c33d 9611 49be 658a 9abd
0.043449588 -0.2105637 -0.080614425 0.038634133 0.068302356 -0.15986632 0.23267701 -0.13781175
0.12782128 0.23952478 -0.010361248 0.08952015 -0.11728458 -0.20416862 0.14772755 0.047885567
0.29016155 0.06937904 0.33785358 -0.2441017 0.21285288 -0.19334719 0.24927503 -0.012223538
0.06570068 0.036906015 0.099531114 0.2599331 -0.14236577 -0.05219451 0.32672575 -0.024596762
-0.29435593 -0.10084292 -0.12610623 0.13701575 0.60338575 0.12054978 0.20473987 -0.13910627
0.048826132 0.062276132 0.087642185 -0.038281742 0.27089265 -0.12759554 -0.3374515 -0.25100714
0.09938464 0.15539597 0.064420804 -0.15482602 -0.1586496 0.14004607 -0.15014738 0.0921872
-0.49614483 -0.06411244 0.3503691 0.021037515 -0.22318278 -0.0519499 0.15118411 -0.13543431
-0.078320555 0.41920733 -0.15958293 -0.021124028 -0.06300281 -0.08526458 -0.3081504 -0.20279446
0.18157083 -0.0036590518 -0.019045006 -0.37610686 0.084192686 -0.07412058 -0.34980246 -0.13748217
0.043508608 -0.044641055 -0.15871689 -0.201777 -0.023792446 0.030705309 -0.11451796 -0.14012583
-0.2804901 -0.3067742 -0.31093794 0.021915939 -0.035760555 -0.009235562 -0.3864048 -0.09907405
-0.02712229 -0.22502129 0.044044256 -0.03639782 0.09725546 -0.21369731 0.018900856 -0.04567081
-0.08537792 -0.17954955 -0.0066962135 -0.14498235 -0.2759124 0.0874721 0.022430612 -0.04995008
-0.11769533 0.015306358 -0.04302169 0.17393114 -0.12480909 -0.20395161 -0.056747116 0.066157214
-0.40855962 0.3853525 -0.4300285 -0.09307763 -0.5015478 -0.19310723 0.15497135 -0.26477417
0.2414904 0.11368388 0.09088482 -0.0047001345 -0.22809331 0.24683529 -0.213296 0.10809055
0.2890437 -0.094215475 -0.4949257 -0.16178416 0.54541695 -0.22093524 0.076423936 -0.15750906
0.09906162 -0.16444027 -0.08151321 -0.11067413 -0.16381375 -0.09796948 -0.23738402 -0.06545252
-0.040956262 -0.059222806 0.1433244 -0.05902812 0.024826515 0.094275095 0.16217989 -0.19864234
-0.19099408 -0.06362626 0.108153746 0.09278018 -0.038939912 0.06409425 0.10228961 -0.077994965
0.19992763 -0.13429867 -0.19737665 0.14476894 0.15866926 -0.11000984 0.24998161 0.036403555
-0.029779019 0.38324645 0.061984126 -0.1859954 0.052033942 0.06637467 0.1608045 0.18004525
0.14862633 -0.014842712 -0.09547352 0.48563263 -0.09521771 -0.0069468683 -0.14323528 -0.1048288
-0.18939964 -0.00061839906 -0.006417784 0.221025 -0.0664489 0.20589104 0.23211946 -0.16608585
-0.27359727 -0.119198605 0.05952539 -0.026937602 0.21232499 -0.22094144 0.048476644 -0.2525995
0.13501713 -0.11547322 0.23425362 -0.163216 -0.21455249 -0.13029706 0.28994676 -0.12654097
0.2108554 0.105375834 -0.19477186 -0.52248776 0.0948036 -0.18112712 0.13230017 -0.013715554
0.15574183 0.2944552 -0.05893345 -0.101655684 0.13028307 0.18539779 -0.06421136 0.08752168
0.031593446 0.012524553 0.2896597 0.053358912 -0.09214605 0.075123906 0.021593966 0.3637381
-0.09363051 0.11953077 0.031021308 0.07331627 0.22510052 0.12122308 -0.23122728 -0.006625447
0.08375387 0.06389399 0.10048276 -0.45608318 0.14572202 0.09552058 -0.19635615 -0.07545928

AT_obs_encoder.2.bias f4 [48]
00000000: 3aa3 bf3c 4285 9e3d 7ec1 afbd ce6d c1bd
00000010: e050 80bd 2d42 3e3e 38b9 33be 5970 73bd
00000020: 1840 c03c 5258 f1bd 3c26 973e c5a1 373e
00000030: dbf6 df3d f34e 3b3e d3c4 a7bd fa13 833d
00000040: 55ef 10bd 2ab2 eebd 503d 4cbd 3e3e aebd
00000050: 0b10 e239 3812 b5bd 7482 483d 5ce8 8d3c
00000060: 2b9a 0b3c 63ce 853d dd12 e23c 0160 59be
00000070: bd50 bbbd 0750 8bbd 3cca e3bd 3378 dbbe
00000080: 96af 1dbe 4007 09bd 598e 95be f009 d43d
00000090: 9f5b 98bd 1b50 bcbe 5cb0 a63e 8bb4 74be
000000a0: a108 5c3d 86cf cb3c 866f e7bd 246a 77be
000000b0: 1ffb c63d 48e4 c73d bb0d 85be fb81 bf3e
0.023393262 0.07740261 -0.085818276 -0.09444772 -0.06265426 0.18579932 -0.17551124 -0.059433315
0.023468062 -0.11784424 0.29521358 0.17932804 0.10935756 0.18291835 -0.08191838 0.064002946
-0.035384495 -0.11655076 -0.04986316 -0.085079655 0.00043118032 -0.088413656 0.048952535 0.017322712
0.008520643 0.06533506 0.027596885 -0.21228029 -0.09146259 -0.068023734 -0.111225575 -0.42865142
-0.15399012 -0.03345418 -0.29210165 0.10353458 -0.0743935 -0.36779866 0.32556427 -0.23896997
0.053719167 0.024879228 -0.11300568 -0.24161583 0.09715866 0.09760338 -0.25987038 0.37403855

MIX_conc_core_f.CT_W_query f4 [48, 48]
00000000: bc0c dbbf c058 0bc0 a4b6 62bf 8134 8e3e
00000010: c3cf 0040 c1e8 b7bf 58bb 883f e4b5 7c3f
00000020: 76e0 3e40 f0c2 82be 36cb 27be 144b 76bf
00000030: 45bd 0bc0 7c57 55be 9bb4 c13f 88ad bf3e
00000040: 7e70 a83f 5a59 363f b330 0bbe 6221 43be
00000050: 6859 443e de96 03c0 2bbf e0bf 8200 08bf
00000060: 69d8 073e c6e5 443f 22ff f23f 7971 9b3f
00000070: 816b 97bf 7af5 ad3e 216f 823e f5db 813f
00000080: 6741 ef3f 393b 9ebf 0c02 80bd 3f91 f33e
00000090: bca6 873e f07c bc3d 5eb9 a6bf 98b1 433f
000000a0: 3b56 10c0 602e 12bf 3d17 323f d49b ec3e
000000b0: 98b9 df3f 4896 ebbf 1621 a3bf 3fb4 1c3f
000000c0: dec7 ad3f 7d37 7f3f e0dc 12bf 73e4 79bf
000000d0: cad2 0ec0 bed0 0e40 d9a1 c6bf beb7 b6bf
000000e0: f71f bdbf 0c8c 263f 781a cb3f 98ee 2a3f
000000f0: 2833 97be 4ae0 98be 8331 f6be a950 933f
00000100: 0538 2dc0 3b22 223f 43ba 1fbd 08b5 03c0
00000110: 909f 593f 0283 0f40 a0ab a03e 2e0c 8ebe
00000120: 4fc5 f73f 1a5a 20c0 6613 ccbf 8a93 b73f
00000130: fc97 97bf 3296 f4bf 4344 013f e413 7bbf
00000140: 9e71 213e e24a b63f 2be9 c13e 72a6 ec3f
00000150: 9134 00c0 5aff ee3f 5f5f 24bf 83cd 31bf
00000160: 2e00 9a3e cb63 02c0 e4cf 0fc0 0533 edbe
00000170: fd44 ed3e 0cf5 c73e fabc b43f 2f6b 42bf
00000180: 940e 923f a0b1 0a3f 0385 2140 a89b f5bf
00000190: 4397 1a3f 07fa ec3e b8f7 2ebf 80b1 39bf
000001a0: e152 443f 1b9e 10c0 c2ae 863f 4e0f 333e
000001b0: 407e 953e b537 d1bf 0a40 24bf 7cd5 3040
000001c0: b40d 7d3f c817 fcbf 3648 1340 b894 813f
000001d0: 767e e1bf ec25 c63e f98f 03bf 487c 19c0
000001e0: 8fa2 953e 9080 5f3f 38b0 ebbf e803 94be
000001f0: e993 7f3f da10 943e 6f1b a93e 5e51 29bf
00000200: 2b8a 43be 6048 44bf 2998 1a40 79de 113f
00000210: 264c d9bf 29eb eb3f 607b abbe 8aeb 8bbf
00000220: cba9 c9bc ebae f53e 6548 e6bf 2c0c bbbd
00000230: 1993 183f 9799 973e 24f7 10bf 2114 123f
00000240: 9e76 703f 02ae 063f f976 293f cbbd 64c0
00000250: 5aa9 5cbf 60a7 2540 8a84 66c0 c24c 27c0
00000260: ba91 653f 3988 1cbf 56ef bc3f 774a 843e
00000270: 5081 51bf 41f6 f8bf 1801 543f 0160 0e40
00000280: 2532 7ebf 2d87 3fbd 6b73 69bf 4c59 6abf
00000290: 3d4c 1d3f 8388 d53f c3ed b83f 3b20 25c0
000002a0: 3b7a 2e40 f052 e7bf e518 2cc0 f751 2340
000002b0: da91 c5bf fa4d 15c0 6a73 c83f f319 b3bf
000002c0: e1a7 a33f ab65 b8be ed56 5d3f 8af2 0e40
000002d0: 3678 63c0 da1e 1840 4f6f 683f 66a3 483f
000002e0: ad24 2b3f a919 e4bf 9b28 1dc0 498b 953f
000002f0: 9abc 0640 d0b9 3fbf 8c8d 72be e392 dcbe
00000300: 26b3 83bd 5747 b53f 9c91 11be 39b6 b73f
00000310: 74e9 3fbf 4110 75bf 2a1f 1d3d d27c 8ebf
00000320: a14a 0cbf 7b20 773f d831 9abd 795c 6940
00000330: 5fb1 893e 2b9b 1fc0 e122 08bf 7c46 24bf
00000340: ba57 6f3f 2409 e2bf f5b9 d13f b6de e73f
00000350: f8a5 a0bd 717d 573d 1f68 aa3f d967 863f
00000360: d284 f53e d868 533c ddd6 a7be 5e7b 06c0
00000370: c2ae a63d 7ab6 c1be 677c 3840 8ecb 0240
00000380: 4269 9b3f 3068 653f 6268 913d 4939 5ebf
00000390: 4e98 0ebf 91e9 893e 719e e13f e7bd 0b3f
000003a0: 474a 973f 5ea0 1d3f aca5 783f d025 efbe
000003b0: 83b2 dcbf 91c6 9abf 50ed f4be 94c5 10bf
000003c0: 00dd 3ec0 f153 00c0 4cd4 ffbe 7fca 4bbe
000003d0: 9e53 283f 3e74 a1bf 8bdd 31bf 1af4 bd3d
000003e0: 4d9f 2a40 5b10 1d3f e83e 14c0 ab88 db3d
000003f0: d135 06c0 a606 193f 0f7b 0540 9c6c 8bbf
-1.7113261 -2.1772919 -0.8855994 0.27774432 2.0126808 -1.4367906 1.0682173 0.98715043
2.98245 -0.2553935 -0.16386113 -0.9620831 -2.183427 -0.20834154 1.5133241 0.3743708
1.315933 0.7123009 -0.13592796 -0.19055703 0.19174731 -2.0560832 -1.755834 -0.53125775
0.13266148 0.76913106 1.898411 1.2144004 -1.1829683 0.33976346 0.2547541 1.014525
1.8691834 -1.2361823 -0.062503904 0.4757175 0.26494396 0.092035174 -1.302532 0.7644286
-2.255263 -0.5710201 0.6956671 0.46212637 1.7478514 -1.8405237 -1.2744472 0.61212534
1.357662 0.99694043 -0.5736828 -0.9761421 -2.2316155 2.2314906 -1.5518142 -1.4274824
-1.477538 0.65057445 1.5867453 0.66770315 -0.29531217 -0.2985862 -0.4808465 1.150899
-2.7065442 0.6333348 -0.038995992 -2.0579243 0.850091 2.242371 0.3138094 -0.27743667
1.9357089 -2.5054994 -1.594342 1.43419 -1.1843257 -1.9108336 0.50494784 -0.98077226
0.15765998 1.4241602 0.37873206 1.8488295 -2.0032084 1.8671677 -0.64208025 -0.6945421
0.30078262 -2.0373409 -2.2470636 -0.46327987 0.46341696 0.39054143 1.4120171 -0.759448
1.1410699 0.54177284 2.5237434 -1.9188128 0.6038706 0.46284506 -0.6834674 -0.7253647
0.76688963 -2.25965 1.0522082 0.17486307 0.29197884 -1.6345125 -0.64160216 2.76303
0.98849034 -1.9694757 2.3012824 1.012351 -1.7616718 0.38700807 -0.5139156 -2.3982105
0.29225585 0.87305546 -1.8413153 -0.2890923 0.9983507 0.28919107 0.33028743 -0.6613978
-0.19095676 -0.76672935 2.415537 0.5698009 -1.6976364 1.843114 -0.33492565 -1.0931256
-0.024617096 0.47985014 -1.7990843 -0.09133181 0.59599453 0.29609367 -0.56627107 0.57061964
0.93930995 0.52609265 0.6619716 -3.574084 -0.8619591 2.5883408 -3.6018395 -2.61406
0.89675486 -0.6114536 1.476054 0.25838062 -0.8183794 -1.9450151 0.8281417 2.2246096
-0.99295264 -0.046759773 -0.9119174 -0.91542506 0.61444455 1.6682285 1.4447559 -2.5800922
2.7262104 -1.8072186 -2.6890194 2.5518777 -1.5435135 -2.3328843 1.5660222 -1.3992294
1.2785608 -0.36015067 0.86460763 2.2335534 -3.554212 2.376883 0.90794843 0.78374326
0.6685284 -1.7820331 -2.4556034 1.1683131 2.1052613 -0.748929 -0.23686808 -0.43080816
-0.06430654 1.4162396 -0.14215702 1.4352485 -0.74965596 -0.95727926 0.0383598 -1.1131842
-0.54801375 0.96533936 -0.07529038 3.646269 0.26893136 -2.4938457 -0.5317822 -0.6417005
0.93493235 -1.765904 1.6384875 1.8114841 -0.07844156 0.052609865 1.3313025 1.0500442
0.47952896 0.012903415 -0.32781115 -2.1012797 0.08138801 -0.3783453 2.882593 2.043674
1.2141497 0.896121 0.070999876 -0.8680616 -0.5570115 0.2693601 1.7626477 0.54586643
1.1819543 0.61572826 0.97127795 -0.46708536 -1.7241977 -1.2091848 -0.47837305 -0.5655148
-2.9822388 -2.0051234 -0.49966657 -0.19901465 0.6575259 -1.2613599 -0.6947867 0.09275074
2.665973 0.6135308 -2.3163395 0.10719427 -2.0970347 0.5977577 2.085636 -1.089252

MIX_conc_core_f.CT_W_key f4 [48, 48]
00000000: 99f9 d5be 5d78 bfbf ac41 6b3d 3891 bebe
00000010: 76ab 1940 404e 6ebf afaf ed3e 9335 043f
00000020: cc8a 3040 197d c1bf 1ac1 423f f7a9 b5be
00000030: 41d1 8cbf 71f3 f5bf 43e0 563f a22b 953f
00000040: a075 1140 a489 adbf e349 0b40 da8a 543f
00000050: f6d0 85bf d3e5 abbf c472 1bc0 60aa bcbf
00000060: 99c8 d2be 2217 e23f 36f3 3f3e c89a ebbd
00000070: 32b7 06be 865d 183f b6b3 323f 6580 093f
00000080: ed1e 833f d425 bdbf 99f7 8d3f 1d51 163f
00000090: 50c1 12bf b271 5b3f 3259 a1bf b6ec 92be
000000a0: f152 bfbf 4097 4cbe 7ffc 0dbe 31f3 533e
000000b0: d21c 643f 46ba 1abf a70c e2bf 2c5a 2bbf
000000c0: 3c63 1dbd 6195 8c3e f900 febe 0828 7d3e
000000d0: 0198 8fbe e395 b1be 510c 2b3f cf17 c23e
000000e0: 1dc4 0dbf 1ec8 df3f 7ccd 71bf e283 3f3f
000000f0: bc86 76be 2561 5e3d 50bd 39bf a1e0 66bf
00000100: 702e 85bf 0b65 0c3f 1159 aabf 8c9b 94bf
00000110: 8142 7c3f 5c5a 113f 0000 54be 1c08 6e3f
00000120: 641c 90be 2ae1 92bf 12f1 40bd 75ad 543e
00000130: 5378 6abf 1067 a23f 2eaa b33f aeca 303e
00000140: 7c81 a03e 42cd 8b3f c91b d1bf 2d99 f9be
00000150: ff64 4b3e c695 423e 2131 523c fab3 4e3f
00000160: a8f4 4c3f 5eb1 2f3f a9e7 8c3f f7c2 0e3f
00000170: 4b0e a2be 2ea0 61bf be19 db3e 14b6 f93f
00000180: 7721 2abf d8ce a7bf b817 e8bf b942 af3e
00000190: be1b b13e 48c7 863c df25 9a3c 69de 48be
000001a0: 69b0 853f 2d63 373f e6a0 3e3f 72e6 46be
000001b0: 52c5 bbbf d083 e33d 94f0 8c3f 9597 463c
000001c0: f152 a33e e0bf fe3f 5735 65bf be94 d13e
000001d0: 4d4b a63f eaf3 7bbf 023e a7bf 1dae a3be
000001e0: e0eb a53f f5d7 6bbf 539e 6e3f 49cb 6b3f
000001f0: db70 dabf 5661 cfbf abbe 9c3f cc0c 143f
00000200: 5e23 713f 5411 003e 9380 4b3e c217 a03f
00000210: a26a f0be 853e f2bd 493d ddbf dc17 843f
00000220: a33c 15c0 f342 2dc0 65ee d9be 04a6 babe
00000230: ba90 853f 545d 3fbf 66e3 223e e0fb f1bf
00000240: 4969 713f b5b2 cb3e c193 d13f 35f9 e5bf
00000250: 4f5a cb39 fbb4 b43f 87f3 fdbf 208e fabf
00000260: dcca 623f 2f89 cebe f9a3 573e 4f68 4d3f
00000270: db33 3bbf fae8 0dc0 f0da 643d 8100 893f
00000280: fffb 9ebf 233a 26bf 4d2c 13bf cd36 95bf
00000290: 5377 733d 86a4 c93f a815 bf3f 2bbb bbbf
000002a0: af82 c23f 6403 bdbf 64b0 d3bf c5ba 2640
000002b0: 0f0d 86bf 5d0b d0bf 0b79 0040 b777 8abf
000002c0: ee29 523f 9e2d 15bf edb8 d03e 1ce3 a93f
000002d0: 52b1 0cc0 8adf e63f c638 b63f 3f86 6a3f
000002e0: 34e5 2040 f1ca 82be 909d 64bf a7f1 c63f
000002f0: 5344 cc3f 4cf8 88bf 7b6a 9bbf e2f0 ad3f
00000300: 04a9 193f 8bf8 1a40 4524 de3c 8b7b 883e
00000310: 462d b3bf 14f6 d1be 097e 023f 6b9d 2ebf
00000320: 2b7c aabf 9e56 023f 0de9 0fbf 4998 0a40
00000330: e741 0240 93fd 22bf 2f5b 0cc0 d26a 84bf
00000340: e0e0 233f fac2 96bf d2a0 083f 61fb 2140
00000350: 040c ff3d 91ae 8dbd 746c ec3f 68a9 d43e
00000360: fb36 5bbf d95a 943d 83ac 5bbf d9ad 22c0
00000370: 388f 793f c9e1 bcbe 4413 0240 3705 183f
00000380: 60e1 febe 9cbf 153f 4fb1 a4bf 2df5 aebf
00000390: 283e 7fbd 9411 7dbf b697 3b40 730e 083e
000003a0: 744a 663f 20ab 993f 418b b03e 89ee 97bf
000003b0: 4c89 cabf e337 143e c3cc 8f3e 742b 2dc0
000003c0: 13b2 8fbf 2a19 98bf c617 7a3d 9ece 51bf
000003d0: 5617 7b3f 9acd 1fbf 8318 52bf 826c 9cbe
000003e0: b18a 2540 2b8c 61bf ea50 92bf 797c 043f
000003f0: 01c0 64bf 7429 93bf a5d0 c83f b20f 963e
-0.4179199 -1.4958607 0.057435676 -0.37220168 2.4010901 -0.9308815 0.46423098 0.5164425
2.7584715 -1.5116302 0.760759 -0.35481235 -1.1001359 -1.9214917 0.83935946 1.1653941
2.2728043 -1.355763 2.1763847 0.8302437 -1.0454395 -1.3429512 -2.4288797 -1.4739494
-0.4116867 1.766331 0.18745121 -0.115041316 -0.13155821 0.59517705 0.6980547 0.5371154
1.0243813 -1.4777169 1.1091186 0.5871752 -0.5732622 0.8572036 -1.2605345 -0.2869622
-1.4947187 -0.19979572 -0.13865851 0.20698239 0.89106476 -0.6044048 -1.7660111 -0.66934466
-0.038424715 0.27457717 -0.49610117 0.24722302 -0.28045657 -0.34684667 0.6681567 0.3790879
-0.5537737 1.7482946 -0.9445417 0.7481061 -0.24074835 0.054291863 -0.7255449 -0.90186507
-1.0404797 0.5484168 -1.3308431 -1.1609969 0.98538977 0.567785 -0.20703125 0.92981124
-0.2814666 -1.1474965 -0.047104903 0.20769294 -0.9158985 1.2687702 1.403631 0.17264816
0.3134879 1.0922015 -1.6336604 -0.48749676 0.19862746 0.19002447 0.012829096 0.8074337
0.80060816 0.68630016 1.1008197 0.5576624 -0.3165153 -0.8813504 0.42793077 1.9508691
-0.66457313 -1.3109999 -1.8132238 0.34230593 0.34591478 0.016452447 0.018816886 -0.19616093
1.0444461 0.71635705 0.7446426 -0.19423845 -1.4669592 0.111091256 1.1010919 0.012121101
0.31899217 1.9902306 -0.89534515 0.40933794 1.299173 -0.9841906 -1.3065798 -0.31968775
1.2962608 -0.921264 0.93210334 0.92107064 -1.7065691 -1.620158 1.2245687 0.57832026
0.9419459 0.1250661 0.19873266 1.250725 -0.46956354 -0.11828331 -1.7284328 1.0319781
-2.331826 -2.7072113 -0.42564693 -0.36454785 1.0434792 -0.7475178 0.15907058 -1.8904991
0.9430128 0.3978478 1.6373216 -1.7966677 0.00038786462 1.4117731 -1.9839944 -1.9574623
0.8859079 -0.40339038 0.21058644 0.8023729 -0.73126 -2.2173448 0.055872858 1.0703279
-1.2420653 -0.6493246 -0.5748947 -1.1657349 0.05943997 1.5753334 1.4928484 -1.4666494
1.5196131 -1.476666 -1.6538205 2.6051495 -1.0472735 -1.6253468 2.0073879 -1.0817784
0.8209523 -0.5827273 0.40766087 1.3272433 -2.1983228 1.8036969 1.4236076 0.91611093
2.5139894 -0.25545457 -0.8930292 1.5542496 1.5958351 -1.0700774 -1.214187 1.3589137
0.6002352 2.4214199 0.027116904 0.26656756 -1.3998191 -0.41008055 0.50973564 -0.6820895
-1.3319143 0.5091342 -0.5621498 2.1655447 2.0352724 -0.63668174 -2.1930654 -1.0345099
0.64015007 -1.1778252 0.5337039 2.530968 0.12453464 -0.069180615 1.8470597 0.41535497
-0.8563077 0.0724389 -0.85810107 -2.5418608 0.9748416 -0.3689101 2.0324259 0.5938296
-0.49781322 0.584955 -1.286661 -1.3668572 -0.062315136 -0.9885495 2.9311347 0.13286762
0.89957356 1.2005348 0.34481242 -1.186967 -1.582315 0.14474444 0.28085908 -2.7057772
-1.1226219 -1.188268 0.06105783 -0.819559 0.9808248 -0.624231 -0.8206865 -0.30551535
2.58659 -0.88104504 -1.1430943 0.5175243 -0.89355475 -1.1497025 1.5688673 0.2930885

MIX_conc_core_f.CT_W_val f4 [48, 48]
00000000: 1a7a 5f3e b22b a8be 4a4a 943e 0bf5 f33c
00000010: 69e2 3ebd ea90 f3be 6f5d 31be af43 723d
00000020: 295d 0a3f 5bb1 1b3e 470c 8abe 455f 483e
00000030: 2ef4 663e 6856 d4bc 8839 1abe d91d 8dbe
00000040: 06e5 3d3d 4072 963e 1413 9bbe 889f bfbe
00000050: 2772 073f 626e cabd 61f1 6a3e 4de4 923e
00000060: 5651 e93c 5dcf 0f3c 619d 323e 7116 1f3e
00000070: 65a1 26bc 24e7 40be 0f71 19be d6b7 8f3e
00000080: 48dd 1a3e 5d40 eebe 6899 9ebd 3eae 113d
00000090: cac2 fdbd aa94 84be eddb b6bd 1576 90be
000000a0: 884c aa3e 2719 68be d929 0dbf 08da f03c
000000b0: 5ac4 3bbe a765 4f3e 4132 6c3e 696e 223e
000000c0: aeb1 053e b198 93bd 17bf 9ebe 9d07 b1be
000000d0: 743f a13e c583 35bd caae 0b3e 6b6e d93d
000000e0: 8131 f03d 61bd e33e 5c79 84bd 1660 dc3e
000000f0: 8db7 29bf d0c5 8e3e 0220 8abb 8a77 1c3d
00000100: a5ac 93bc 6103 b3bd b373 683d a6e5 d2be
00000110: c0fa b43e 7ca9 103f 41dc 663d 306a 79be
00000120: 7947 8dbd f71a 6fbd d5ba a0be 6393 7f3d
00000130: b753 4abd f941 f2bd bbf3 3ebe d597 003e
00000140: 31b6 353d 17bd a03e b32c 243d f041 853e
00000150: 9679 653e c0a6 94be b7bc 01bf 88b0 10bf
00000160: 8938 b5bd 24c7 1b3f 1dc3 243f 6172 cb3e
00000170: cd50 8d3d a12e 26be eb33 64be 01d0 b73d
00000180: 6874 8e3e 0482 8a3d ab80 123d 7ec5 353e
00000190: b4cd 62be 6051 e5bd fac6 1f3d c1b4 d8bd
000001a0: 3dfe dbbb 2309 a33e bfbd b5bc 3f60 a7be
000001b0: 60f8 5ebd 71bc de3d ad32 81bd 9b9e 9d3d
000001c0: f1c9 31bd 41b8 e1bd bc05 933e 978a 6d3c
000001d0: 7828 04bf 780b 813e 1d7d 343e 729e 283e
000001e0: 9d59 49be bffb 5f3d ba14 8abc 2695 e5bd
000001f0: 58c4 253e 3b29 b93e ccf1 88bc ab3a a93e
00000200: 90b6 a8be 6e07 1f3e fbde 5dbe accb b9bd
00000210: 2337 d6be c92a 08be c557 1dbe 5f8b 303e
00000220: 75d4 e0bd e7dc 80be bf0d 35be a944 b63d
00000230: a618 073f 9c2a eebc 155a 253e e16b 8d3b
00000240: 63d5 223f b9d7 bebe 5cb3 13bf a6db 993e
00000250: 4a4e b23e 0b6a 8abe 9c3d dbbc a009 13bd
00000260: fbce c03e c74e 5a3e 2126 173a 417f 243d
00000270: ee5d 4abc f034 27bf 81b4 b2bd 4117 92be
00000280: 04e7 e43c 9dc8 2b3e c35f 40bd e6fe 34bc
00000290: 136f 85be df0b abbd 39ad 313f 9d3b 46be
000002a0: 9e3b 75be 453b 5fbe cfd3 2b3e 01cd 133f
000002b0: 86c1 a1be 1387 503d 86c5 5d3e b937 02be
000002c0: 630f 5ebe 82e9 2c3f bde9 6cbe 6e9d 063f
000002d0: 46d4 d4be b167 73be 9513 45be 1a61 a23c
000002e0: ba47 08be 742a 2fbe ed36 d2be a6d3 aabe
000002f0: f1c9 e1be b762 e33e 920a 3ebd 8a6d 153e
00000300: 2a48 3d3e ccb5 d53d ca6b 32bf 0c78 49bd
00000310: 362f 53be ab83 9c3d 1499 fb3d b3b1 943e
00000320: 6951 09bf 52a5 b33e eedd 863d ce06 663d
00000330: eb62 91be 47b2 61be b6c5 05bf aa60 a2bd
00000340: 1201 f13e 4818 19be 28c4 39be bfd7 e73e
00000350: 13f2 cebe 6f82 e83d 45b2 c4be 5530 c73d
00000360: a635 00be 4054 1ebf 76ff adbe 1271 473e
00000370: e9fa c8bf b973 f53e 19b7 a83d 58f9 863f
00000380: eefe 0cbe 679f c53c b602 b63e d805 d9bd
00000390: 17e0 fdbe b523 94bd 52ad 663e 1899 b33c
000003a0: dfca b13e 1420 69be a012 803f c861 753e
000003b0: 4cc5 18be ba81 22be 85c8 0d3d d569 283d
000003c0: 6136 ae3c dffe 433c 81ac 8e3e 6145 c2bd
000003d0: 5a09 ae3e 236d b9be 6210 cb3c 331b bc3c
000003e0: 98c5 cf3d 20eb ec3d 8b55 083e 0e76 90bd
000003f0: 38c5 473e 5dbd a13e 0ead 92bd 582e 03bf
0.21823922 -0.32845837 0.28962928 0.029779932 -0.04660264 -0.47571498 -0.17320798 0.05914658
0.540484 0.15204374 -0.26962492 0.19567592 0.22554085 -0.025920108 -0.15061009 -0.27561834
0.046360992 0.2938404 -0.30287993 -0.374264 0.5290856 -0.09884335 0.22943641 0.28689805
0.028481167 0.008777467 0.17442848 0.15535904 -0.010170315 -0.18838173 -0.14984535 0.28069943
0.15123475 -0.4653348 -0.07744104 0.03556656 -0.12390669 -0.25894672 -0.08928666 -0.2821509
0.33261514 -0.22665845 -0.5514198 0.02940084 -0.18336621 0.20253621 0.23066045 0.1586243
0.1305606 -0.07206858 -0.31005165 -0.3457612 0.31493723 -0.04431512 0.13640895 0.10616764
0.11728192 0.44480422 -0.0646846 0.43042058 -0.662957 0.27885294 -0.0042152414 0.03819994
-0.01802666 -0.08740879 0.056750964 -0.41190833 0.35347557 0.5650861 0.056362394 -0.24356914
-0.06898398 -0.058375325 -0.31392542 0.06239642 -0.049396243 -0.118289895 -0.18647663 0.1255792
0.044363204 0.31394264 0.04008169 0.2602687 0.22409663 -0.2903347 -0.5067858 -0.56519365
-0.08848674 0.6085074 0.6436022 0.39735702 0.06900177 -0.16228725 -0.2228543 0.089752205
0.27823186 0.0676308 0.03576724 0.17751119 -0.22148782 -0.11197162 0.03900812 -0.10581351
-0.006713657 0.31842908 -0.022185205 -0.32690617 -0.054436088 0.10875786 -0.06308494 0.07696267
-0.043405477 -0.11021472 0.28715312 0.014498374 -0.5162425 0.25204062 0.17625852 0.16466692
-0.19663091 0.054683443 -0.016855586 -0.112100884 0.1618818 0.3616427 -0.01671686 0.33052573
-0.32951784 0.15530178 -0.21667092 -0.090720505 -0.4183894 -0.13297571 -0.15365513 0.17240666
-0.10978023 -0.25168535 -0.17681025 0.08899815 0.52771986 -0.029073052 0.16147645 0.0043158387
0.6360685 -0.37273958 -0.57695556 0.3005039 0.34825355 -0.2703403 -0.026762776 -0.03589785
0.37657914 0.21319114 0.00057658745 0.04016042 -0.012351496 -0.6531515 -0.08725835 -0.28533366
0.027942188 0.16775747 -0.046966325 -0.011047101 -0.26061305 -0.083518736 0.6940494 -0.19358678
-0.23948523 -0.21799953 0.16780017 0.57734686 -0.3159296 0.050910067 0.2165738 -0.12716569
-0.21685557 0.67543805 -0.23136039 0.5258397 -0.41568202 -0.23770024 -0.19245751 0.019821692
-0.13308612 -0.17106038 -0.4105753 -0.333646 -0.44099382 0.4441125 -0.0463968 0.14592567
0.1848456 0.104350656 -0.69695723 -0.04918675 -0.20623478 0.07642301 0.12285057 0.29041824
-0.5363985 0.35087067 0.065852985 0.056158833 -0.2839578 -0.22040664 -0.5225481 -0.079285935
0.4707113 -0.14950669 -0.18141234 0.4528179 -0.40419063 0.11353003 -0.3841726 0.097260155
-0.12520465 -0.61847305 -0.33983964 0.19476727 -1.5701572 0.47939852 0.08238048 1.0544844
-0.13769123 0.02412386 0.35548943 -0.10596818 -0.4958503 -0.07233373 0.22527054 0.021923587
0.3472509 -0.22766143 1.0005684 0.23963082 -0.14919013 -0.158698 0.03461506 0.041116554
0.021266164 0.0119626215 0.27865985 -0.09485889 0.3399151 -0.36216077 0.024788085 0.022962188
0.1014511 0.11568284 0.13313882 -0.07053767 0.19508827 0.31589785 -0.07161914 -0.5124259

MIX_conc_core_f.CT_motivate_mlp.0.weight f4 [48, 96]
00000000: a28a 2d3e 426a 0dbf 05ca 1fbe 6f65 f0bf
00000010: 9a7a 6dbf b8b0 ac3d 62c0 c03f ca5f 2bbf
00000020: 45cd 6fbe e6c1 7dbe 686b 873e a40d 33bf
00000030: f3a3 2e3e f10c 02bf 54a7 79bf cb97 7cbf
00000040: c359 cbbf 04c9 d0be 0981 6dbf d307 94bf
00000050: 744b f2be 2018 6e3e e257 943e 4609 9ebe
00000060: 09b8 0fbf 40ce 66be b38f 963f 658a d43e
00000070: 83b2 c13d 216a 133f bcde 683e 1071 8bbf
00000080: 2854 933e 501d efbd 572d 20bf e820 973d
00000090: 9cac b1be b3fb 26be 376d 8cbf 3cc0 953f
000000a0: f254 073e d83a 083f bd3b a33f cdb3 333e
000000b0: 2990 33bf df90 a3bf 0a60 dd3e 6277 193f
000000c0: 7fc3 af3e 8fd9 83be 86ef ccbe 889d 8abd
000000d0: 5447 5a3e d31d 6bbe f08e b6bd 1c04 ca3d
000000e0: 9bdf c23d 3bb9 8e3d bfad 0abe 3f03 6dbd
000000f0: 1dc7 693e 67b5 693f 0175 80bd b2b2 a7bd
00000100: 039d 25be 0690 45be 6039 8e3c 9066 cdbd
00000110: adaa 993d 350e 933e e65e 093c 276f 903d
00000120: 05f4 4f3e 358f 0abe 7acc 32be 8cc4 c6bc
00000130: a7b6 963e 3a9c 283e 672f 9dbb 4445 57be
00000140: f7f4 abbe 094e 2fbd 9233 b93d 39a5 4b3c
00000150: 3c9c a2be 386d 173e 379d 253e 2fdf d83e
00000160: b5f5 813c 36c1 883c 4c4d 52be 3cef 4a3e
00000170: 6a0a 68bd d278 8b3e 6d03 023e d986 8c3d
00000180: 454b 4f3f 6b8a 243f 3e6f 74bf e831 e1be
00000190: e916 dd3e 2a80 02bf 6178 913e 3509 1040
000001a0: cb81 cfbf e1a1 1bc0 4418 cb3e 357f 633f
000001b0: fd53 1bbf fbe7 00be 35b9 733f fc10 93bf
000001c0: ef78 803e 05d0 28be 31ea 653f b27b 2c3d
000001d0: 8192 1a40 e2d7 eb3e 8c7e 933c 4105 763e
000001e0: 1a9d b03f 26d4 a63f 535e af40 1d1e fc3d
000001f0: 23ed f23e 9b79 03bf 0eee 2640 e7fb 4cbe
00000200: 4fa4 cb3f 3c04 1bc0 c279 db3e b5d6 1e3f
00000210: d459 a13e ccc8 c0be 6a27 683f 64fd d13f
00000220: e88d 99bf b095 673f 2bad fe3e 2fa4 a2bd
00000230: 092f 4dc0 89e2 87bf 6130 ffbf 57ff 293f
00000240: 570b f4bd db23 3a3d 3e95 62bf 3790 7ebf
00000250: 7455 2e3f 33fc 25bd e90f d53e 3cc6 08be
00000260: db4a f63d eedd eb3e 5456 b43e 5ec5 c0be
00000270: 1541 d63d ed5d 773f 65c0 c33e f5e7 003c
00000280: f881 df3c 095c 58bf 9cbc 423f 70c2 953d
00000290: ff5a 85be d2fe a3ba 6cb1 b6be d1f5 093d
000002a0: ecda 863e b604 443e 1e7b c0be 7abd 23bf
000002b0: e71d 5dbf 1457 8a3e e7dd 5cbf 3ce0 ca3f
000002c0: c35b c33d 6b2f 473e 9841 bdbd 1266 1c3e
000002d0: 0c0e b7bd 4af5 403f 0ad6 50bf 3163 b13e
000002e0: 903c da3d d91d 293f 606a 783d e3d7 103f
000002f0: ed27 353f c5ad 17bd e77d e03d ed67 133e
00000300: 6cf8 86be 886e 8e3e 82bd ccbe 99ae 4640
00000310: 7237 5b3f 9fa8 a93f da32 29bf fcf9 353e
00000320: b80c babf 8f5d 513f 15ab ccbe 826f cdbe
00000330: ad33 a93e 0928 2dc0 eb05 973f 8822 a4bf
00000340: 75ff ab3e f07f d93d 703b d23f 26fe 53c0
00000350: bd7a 88bf 6d68 a9bf b4b5 173e 0654 cc3e
00000360: 3002 9e3f ecb8 05bf 5a99 933f 8de7 193f
00000370: adcb 92be a3fc 353f cabc 1a3f 55b0 96bf
00000380: 93b7 34be 43c5 813e 7aa8 8f3e 8b93 32be
00000390: 63ea 8c3f 637a 37c0 8afe e9be 549d c73e
000003a0: 5a9a 59be 608e 6e3e e6a6 eb3f 3fc0 39bf
000003b0: 37a3 cf3d 22aa c13f 8aa6 7e3f 51d9 103e
000003c0: c56b ef3e 0c71 7ebd f544 c7bd 008a 793e
000003d0: 6830 debd b231 fc3e 6d98 a3bd 2bb4 3a3e
000003e0: ba16 333e 40c3 e83e e34b 36bf 42e8 89bd
000003f0: 83f2 153f 1fcb cb3e 8dc9 433b d137 6f3f
0.16947415 -0.5524026 -0.15604408 -1.8780955 -0.927652 0.08432144 1.505871 -0.6694304
-0.23418148 -0.24780998 0.26449132 -0.6994269 0.17054729 -0.50800997 -0.9752095 -0.9866912
-1.5886768 -0.40778363 -0.9277502 -1.1564888 -0.4732319 0.2325139 0.289733 -0.3086645
-0.5614019 -0.22539616 1.1762604 0.41511837 0.094578765 0.57583815 0.22741216 -1.0893879
0.28775144 -0.11675513 -0.62569183 0.07379323 -0.34702003 -0.16306953 -1.097083 1.169929
0.13215998 0.5321479 1.2752606 0.17549057 -0.70141846 -1.2778586 0.43237334 0.5994779
0.3432884 -0.25751922 -0.40026492 -0.06768328 0.21316272 -0.22960596 -0.08913982 0.09864065
0.095153056 0.06968924 -0.13542841 -0.057864424 0.22829862 0.91292423 -0.06272317 -0.0818838
-0.16173176 -0.19293222 0.017361343 -0.10029328 0.07503257 0.28721777 0.008384442 0.070524506
0.2030793 -0.13531192 -0.17460814 -0.024263643 0.29436228 0.16465846 -0.0047969106 -0.21022516
-0.3358533 -0.04279903 0.090430394 0.012429529 -0.31759822 0.14787757 0.16173254 0.42357776
0.015864233 0.016693693 -0.20537299 0.19817823 -0.056650557 0.27240616 0.1269662 0.06861658
0.8097423 0.6427371 -0.9548224 -0.43983388 0.43181542 -0.5097681 0.28412154 2.250562
-1.6211485 -2.4317553 0.3966695 0.8886598 -0.6067503 -0.12588494 0.9520448 -1.1489558
0.25092265 -0.16485603 0.8981047 0.042110153 2.415192 0.46063143 0.018004678 0.24025442
1.3797944 1.3033493 5.480264 0.12310431 0.47446546 -0.5135743 2.6082797 -0.20017968
1.5909518 -2.4221334 0.4286633 0.62046367 0.31513846 -0.37653196 0.9068514 1.6405454
-1.1996431 0.9046278 0.49741492 -0.07941472 -3.2059958 -1.0616008 -1.9936639 0.6640524
-0.119162254 0.04544435 -0.88508976 -0.99438804 0.6809914 -0.04052372 0.416137 -0.1335687
0.12025996 0.46067756 0.35222113 -0.3765058 0.10461632 0.96627694 0.38232723 0.007867803
0.027283654 -0.84515435 0.76069045 0.07312477 -0.26045987 -0.0012511855 -0.35682237 0.033681694
0.263389 0.19142422 -0.3759393 -0.63960993 -0.8637375 0.2701956 -0.86276096 1.5849681
0.095389865 0.19451682 -0.09241027 0.15273312 -0.08938226 0.7537428 -0.815766 0.3464599
0.10656083 0.6606117 0.060648322 0.56579417 0.70764047 -0.037030954 0.10961514 0.14395113
-0.26361406 0.27818704 -0.39988333 3.1044066 0.8563148 1.3254584 -0.6609322 0.17771143
-1.4535131 0.81783384 -0.39974275 -0.40124136 0.33047238 -2.7055686 1.1798681 -1.2823038
0.33593336 0.10620105 1.6424389 -3.312387 -1.0662457 -1.3234993 0.14815408 0.39907855
1.2344418 -0.52235293 1.1531174 0.60118943 -0.28671017 0.7108862 0.6044432 -1.1772562
-0.17648153 0.2534581 0.28058225 -0.17439096 1.1009029 -2.866845 -0.4570201 0.3898722
-0.21250287 0.23296499 1.8410308 -0.7255897 0.10138553 1.5130045 0.9947287 0.141454
0.4676191 -0.06211953 -0.097299494 0.24369049 -0.108490765 0.49256665 -0.07988057 0.18232791
0.17489138 0.45461464 -0.71209544 -0.06733753 0.5857317 0.39803407 0.0029874772 0.93444544

MIX_conc_core_f.CT_motivate_mlp.0.bias f4 [48]
00000000: 865d 443d c3dd 37be 9fd1 c1be f003 aabe
00000010: 0a74 40bf 5403 52bf c0a1 abbf 223c 3fbf
00000020: b06b a2bf 1bd5 f6bf 13d7 66bd f0bd 72bf
00000030: a1bf 2bbf dc65 59be 72aa 5bbf e124 91bf
00000040: c8df 84be afe9 dabd 69f7 76bf df30 5abe
00000050: 59bd edbe e15f cbbd f2a0 3abe f51f cebf
00000060: 89e5 483f 24fa 83bd e731 5cbe da97 81be
00000070: 0b3b 44be 3ad3 5fbe 3e7e 0ebe 32d5 1e3f
00000080: 840a 953d c5c3 febe e90a 7ebf d3f3 99be
00000090: e4d1 d8bd 57a9 063e 94e5 1fbf 2148 cfbe
000000a0: 9333 1cbe 8e7e 763e d936 1abf 041a 48be
000000b0: 763e 0a3e 22ac f8be 33b7 e2be 74c8 adbf
0.047940753 -0.17955689 -0.3785524 -0.3320613 -0.7517706 -0.8203633 -1.3408737 -0.7470113
-1.2689114 -1.9283785 -0.056357455 -0.9482107 -0.6708928 -0.21230263 -0.85806954 -1.133938
-0.25951982 -0.10689103 -0.9647127 -0.21307705 -0.46433523 -0.09930397 -0.18225458 -1.6103503
0.7847524 -0.06444195 -0.21503411 -0.25311166 -0.19163148 -0.2185792 -0.13915345 0.6204406
0.07277396 -0.49758735 -0.992354 -0.30068836 -0.105869085 0.13150536 -0.62459683 -0.40484717
-0.15254049 0.24071714 -0.6023994 -0.19541174 0.1350039 -0.48568827 -0.44280395 -1.3576798

MIX_conc_core_f.AT_forward_mlp.0.weight f4 [48, 192]
00000000: d594 ce3d c2d3 c8bc ae61 ddbc a8d3 4c3d
00000010: 2687 a83b a276 42be 7590 23be 9ced 62bd
00000020: 77e0 073c a94b 64be 70d7 bc3d eb61 feba
00000030: 95f8 803d 1101 af3e 7d27 3ebd 54f4 843d
00000040: ef7a 223e 5438 33bd 296d 94be f7d5 01be
00000050: 40ce bdbe c276 e5bd 72e8 913d 8ed4 a1bd
00000060: d1ed 743d c9d8 12bd 3650 62be 79fd edbd
00000070: 8da9 e63d 66fe 19bd 97de 66bd fb31 0a3c
00000080: a722 8b3c 6200 633e 9dc9 733c 3f1e f2bc
00000090: 27b0 95be 3c43 f8bc 57a8 ba3d 630b 9b3c
000000a0: efb6 d3bd c0aa e83c 9527 5fbe 5a34 983c
000000b0: 229d d43c b8a9 9e3e efbd 0fbe ae4b a73c
000000c0: b57d d33c dbce 933b d2a5 f03c ed48 b53e
000000d0: 5fd3 ddbc 31ff 98be 665a b8bd b962 c43e
000000e0: 9002 45bc 4b6e f5bd 4a37 0d3d 7248 70bd
000000f0: 802f 2abd ae1f 80bd 3382 a13d 4804 de3c
00000100: 1923 7dbd 471e 52be 6dc5 ddbc 6f28 62be
00000110: d28a d3be d5d0 5b3e d5bc df3d 0396 293e
00000120: dfb3 0fbd c299 73bc f09f 6f3d 2723 953e
00000130: bbfd c6bb 5aef 05be c5bd 38bd 8f9e 1ebe
00000140: 821b bdbe 4f51 483c a6cc e13e a2d0 3cbb
00000150: fb38 323e 3a19 943d fb7c 02bd e91f 583d
00000160: c939 7bbe 50c8 1a3e 95cd 473e 1198 60bd
00000170: b5ba bb3c fe3c 0c3e 6372 6fbe 9aae a6be
00000180: e9ac 3d3e 8223 9dbd 0679 ae3d d117 633a
00000190: 4c55 033e e326 233d 5203 00be d1e5 633d
000001a0: 126d 6f3d a6c1 26bd f231 8b3e f22c 5fbd
000001b0: 4204 58bd 5d4c 3dbd 2862 0c3e cb8d 2d3c
000001c0: 8e9d 32bd 6921 6b3e e435 2abd 0f32 c0bc
000001d0: fbe0 373e 7290 843e 823d be3d 79f3 c5be
000001e0: 719b 36bd be35 13bd 899a 61bc 0ea0 63bd
000001f0: 122e 1a3d 9929 843d 35fd 303e 097d a93d
00000200: 89de 62bb 5613 12be 92b3 21be 9995 71bc
00000210: 6b87 32be 73ea 1bbc e3f8 36be d372 dbbc
00000220: 2a5e 15be cfb2 84bd aa64 02bd 5285 bbbc
00000230: 2f28 b4bc e39c e0bb f88a 00bd ef06 eebd
00000240: 5d49 b4bd f237 b43d 9507 273d 01ec adbd
00000250: c953 053e 86c3 8bbb 1778 e03d da5a 213e
00000260: 6c06 a9bd ec9d c43c c3e8 983c 6aa7 1ebd
00000270: 223a 5b3d 59f3 23bc 5a1a d1bd a880 ab3d
00000280: 07ba cc3d c076 813d a135 d93c 0de0 98bb
00000290: 73fb c5bd 4238 91bd b223 bdbc b211 21be
000002a0: 36f8 cd3d aa4f 793d 643f a73d c0a9 3ebe
000002b0: 8657 fdbd 57e5 bfbc 8a53 50bc 10bc 1ebe
000002c0: 1ca0 0c3c 380f 363e 6a75 e93c 5d96 3f3d
000002d0: c35e f03d 509d 773c a271 e6bd 8fb0 eb3d
000002e0: e312 0f3d e806 3dbd 5029 333b 9283 e8bc
000002f0: 98db 323d e5eb cf3c c557 113e 4438 74bd
00000300: 151f 8cbd b03a edbd 48cb 7dbd 6eef 6abc
00000310: 398b 313e d692 f3be dc89 d5ba 4c5f 8e3d
00000320: 67d6 293e 88cf 073e dc33 173e a511 92bd
00000330: ccac 48be 54f8 a83d ea50 48bd 4968 4e3e
00000340: 09b5 52bf d548 dcbc 478d 0fbe f128 073e
00000350: 8ec9 34be f193 b83c cbb4 0e3d 9687 3dbe
00000360: f8a5 81be 59ee 75be 6f7c cebd 1917 aabe
00000370: c8b3 86bd fb9c 96bd 05de e0bd 7b40 c7bd
00000380: d038 1a3e 8fe6 433b 1cdf a73c 3917 593a
00000390: ddb9 083e d0e3 d4bd 5e8a 89be b16b 203e
000003a0: 14cf 28bd 8d8b ab3d e523 c5be b4dc 793d
000003b0: 7c08 e13b 5755 3c3e 9748 b03e 39d0 30be
000003c0: 2c8c 89bd b8aa 24bd 3861 a6bc f2dd 8d3f
000003d0: 1e21 b53e dada 0ebe 7035 4e3c bb91 353f
000003e0: 6d15 0a3d 1647 9c3d 49cf dd3b 912d 7f3d
000003f0: 554b 7e3e c3d3 8dbd c06f c23c 8c74 89bd
0.10086981 -0.024515036 -0.027024116 0.05000654 0.005143064 -0.18990567 -0.15973075 -0.055402383
0.008293263 -0.22294487 0.09220779 -0.0019407844 0.06297413 0.341805 -0.046424378 0.064919144
0.15867208 -0.04375489 -0.28989533 -0.12679277 -0.3707142 -0.11204292 0.071244135 -0.0790187
0.059797112 -0.035851274 -0.2210091 -0.11620612 0.11262808 -0.03759613 -0.056364622 0.008434768
0.016984297 0.22168115 0.014879611 -0.029555438 -0.29235956 -0.030305497 0.091141395 0.018926328
-0.10337626 0.028401732 -0.21792443 0.01857965 0.025953833 0.3098886 -0.14037298 0.02042183
0.025816778 0.004510743 0.029375944 0.354072 -0.027078329 -0.29882196 -0.09001617 0.3835657
-0.012024537 -0.11983927 0.034476556 -0.05866284 -0.041549206 -0.062560424 0.07886162 0.02710165
-0.06180105 -0.20519362 -0.027071679 -0.22085737 -0.4131685 0.21466382 0.10924689 0.16561131
-0.035083648 -0.014868202 0.058502138 0.29128382 -0.0060727275 -0.13079587 -0.045102853 -0.15490173
-0.3693505 0.012226417 0.44101447 -0.0028810878 0.17404549 0.07231374 -0.031857472 0.052764807
-0.24533762 0.15115476 0.19512017 -0.05483252 0.022916177 0.13695142 -0.23383479 -0.32555085
0.18522991 -0.07672788 0.08519177 0.0008662912 0.12825507 0.039832007 -0.12501267 0.055639092
0.058453627 -0.04071202 0.27186543 -0.054486223 -0.052738436 -0.046215404 0.13709319 0.010592888
-0.043607287 0.22961964 -0.0415553 -0.02346137 0.17956917 0.25891453 0.092890754 -0.38662317
-0.044581834 -0.035939924 -0.013769754 -0.055572562 0.037641592 0.064532466 0.17284091 0.08275802
-0.0034617505 -0.14265189 -0.15791157 -0.0147451395 -0.1743447 -0.009516346 -0.1786838 -0.02678815
-0.14586702 -0.064794175 -0.031834282 -0.02289072 -0.021991817 -0.00685464 -0.03138253 -0.11622416
-0.088030554 0.08799733 0.040778715 -0.0849228 0.13020243 -0.0042652516 0.10960405 0.15757313
-0.08253178 0.024001084 0.018665677 -0.038733877 0.053522237 -0.010006749 -0.10210104 0.083741486
0.099964194 0.06321478 0.02651483 -0.004665381 -0.09667101 -0.070908085 -0.02308831 -0.15729406
0.10057108 0.06086699 0.08166388 -0.18619442 -0.123702094 -0.023424787 -0.01271523 -0.15501428
0.008583095 0.17779243 0.02849837 0.046774257 0.11736824 0.01511319 -0.112521425 0.11508285
0.03493012 -0.046149164 0.0027337857 -0.02838305 0.043666452 0.025381038 0.14193638 -0.05962397
-0.06841866 -0.115834594 -0.061961442 -0.014339311 0.17338265 -0.47572964 -0.0016291696 0.0695177
0.16585694 0.1326276 0.14765877 -0.07132272 -0.19597167 0.0825049 -0.04890529 0.20156969
-0.8230749 -0.026890198 -0.14018737 0.13199212 -0.17655012 0.022531481 0.034840386 -0.18508753
-0.25321937 -0.24016704 -0.100823276 -0.33220747 -0.06577259 -0.073541604 -0.10979847 -0.097290955
0.15060735 0.0029892062 0.020492129 0.00082813535 0.13352151 -0.10395014 -0.26863378 0.15666081
-0.04121311 0.083762266 -0.38503948 0.061001495 0.0068674665 0.1839193 0.34430382 -0.1726693
-0.06716189 -0.040201873 -0.02031003 1.1083357 0.3537683 -0.13950673 0.012585983 0.7092549
0.03371184 0.07630746 0.006769095 0.062299315 0.24833424 -0.06925156 0.023734927 -0.06711683

MIX_conc_core_f.AT_forward_mlp.0.bias f4 [48]
00000000: 89f9 f5bc c402 8bbc 5a06 bc3c b86c 96bb
00000010: 3224 d4bc a90f e83c af72 05bc 15d1 183c
00000020: 664f bb3c a25f 02bc a5bf 27bb 34cf 85bd
00000030: 3f18 a73b 044f 513c 35e5 b3bc 905a 94bc
00000040: 7f6d 3c3d 7a9d 963d ec9c 35bd 8083 fc3b
00000050: ce79 0fbc c260 91bc 2cac 8d3d 5a40 82bc
00000060: 3df7 c6bc c040 92bc 9fd1 5ebb 84f4 02bd
00000070: ac02 bfbc 2c08 c4bc 9f4c 84bc 085a 6f3b
00000080: b14f 88b8 0b9f b3bb f6b4 f43c e480 4c39
00000090: dac4 5c3c 91a4 31bd 9973 c6ba e61a a83b
000000a0: 5d5e 713a fafe f5bd 71d1 87bd 6ecb 7b3b
000000b0: 0c67 4c3d 508a 2f3d 6dee 09bd 7113 123d
-0.030026214 -0.016969092 0.022952247 -0.004590597 -0.025896166 0.02832778 -0.0081450185 0.009327193
0.022865009 -0.007957371 -0.0025596407 -0.065336615 0.005099326 0.012775186 -0.02195988 -0.01810959
0.04600286 0.07354255 -0.044339105 0.0077061057 -0.008757068 -0.017746333 0.06917605 -0.015899826
-0.024287814 -0.01785314 -0.0033999456 -0.03197147 -0.023316704 -0.023929678 -0.016149817 0.0036522169
-6.499829e-05 -0.005481606 0.029871445 0.00019502972 0.013474667 -0.043369833 -0.0015140652 0.0051301597
0.00092074816 -0.120115235 -0.06631745 0.0038420814 0.04990296 0.042856514 -0.033674646 0.035663072
