ZHECKPOINT/50RL-55opp/model.pt (torch, 266433 bytes, 32 tensors)

_batch_norm.mean f4 [16]
000000 00 00 00 00 7f 22 b6 be a5 bb 41 3e fb b5 c8 3c
       0.0 -0.35573193 0.18919237 0.024500838
000010 40 79 1a bd 74 81 ae 3b d0 cf 2f 42 85 de 70 3f
       -0.03771329 0.0053254906 43.95294 0.9408954
000020 00 00 00 00 00 00 00 00 00 00 00 00 00 00 00 00
       0.0 0.0 0.0 0.0
000030 00 00 00 00 00 00 00 00 00 00 00 00 00 00 00 00
       0.0 0.0 0.0 0.0

_batch_norm.var f4 [16]
000000 00 00 80 3f d3 31 ac 40 6b 8d 94 40 64 90 56 40
       1.0 5.381082 4.642263 3.352563
000010 cd e5 fd 3d a8 1b ef 3d a2 ee 5b 44 68 63 a9 3c
       0.12397347 0.11675197 879.72864 0.020677283
000020 00 00 80 3f 00 00 80 3f 00 00 80 3f 00 00 80 3f
       1.0 1.0 1.0 1.0
000030 00 00 80 3f 00 00 80 3f 00 00 80 3f 00 00 80 3f
       1.0 1.0 1.0 1.0

AT_obs_encoder.0.weight f4 [48, 16]
000000 71 c9 4b 3e 1b 2f 9b bc af 39 c2 3d 44 37 1b 3e
       0.19901063 -0.01894336 0.094836585 0.15157801
000010 2e c2 9b 3e c8 11 07 be cd c2 e9 3a 80 f5 b2 3d
       0.30421585 -0.13190377 0.0017834544 0.08738232
000020 ff 01 75 3b fc 56 d9 3c a3 04 7e 3c 79 cb 0c 3d
       0.0037385223 0.026530735 0.015504035 0.034373734
000030 08 dc 89 3d c2 8e eb 3d 66 71 06 3e 63 15 4f be
       0.06731421 0.11501838 0.13129196 -0.20223002
000040 04 6b e8 3e 17 c0 a1 be 4f 57 2d bf 74 dd be bb
       0.45394146 -0.31591865 -0.6771135 -0.005824739
000050 41 1c b0 bc 62 4b 8a bc 25 40 21 be 62 21 ac bc
       -0.021497848 -0.016881648 -0.15747125 -0.021012012
000060 a3 88 3b 3c b3 95 3e 3c 83 fd 58 3c 61 54 f7 3c
       0.011446151 0.011632371 0.013244036 0.030191602
000070 6b 77 8a 3d 73 8c 24 3e ef 0f fc bd 58 b6 49 3d
       0.067610584 0.16069202 -0.123077266 0.049246162
000080 63 0f a7 3e 72 11 8a be fe 92 12 be f4 c5 a5 3c
       0.32628927 -0.26966435 -0.14313886 0.020235993
000090 ea 02 bb 3d ee fc 23 bd db 6c 9c be 96 2e bc 3d
       0.09131415 -0.040036134 -0.305518 0.09188573
0000a0 f1 4e c0 bb 82 32 9d bc ea 8e ae bb 19 25 66 bc
       -0.0058687855 -0.019189123 -0.0053270953 -0.014046931
0000b0 16 d2 10 bc fc 50 02 bb 67 2f 59 bc 4a 53 ab 3d
       -0.008839151 -0.0019884696 -0.0132559305 0.083654955
0000c0 91 18 82 3e f4 2d eb be 64 a7 17 3f 37 d4 ce 3b
       0.25409368 -0.45933497 0.5923979 0.006311919
0000d0 c1 15 8e bc 0a 5f 61 3c 24 05 d7 bd bb 6d 9d 3b
       -0.017344357 0.013755569 -0.10499027 0.0048043407
0000e0 a2 f6 a4 3b f1 28 a7 3b 43 e0 67 3c 28 fa 86 3c
       0.0050342837 0.005101316 0.014152589 0.016476706
0000f0 ea 02 2b 3d 7c 27 bb 3d 2a 2a 0e 3e 0b 84 40 3e
       0.041750826 0.091383904 0.13883272 0.1880037
000100 6e c6 22 be 47 80 d8 3b 32 98 ab 3d 0d fc 0a 3f
       -0.15896007 0.0066070887 0.08378638 0.5429085
000110 55 6e 9c bd ee cd f1 3d ab f3 41 be e6 36 24 3d
       -0.07638232 0.11806856 -0.18940608 0.040091418
000120 dc 86 17 3b 8a 46 11 3c fc cc 84 bb b9 f1 c6 3c
       0.0023121154 0.0088669155 -0.0040527564 0.024285184
000130 ed 6d 63 3d f2 aa 9d 3c e5 c4 19 3e 4e cd 22 be
       0.055524755 0.019246552 0.15016516 -0.1589863
000140 49 f4 20 3e 23 a0 58 bf c7 52 ef bd 35 0f ab 3a
       0.15718187 -0.8461935 -0.116857104 0.0013050797
000150 9e 84 0e bd 0f b5 37 bd 58 9f 45 bd 99 6f 1b bb
       -0.034794442 -0.044850405 -0.048247665 -0.002371764
000160 ff cc 04 3c c6 3a ae 3a da 59 9f 3c 30 60 02 3d
       0.0081055155 0.0013292662 0.019452024 0.031830013
000170 cb 8d 53 3d b4 94 e3 3d 95 a0 47 3e 32 f4 93 3d
       0.051648896 0.11112347 0.19494851 0.07224311
000180 c8 4c 30 3e f7 6d 41 3f 6d 9f a1 3d 84 77 ec bb
       0.1721679 0.7555842 0.07891736 -0.007216396
000190 2f 81 22 3d 94 3c 11 3c 00 b1 0d 3d 76 c0 43 bb
       0.03967398 0.008864541 0.03459263 -0.0029869354
0001a0 98 ff 9f bc fe 82 ae bb 69 94 86 bc 84 fe 02 bd
       -0.019531056 -0.005325674 -0.01642819 -0.031981006
0001b0 0a 60 6e bd 36 00 bc bd 97 fc 03 be 21 26 24 3d
       -0.05819706 -0.09179728 -0.12889324 0.040075425
0001c0 ff 8e 55 3e fa e5 ba 3e 33 f9 b5 be b1 6b 70 3d
       0.2085533 0.36503583 -0.35541686 0.058696453
0001d0 98 b2 6b 3d 72 94 f5 bc cf 99 49 bc b0 d2 ce bc
       0.057543367 -0.02997801 -0.012304737 -0.025246948
0001e0 43 fe 42 b9 9a dc 26 3b 8d 69 01 bc 63 da 5d bd
       -0.00018596002 0.0025461079 -0.0078987 -0.054163348
0001f0 d3 81 f8 bd 46 f0 63 be 2e 7d 32 3e ee f0 95 bc
       -0.12134137 -0.22259626 0.17430565 -0.01830336
000200 8a 13 d5 3e 95 79 8e 3e 26 64 05 3f 1d c4 cf 3a
       0.4161647 0.27827135 0.5210594 0.0015851293
000210 9d 9b 5e 3b 53 e4 b3 3c 8c d9 b9 bd 46 5b 01 3c
       0.0033967264 0.02195946 -0.09074697 0.007895296
000220 19 5b e4 3b 7e 7f 10 3c ae 7e 4b 3c ee 51 31 3c
       0.0069688675 0.008819459 0.0124203395 0.010822756
000230 0e 45 aa 3c b9 1e 1d 3d c8 5b d6 3d 4f a5 ac 3d
       0.020784881 0.038359378 0.10466725 0.084299676
000240 56 9d 6c 3e 19 77 7b bf 22 df 49 3e 22 53 97 3c
       0.23106894 -0.98228604 0.19714025 0.018472258
000250 55 16 ed bc f1 c5 f8 3c 15 45 4d bd 8d ad 49 bc
       -0.028941313 0.030367823 -0.05011471 -0.012309444
000260 41 1c 2e bb e8 a9 50 3c a5 a5 64 3c b5 e4 e5 3c
       -0.0026567134 0.012735821 0.013955508 0.028063158
000270 8d 93 68 3d 90 6b 01 3e 65 d6 36 3e 6e 53 d7 bd
       0.05678134 0.12638688 0.17855223 -0.1051396
000280 c5 d3 44 3e a9 68 ea 3d 14 26 bf 3e e5 bd 47 3d
       0.19221409 0.114457436 0.3733374 0.048765082
000290 57 e0 51 bc 83 2d 5a 3d cd 98 ae 3e 90 50 2f 3e
       -0.012809834 0.05326606 0.34100953 0.17120576
0002a0 30 f4 e0 bb ef 14 0e 3d 8a c6 30 3d 9d 1c b2 3d
       -0.006865047 0.034687933 0.04315809 0.08696864
0002b0 d8 85 72 3d 72 d5 8c 3e 9a 63 22 3e b9 ff f1 3d
       0.059209675 0.27506596 0.15858307 0.11816353
0002c0 bc a9 db 3e 87 9b ed 3c e3 e4 c8 bd ca 13 91 bd
       0.42902935 0.029004825 -0.09809282 -0.070838526
0002d0 de 39 a2 3c 99 05 8f 3d 7b 69 c6 3c 82 b5 b5 3e
       0.019802984 0.069834895 0.024220219 0.35490042
0002e0 5b 71 56 bc eb 54 e2 3b 2a 48 97 3b d0 c5 84 3c
       -0.0130885495 0.0069070957 0.004616757 0.016207606
0002f0 06 d8 03 3d 05 81 38 bc b7 ba 69 3d 46 4c c5 bd
       0.032188438 -0.011261229 0.05706283 -0.09633689
000300 61 d5 45 3c a7 53 53 3f 9b 2d 01 be fa b3 21 bc
       0.012074799 0.8254952 -0.12615053 -0.00986957
000310 42 bb 80 3c 45 e8 09 bc a2 8b eb bd 5f 83 50 bc
       0.015714291 -0.008417194 -0.11501242 -0.012726634
000320 b5 56 13 3c 35 da d0 3b 8e ed 3a 3c ef ca a3 3c
       0.008992841 0.0063736686 0.0114091765 0.019994227
000330 52 83 ff 3c c2 20 67 3d 6d 88 0b 3e 60 a9 2f be
       0.031190548 0.056427725 0.13626261 -0.17154455
000340 f0 98 8d be 96 7b ff 3e bf 87 09 bd e3 81 1e bc
       -0.27655745 0.49898976 -0.033576723 -0.009674522
000350 ed af c5 3c 1f ae 1a 3c 0c 5e 04 bf 08 96 19 3d
       0.02413174 0.009440928 -0.51706004 0.037496597
000360 f9 bc 6b 3c 8c e8 d4 3b f8 b0 13 3d 0b 86 a3 3d
       0.014388316 0.0064974483 0.036057442 0.07984551
000370 be 87 95 bd 30 63 58 be 7f 46 e8 be 9d b3 21 be
       -0.073012814 -0.21131587 -0.45366284 -0.15791173
000380 96 68 f8 3c 56 bc 0d bf c0 a7 4b 3f 90 b8 f7 3b
       0.030323308 -0.553655 0.7955284 0.0075598434
000390 34 d1 b5 bc bb cc e4 3c 45 34 f6 bc 6a e5 26 3b
       -0.022194482 0.027929654 -0.03005422 0.0025466331
0003a0 93 42 45 bb 64 03 e2 3b e1 61 f4 3b 0c 9a ff 3b
       -0.0030099496 0.006897377 0.007457957 0.0078003462
0003b0 0b 82 1f 3d c2 77 66 3d 93 77 22 3e 05 fa 17 be
       0.038942378 0.056266554 0.15865926 -0.14841469
0003c0 86 b4 e4 bc 25 5a 5b 3d 28 13 ac 3c 0b db 2e bf
       -0.027918112 0.053552765 0.021005228 -0.68302983
0003d0 f5 80 a1 bd 35 f7 58 bd fa fc 03 3d 3e 97 ad 3b
       -0.07885925 -0.05297013 0.03222368 0.0052975705
0003e0 58 b2 49 3c 26 a1 8a bb df 6d e8 3c 6e 2f 1e 3d
       0.012310587 -0.004230636 0.028372703 0.03861945
0003f0 96 8d 63 bc f3 fb 72 3c 0f 70 a8 bd e1 0a db bd
       -0.013888737 0.014830577 -0.082244985 -0.10695434

AT_obs_encoder.0.bias f4 [48]
000000 53 3c da 3d 41 64 1a 3e 4d e7 50 3e 3d fb 93 3e
       0.10656037 0.15077306 0.20400734 0.28902617
000010 2f e8 de bd f2 80 3b 3e 13 ff 14 3a 95 7c 07 3e
       -0.10884129 0.18310907 0.0005683761 0.13231118
000020 20 2e 6a 3e b5 3a 76 3e ce 0b ab 3c 7b 7b 19 3e
       0.22869158 0.24045832 0.020879652 0.1498851
000030 1e 41 1e 3c d2 9d 77 bd 82 c1 c4 3d e8 ea c3 bd
       0.00965908 -0.060453244 0.09607221 -0.09566289
000040 9b 34 a7 3e 92 24 d0 3e 69 84 64 bc c2 c0 09 3d
       0.32657322 0.406529 -0.013947585 0.033631094
000050 92 8f 1a 3d 28 09 a2 3d 1a 8d 02 be f6 c2 b8 bd
       0.037734576 0.07911903 -0.12749138 -0.09021561
000060 a6 49 35 3e 36 9c f1 3d 15 96 01 3f c9 e5 a5 3d
       0.17703876 0.11797373 0.5061963 0.08100469
000070 9f 1e f2 3d 25 62 a0 3e 32 d1 8e 3d 63 0d af 3d
       0.11822247 0.31324878 0.069734946 0.08547475
000080 96 9b 3e 3e ab 88 98 3e 83 ff 13 3e 4b 6d b2 3d
       0.18614039 0.2979177 0.14452939 0.08712252
000090 54 1c e3 3e a0 e1 d6 bc 60 99 6e 3d a6 2b 6c 3d
       0.4435755 -0.026230633 0.05825174 0.057658814
0000a0 d4 33 c8 3c ad 98 08 3e 36 48 8f 3d 51 37 af bd
       0.024438776 0.13339491 0.06996195 -0.08555473
0000b0 a2 d1 63 bd 40 cf a8 3e 6c d8 aa 3d 0b 8e 37 bd
       -0.055619843 0.3297062 0.083420604 -0.044813197

AT_obs_encoder.2.weight f4 [48, 48]
000000 2d f3 48 3d 2f 06 4e be ed 80 98 bd cc 2c 07 3d
       0.049060035 -0.20119546 -0.07446466 0.033001706
000010 cf 91 89 3d a0 f2 18 be 6e cc 6e 3e cd 7c 0a be
       0.06717264 -0.14936304 0.23320171 -0.1352417
000020 3b b2 ee 3d eb 01 80 3e a5 8d 9f 3a 5b ce cc 3d
       0.116550885 0.25001463 0.0012172951 0.10000297
000030 49 bc fb bd fc b2 4d be ff e4 09 3e 08 ac 55 3d
       -0.12291772 -0.20087808 0.13466261 0.052166015
000040 db fb 95 3e a8 65 a0 3d 4e d4 ab 3e 45 c4 6e be
       0.29293713 0.078318894 0.33560413 -0.23317058
000050 c2 2e 5a 3e f8 af 4a be 7d 21 7d 3e 27 03 8c bc
       0.21306899 -0.19793689 0.24719806 -0.017091347
000060 34 b1 85 3d 77 f1 e3 3c 91 36 dc 3d 8f 15 84 3e
       0.065279394 0.0278251 0.10752595 0.25797698
000070 e5 47 07 be 67 d2 2c bd e0 c9 a9 3e 66 55 94 bc
       -0.1321102 -0.042192843 0.3316183 -0.018107127
000080 42 96 97 be 37 73 c8 bd aa 7b ee bd 94 dd 12 3e
       -0.29606825 -0.097876005 -0.11644681 0.14342338
000090 c5 e1 19 3f 6f 05 e3 3d 12 29 5c 3e e9 36 0d be
       0.6011012 0.11085021 0.21500042 -0.13790478
0000a0 92 0c 63 3d 14 9a 6e 3d 16 96 c6 3d 50 a0 41 bd
       0.05543191 0.05825241 0.09696595 -0.047272027
0000b0 2d 07 8c 3e 07 3d f0 bd eb 64 aa be dd 17 77 be
       0.27349225 -0.1173039 -0.3328012 -0.24130197
0000c0 92 72 c6 3d 6e 70 1b 3e 92 d9 86 3d e8 c3 16 be
       0.09689821 0.15179607 0.06584467 -0.1472317
0000d0 6f 64 18 be 87 4f 0e 3e 3e 86 24 be f8 2d b9 3d
       -0.14882062 0.13897525 -0.16066834 0.09041971
0000e0 ce 5f fc be c5 4a 7c bd a7 b4 b0 3e 25 a0 b6 3c
       -0.49291843 -0.061594743 0.34512827 0.02229316
0000f0 96 06 70 be 21 f9 3b bd a4 1a 2c 3e 9e a4 06 be
       -0.23440012 -0.045891885 0.16807038 -0.13148734
000100 27 fd a5 bd 75 4b d2 3e 27 6f 22 be fe 57 f5 bc
       -0.081049256 0.41073194 -0.15862714 -0.029949185
000110 e5 fd 87 bd bf a7 ad bd d7 64 9e be ca f6 41 be
       -0.066402234 -0.08479261 -0.3093631 -0.18941799
000120 59 29 39 3e 28 f4 3d 3b 9a d4 b7 bc 8e 03 c0 be
       0.18082179 0.002898464 -0.022440244 -0.37502712
000130 a5 c0 9a 3d 0e 6d a6 bd 28 4d b2 be ae ad 0f be
       0.07556275 -0.08126269 -0.3482449 -0.14031097
000140 fc 36 29 3d fb b9 2e bd ac 9b 1f be 58 b1 38 be
       0.041312203 -0.042657834 -0.15586728 -0.18036401
000150 0c a5 a5 bc 29 61 00 3d 3e e9 f6 bd 0d 2f 07 be
       -0.020220302 0.03134266 -0.12056206 -0.13201542
000160 ab 91 8b be dc 51 a1 be e5 18 a1 be 53 f1 f0 3c
       -0.27259573 -0.31507766 -0.31464306 0.029411947
000170 5c f9 23 bd 9b 2c 97 bc 4e 28 c7 be 81 97 d9 bd
       -0.04003273 -0.018453887 -0.38897938 -0.106246
000180 6c dc 9f bc eb 3f 69 be 9f 65 14 3d bf 03 ee bc
       -0.019514285 -0.22778289 0.036229726 -0.02905452
000190 bf d0 ac 3d c0 e5 56 be 2c 8b 61 3c c3 d6 0e bd
       0.08438253 -0.2098608 0.013766091 -0.03487278
0001a0 0e 2f af bd 08 91 2d be 6d 83 8d 3b 44 bd 13 be
       -0.08553897 -0.16949856 0.0043186457 -0.14427668
0001b0 70 b8 8f be 4c 79 b7 3d c0 48 0a 3d 03 b4 3b bd
       -0.28070402 0.089586824 0.033760786 -0.04582597
0001c0 16 a9 ea bd 1a d9 a1 3c b0 1a 3c bd d5 f8 34 3e
       -0.11458032 0.019756842 -0.04592389 0.17673047
0001d0 b9 6e fd bd c3 50 41 be 19 8d 8a bd 2d 6c a6 3d
       -0.12374634 -0.18878464 -0.067651935 0.08126102
0001e0 45 c4 cd be cb 58 c2 3e 9f ad da be 68 df b2 bd
       -0.40188804 0.3795837 -0.42710587 -0.087340176
0001f0 4c 67 00 bf 12 d9 41 be 44 30 21 3e 7a 1b 85 be
       -0.5015762 -0.18930462 0.15741068 -0.25997525
000200 46 42 6c 3e 01 6f e6 3d 34 5c b8 3d 5a 49 5b bc
       0.23072156 0.11251641 0.09001961 -0.013384188
000210 e8 05 66 be 6f 73 74 3e 26 60 57 be 79 bf be 3d
       -0.2246319 0.2387216 -0.21032771 0.09313864
000220 e0 aa 94 3e e8 0a cc bd 59 84 f2 be c2 f7 26 be
       0.29036617 -0.09963018 -0.47366598 -0.1630545
000230 b2 c1 08 3f 67 cf 58 be ab b3 85 3d 4d df 20 be
       0.53420556 -0.21172868 0.065284096 -0.15710182
000240 02 6f b4 3d cd ca 23 be 7e de 95 bd fd a7 cf bd
       0.088102356 -0.15995331 -0.07317828 -0.10139463
000250 41 f1 27 be a4 54 b5 bd ac 9a 81 be 0e c0 91 bd
       -0.16400625 -0.088540345 -0.25313318 -0.0711671
000260 7b cf 33 bd 9f f7 60 bd 89 e0 09 3e ad 27 61 bd
       -0.04389904 -0.05492365 0.1346456 -0.05496948
000270 1d 5d 22 3c 69 27 bb 3d b2 7c 31 3e 60 87 4c be
       0.009909895 0.09138376 0.17332724 -0.19973516
000280 49 4d 47 be 17 68 67 bd 1b de cc 3d 6f 5c b6 3d
       -0.19463076 -0.056495752 0.10003301 0.08904349
000290 ab cf 0f bd 3b 88 92 3d 98 d5 d9 3d 9c 38 a7 bd
       -0.035110157 0.0715489 0.10636443 -0.08165094
0002a0 c5 26 5b 3e 7d 8b 13 be e9 c0 50 be b5 40 0c 3e
       0.21401508 -0.1440868 -0.2038609 0.13696559
0002b0 73 92 26 3e b5 62 e9 bd 1a 35 7a 3e 39 52 3a 3d
       0.16266803 -0.1139578 0.24434319 0.04548857
0002c0 b4 de 11 bd 38 06 c8 3e e7 49 6b 3d ab ea 3c be
       -0.035612777 0.39067245 0.057443526 -0.18448894
0002d0 1c a5 5d 3d 1a 87 90 3d 89 1b 19 3e 40 44 39 3e
       0.05411254 0.070570186 0.1495191 0.18092442
0002e0 c4 5a 18 3e a7 7b fc bc 11 3e ca bd 75 ac f9 3e
       0.14878374 -0.03082068 -0.098751195 0.48764387
0002f0 8d 7a cd bd 35 c2 5a bc 9a f2 1b be c5 b7 c9 bd
       -0.1003314 -0.013351967 -0.15229264 -0.098495044
000300 45 f2 38 be 3d c1 20 3b e1 da 17 bc 91 6a 76 3e
       -0.18061168 0.0024529241 -0.009268493 0.2406409
000310 10 c9 6d bd 28 9a 5e 3e c1 65 6f 3e 3e dc 1c be
       -0.058053076 0.21738493 0.2337866 -0.1531839
000320 fb 3f 8c be 99 88 ea bd cf b5 94 3d 72 7c ed bc
       -0.27392563 -0.11451835 0.0726124 -0.028990004
000330 9a 24 62 3e 38 4d 57 be 0a 7c 86 3d bd 17 85 be
       0.22084275 -0.2102555 0.06566627 -0.25994673
000340 ea 7a 08 3e 4d bb f1 bd df c2 6f 3e e1 f3 20 be
       0.13328138 -0.11803303 0.23414181 -0.15718032
000350 e0 30 5a be f1 f1 03 be e8 d1 96 3e 31 29 05 be
       -0.21307707 -0.12885262 0.2945702 -0.13003995
000360 b8 2f 4f 3e c1 59 d6 3d a9 af 45 be 43 58 04 bf
       0.20233047 0.10466338 -0.1930529 -0.51697177
000370 c3 ee c3 3d 75 5e 2c be fa 45 0f 3e 16 a3 87 bc
       0.095670246 -0.16832907 0.13991538 -0.016557258
000380 26 9e 24 3e 56 16 97 3e 3a 8f 93 bd ae 07 ee bd
       0.16075954 0.29509228 -0.07205053 -0.116225585
000390 52 9c 00 3e 6d 1b 39 3e 07 65 7c bd f3 f9 80 3d
       0.12559631 0.18076868 -0.061619785 0.06297674
0003a0 d6 5e f0 3c 72 15 71 3c b1 e0 94 3e 17 b2 77 3d
       0.029342096 0.014714586 0.29077676 0.060472574
0003b0 2f 41 8e bd bb 74 91 3d c9 0d 07 3d 6f 1f b9 3e
       -0.069460265 0.07102343 0.03297213 0.36156794
0003c0 18 2e c2 bd 63 06 01 3e 5d be 0a 3d 97 cc 93 3d
       -0.09481448 0.12600093 0.03387295 0.07216757
0003d0 72 27 65 3e fc 42 00 3e f6 2a 7e be a3 f0 09 bb
       0.22378328 0.12525553 -0.24821076 -0.0021047972
0003e0 d1 5a 8b 3d 26 20 95 3d 62 2b dc 3d d6 34 e1 be
       0.06804431 0.072815225 0.10750462 -0.43985623
0003f0 6e 47 04 3e 2c 50 b2 3d 29 5b 4c be ad 73 9c bd
       0.12917873 0.08706698 -0.1995665 -0.07639251

AT_obs_encoder.2.bias f4 [48]
000000 39 07 e2 3c 47 6a 9c 3d fe ea b0 bd e3 1b c1 bd
       0.027591335 0.07637458 -0.08638571 -0.09429147
000010 d7 de 87 bd c8 f7 3a 3e 5b f1 30 be 4f 5a 62 bd
       -0.066343 0.18258584 -0.1727957 -0.055261906
000020 45 47 b2 3c c1 7d e3 bd dc c5 8b 3e c8 c9 35 3e
       0.0217625 -0.1110797 0.27299392 0.17752755
000030 bb 2b d4 3d 0d 39 33 3e c7 7f 9f bd 47 45 82 3d
       0.103599034 0.17502232 -0.077880435 0.0636087
000040 69 c6 1e bd 3f 51 e0 bd c8 bb 55 bd d0 e6 aa bd
       -0.038763437 -0.109529965 -0.052181035 -0.08344805
000050 19 0f 23 3b df 91 9a bd 51 cf 4c 3d 00 27 a8 3c
       0.0024880825 -0.07547354 0.0500024 0.02052641
000060 5a 1d 92 3b dc 0e 88 3d f6 a7 f9 3c 1b b8 57 be
       0.0044590654 0.06643459 0.030475598 -0.21066324
000070 ae 81 c9 bd 55 69 86 bd 72 8f db bd a4 30 d5 be
       -0.098391876 -0.06563059 -0.107207194 -0.41638672
000080 8d e2 19 be e8 ff 07 bd f2 1c 8d be 88 e3 df 3d
       -0.15027829 -0.033203036 -0.27561146 0.1093207
000090 e3 b0 96 bd 80 7c b6 be 7d 53 a0 3e a3 a8 6a be
       -0.07357957 -0.3564186 0.31313697 -0.22915892
0000a0 1a 99 43 3d d0 aa a2 3c 14 bc e9 bd 9c 5c 6f be
       0.04775343 0.01985684 -0.11412826 -0.23375171
0000b0 df 12 a8 3d 7a d2 c5 3d cc e8 83 be 0f 11 b6 3e
       0.082067244 0.09659286 -0.25763547 0.3555989

MIX_conc_core_f.CT_W_query f4 [48, 48]
000000 89 a0 d5 bf c7 a2 09 c0 c2 fb 50 bf 6f c1 6f 3e
       -1.6689616 -2.1505601 -0.8163415 0.23413633
000010 2f b5 02 40 6a ba b4 bf 32 fd 81 3f 58 b0 6f 3f
       2.0423086 -1.4119389 1.0155394 0.93628454
000020 87 6c 41 40 1a a6 9d be e8 d1 db bd 4f 75 6a bf
       3.022249 -0.30790788 -0.10733396 -0.9158525
000030 7e a1 0c c0 d4 fe 94 be 70 fa c1 3f 0b b0 de 3e
       -2.1973567 -0.29100668 1.5154552 0.43493685
000040 9d 65 ac 3f d1 47 1c 3f 45 a8 89 3c dc 5d b7 bd
       1.346851 0.61047083 0.01680387 -0.08953449
000050 d4 0e 12 3e 92 df 02 c0 8e d4 df bf 0b 90 16 bf
       0.14263469 -2.0448956 -1.7486742 -0.5881354
000060 03 1b 34 3e 83 af 49 3f cf 5a eb 3f 10 bf 9a 3f
       0.17588429 0.78783435 1.8387088 1.2089558
000070 7a 03 95 bf 69 bd 9c 3e 6d 75 93 3e 23 f5 80 3f
       -1.1641686 0.30613258 0.28800526 1.007481
000080 63 18 f1 3f 96 ff a2 bf 29 f5 8d 3d a0 1f 05 3f
       1.8835567 -1.2734249 0.06931526 0.5200138
000090 bc bf 54 3e b1 67 19 3e b7 7f a5 bf 1d 99 43 3f
       0.20776266 0.14980961 -1.29296 0.7640551
0000a0 c7 16 10 c0 6a 65 12 bf f5 fa 27 3f f0 d8 ef 3e
       -2.2513902 -0.57185996 0.65617305 0.46845198
0000b0 aa aa e2 3f 6b 35 ed bf 3b 81 aa bf e8 67 1c 3f
       1.7708333 -1.8531927 -1.3320688 0.6109605
0000c0 a0 24 ac 3f e9 4d 85 3f 16 9a 18 bf b8 8a 56 bf
       1.3448677 1.0414401 -0.59610116 -0.8380542
0000d0 24 c4 11 c0 79 19 0b 40 90 e5 b3 bf 09 93 9c bf
       -2.2775965 2.1734297 -1.4054432 -1.2232372
0000e0 cd 4d cd bf 23 87 32 3f 79 03 b4 3f da 12 10 3f
       -1.6039368 0.6973745 1.406356 0.56278765
0000f0 fc 24 2c be d1 85 b9 bd 0a 8c 12 bf f4 55 7a 3f
       -0.16810983 -0.090587266 -0.5724493 0.97787404
000100 d1 a1 2f c0 ca ce 38 3f 9d 46 60 be d8 4e 07 c0
       -2.7442515 0.72190535 -0.21901937 -2.1141872
000110 8a ad 59 3f 04 5c 0f 40 6c 1a c2 3e 48 22 03 be
       0.85030425 2.2399912 0.37910783 -0.12806046
000120 4a 29 e1 3f e6 f3 1b c0 95 e6 bb bf 23 d9 a3 3f
       1.7590725 -2.4367614 -1.4679743 1.280064
000130 fe 1b 8a bf a1 fd de bf 35 f0 9e 3e 98 6c 7e bf
       -1.0789793 -1.7421151 0.31042638 -0.9938445
000140 6e d3 c6 3b 85 2b bb 3f 0c 55 4e 3e 4a 00 d3 3f
       0.006067685 1.4622656 0.2014963 1.6484463
000150 1c 9a e2 bf 5d c0 d3 3f de dd 24 bf 62 10 4b bf
       -1.770328 1.654308 -0.6440104 -0.79321873
000160 da 3a ba 3e 9f d3 f1 bf 03 fe 07 c0 74 35 07 bf
       0.36373025 -1.8892707 -2.1248786 -0.5281594
000170 e5 f3 95 3e a4 0a 04 3f ba 33 c1 3f d1 6a 34 bf
       0.2928764 0.51578736 1.5093911 -0.7047549
000180 9f 07 8a 3f d9 fa e6 3e d1 23 21 40 17 27 f2 bf
       1.0783576 0.45113257 2.517811 -1.8918179
000190 6e 8d 2f 3f 1f 52 ce 3e 58 85 1f bf 71 23 20 bf
       0.6857518 0.40297028 -0.6231284 -0.6255408
0001a0 93 86 4f 3f 37 23 12 c0 84 93 7d 3f 1a 43 ba 3d
       0.8106472 -2.2833993 0.99053216 0.0909483
0001b0 61 d2 8a 3e 0f f6 cc bf a8 7d 12 bf 8a 61 2f 40
       0.2711363 -1.6012591 -0.57222986 2.7403283
0001c0 2c 3a 88 3f 95 dc f6 bf c8 bd 0f 40 f9 f6 83 3f
       1.0642753 -1.9286066 2.2459583 1.0309745
0001d0 91 4f e4 bf 76 26 9d 3e 1b b0 13 bf db 79 19 c0
       -1.7836782 0.30693406 -0.5769059 -2.3980625
0001e0 86 40 69 3e 10 2b 74 3f d1 2d e2 bf 0c d5 93 be
       0.2277852 0.9537821 -1.7670232 -0.2887348
0001f0 95 e3 82 3f 2e 6d c1 3e 6c 43 9c 3e c7 a8 27 bf
       1.0225703 0.3777861 0.3052019 -0.6549191
000200 a8 0d 44 be 74 4f 53 bf c2 6c 16 40 6f 44 06 3f
       -0.19145834 -0.8254311 2.350388 0.5244817
000210 cc 21 cf bf cd af e3 3f 75 a8 b8 be 62 5d 85 bf
       -1.6182189 1.7788025 -0.36066023 -1.0419123
000220 49 42 96 bd 24 fc 05 3f 5c 34 dc bf e7 d0 1d bd
       -0.07336862 0.5233786 -1.7203479 -0.038529303
000230 da d0 1d 3f be 04 91 3e b0 27 1c bf 83 b7 2f 3f
       0.6164681 0.2832393 -0.6099806 0.6863939
000240 20 5c 62 3f 0a ba db 3e 1d f3 37 3f 47 b6 65 c0
       0.8842182 0.42915374 0.71855336 -3.5892503
000250 cb f0 46 bf fa 34 22 40 93 73 65 c0 94 b9 1f c0
       -0.7771117 2.5344834 -3.585179 -2.4957018
000260 05 8c 6f 3f a6 4b 3a bf 00 93 b5 3f 55 2f 05 3e
       0.9357303 -0.7277168 1.4185486 0.13006337
000270 d2 d2 4f bf 73 a3 f5 bf c5 b2 6f 3f 3d ec 10 40
       -0.8118106 -1.9190506 0.93632156 2.2644188
000280 96 a7 63 bf df 74 e9 bd 6f b8 52 bf fa 4c 5c bf
       -0.8892759 -0.113992445 -0.82312673 -0.86054957
000290 3c 6f 02 3f b8 8f cc 3f 2a 92 b3 3f af c3 28 c0
       0.5095098 1.598136 1.4028981 -2.6369436
0002a0 0b ac 28 40 6f aa d5 bf a0 a1 29 c0 68 dd 1f 40
       2.6355007 -1.6692637 -2.6504898 2.4978886
0002b0 09 a9 bb bf 34 25 0e c0 5c 23 c1 3f f7 9f b6 bf
       -1.466096 -2.2210207 1.5088916 -1.4267567
0002c0 d1 bb a0 3f a1 7d f7 be 05 69 72 3f 06 1e 0a 40
       1.2557317 -0.48338035 0.946915 2.1580825
0002d0 d8 3b 5d c0 ef 7c 12 40 33 05 6d 3f 82 c0 49 3f
       -3.4567776 2.2888753 0.9258606 0.7880937
0002e0 89 8f 21 3f ea 23 db bf bf a8 1a c0 60 0e 9e 3f
       0.6310964 -1.7120335 -2.4165494 1.2348137
0002f0 8b bd 06 40 61 a1 3b bf f6 c6 99 be 9d 45 af be
       2.1053188 -0.7329312 -0.30034608 -0.34232798
000300 28 60 83 3d d2 c0 c3 3f 8d 3f 29 be 4e 62 b9 3f
       0.06414825 1.5293219 -0.16528149 1.4483125
000310 b4 86 64 bf f1 ac 51 bf f4 5f 0a bb be 60 97 bf
       -0.8926804 -0.8190451 -0.0021114321 -1.1826398
000320 cf 25 2f bf ab 32 85 3f 55 1f b9 3c 68 67 66 40
       -0.68417066 1.0406088 0.022597948 3.6000614
000330 1f 5a a7 3e eb 96 19 c0 b3 b8 2a bf d1 99 29 bf
       0.32685944 -2.3998363 -0.6668808 -0.6625033
000340 dc d5 3f 3f a7 4f d9 bf ed 39 c9 3f b2 ab d2 3f
       0.749357 -1.6977433 1.5720803 1.6458647
000350 48 f7 c4 bc f9 ab 3a 3e bf 53 aa 3f b6 68 90 3f
       -0.024043694 0.18229665 1.3306807 1.1281955
000360 6b 03 03 3f a0 67 d4 bd 69 03 c2 be f7 2e 05 c0
       0.5117709 -0.103713274 -0.37893227 -2.0809915
000370 41 bc 89 3d 39 5e ea be 86 e0 31 40 49 cb fd 3f
       0.0672536 -0.4577501 2.7793288 1.9827663
000380 64 bf 90 3f 99 cc 81 3f 87 80 0d 3e 2e 01 4e bf
       1.1308408 1.0140563 0.1381856 -0.8047055
000390 d7 4e 18 bf 0c fa 9c 3e 53 50 d3 3f 28 1c c7 3e
       -0.594953 0.3065952 1.6508888 0.3888867
0003a0 6d 59 98 3f c2 19 10 3f 7c bb 4f 3f 51 d0 14 bf
       1.190229 0.56289303 0.81145453 -0.58130366
0003b0 0c 69 e3 bf 7d 5f 8d bf 4d 8a 98 be 38 91 22 bf
       -1.7766433 -1.1044766 -0.29793015 -0.63502836
0003c0 b3 be 3b c0 b5 5f fd bf c8 dd e3 be 1a 3d 7c be
       -2.9335144 -1.9794832 -0.44505143 -0.24632683
0003d0 d9 96 2c 3f cd 37 9c bf 26 ab 41 bf 0b 54 21 3d
       0.67417675 -1.2204529 -0.75651777 0.03938679
0003e0 65 b7 2c 40 e7 04 10 3f 23 20 0f c0 d7 f8 08 3e
       2.6986935 0.5625748 -2.2363365 0.13376175
0003f0 47 4d 07 c0 2c ab 06 3f 97 da 05 40 55 6d 82 bf
       -2.1140916 0.5260494 2.0914667 -1.0189615

MIX_conc_core_f.CT_W_key f4 [48, 48]
000000 58 91 05 bf 4e dd d8 bf c3 76 fb 3d 5f 03 bb be
       -0.521749 -1.6942537 0.122785114 -0.3652601
000010 9a 9e 2a 40 aa ee 86 bf 2c d0 12 3f be 07 34 3f
       2.6659303 -1.0541584 0.57348895 0.70324314
000020 b7 78 3a 40 5a a8 d0 bf fc 0c 1d 3f 1e ab 01 bf
       2.9136178 -1.6301377 0.6134794 -0.5065173
000030 48 11 90 bf 64 70 f7 bf 30 61 80 3f 66 4b 94 3f
       -1.1255274 -1.9331174 1.0029659 1.158551
000040 65 2b 1e 40 76 7a b7 bf 0c 09 0f 40 bc 95 74 3f
       2.4713986 -1.4334247 2.2349272 0.95540977
000050 54 69 94 bf 18 e4 bf bf ff 45 26 c0 12 92 c4 bf
       -1.1594644 -1.4991484 -2.5980222 -1.5357077
000060 ce 2a 10 bf 81 34 ff 3f 18 13 8b 3e 0c 29 16 be
       -0.56315315 1.9937898 0.27163005 -0.14664096
000070 1c b5 3c bd 48 63 51 3f 0f 14 25 3f b6 07 0a 3f
       -0.046071157 0.81792116 0.6448373 0.53918016
000080 d5 f4 82 3f c6 72 d9 bf fe 4d 8a 3f 7a 61 f5 3e
       1.0230967 -1.6988151 1.0805051 0.4792593
000090 2d 07 e7 be 96 29 3f 3f d1 93 a0 bf 66 77 16 be
       -0.45122662 0.7467283 -1.254511 -0.14693984
0000a0 33 ae c8 bf 85 d3 d5 bc 4a 84 07 3c af 61 cc 3e
       -1.5678161 -0.026101837 0.008271286 0.39918277
0000b0 0e b3 6f 3f b7 c4 21 bf 5c 5b fc bf 95 24 e2 be
       0.9363259 -0.6319079 -1.9715381 -0.44168535
0000c0 f1 df 1a 3c b4 cd c3 3e d4 af 04 bf 43 10 9e 3e
       0.009452806 0.38242877 -0.5183079 0.30871782
0000d0 5c 8b c3 be 43 52 a4 be 3a 89 30 3f 11 89 bf 3e
       -0.3819226 -0.3209401 0.6895939 0.3740926
0000e0 db 59 28 bf 18 e6 e5 3f 44 29 6a bf 15 db 4d 3f
       -0.6576211 1.7960844 -0.91469216 0.8041242
0000f0 a1 0b 1f be 29 2e 19 3e 0d 6e 54 bf 85 c5 77 bf
       -0.1553178 0.14959015 -0.82980424 -0.96785766
000100 43 21 8b bf 7f 3b 17 3f f9 51 aa bf 86 1f 93 bf
       -1.0869526 0.5907516 -1.3306266 -1.1493995
000110 3d 8c 80 3f 63 bc 1a 3f cf b0 f4 bd 6b df 80 3f
       1.0042797 0.60443705 -0.11947786 1.0068182
000120 82 90 9d be 03 fd 97 bf c5 68 47 bd d9 b2 d7 3d
       -0.30774313 -1.1874088 -0.0486839 0.10532159
000130 ef fd 5e bf b8 6c 9d 3f d4 96 a9 3f 3f a6 3c 3e
       -0.8710622 1.2298803 1.3249154 0.18422793
000140 c4 19 6b 3e 1f 30 98 3f 34 bd d0 bf 72 f4 08 bf
       0.22959048 1.1889685 -1.630774 -0.53497994
000150 be b4 7c 3e 31 b0 11 3e 02 c2 cc 3b 42 fd 2e 3f
       0.24678323 0.14227368 0.0062487135 0.6835519
000160 f9 79 50 3f a1 1d 31 3f 0e b0 8a 3f 2b 28 d1 3e
       0.81436116 0.69185835 1.0834978 0.40850958
000170 74 96 dc be f0 72 4c bf d4 9e 0b 3f 16 18 e8 3f
       -0.43083537 -0.7986288 0.5453923 1.813235
000180 fd 5d 2f bf 32 b6 b2 bf 00 2f d6 bf 64 fb 9d 3e
       -0.6850279 -1.3961852 -1.6733093 0.30855858
000190 09 ab 01 3f d3 7f 36 bd 0c b2 8f 3d 1e 1e 42 bd
       0.50651604 -0.044555496 0.070163816 -0.047392003
0001a0 35 7d 8a 3f 37 e5 0e 3f 28 34 1b 3f f4 69 b6 be
       1.081946 0.55818504 0.6062646 -0.3562771
0001b0 ea 3f a9 bf 0f 8a 15 3e 62 e8 97 3f 5e 66 cd 3c
       -1.322263 0.14603446 1.1867793 0.025073227
0001c0 6e 9b fa 3e f2 50 ed 3f 63 e2 5a bf 8b dc ea 3e
       0.48946708 1.8540328 -0.8550169 0.45871386
0001d0 48 ae 8c 3f eb bc 87 bf 81 4d ae bf e3 11 c5 be
       1.0990686 -1.0604528 -1.3617402 -0.3849021
0001e0 57 74 87 3f 22 4c 2f bf 9f d3 6b 3f 4f d6 5a 3f
       1.0582379 -0.68475544 0.92119783 0.8548326
0001f0 71 f2 bb bf 29 ce b0 bf 5a 86 88 3f 46 77 fb 3e
       -1.4683362 -1.3812915 1.0666001 0.49114436
000200 06 ea 4b 3f 35 77 87 bd a4 d3 0b 3e 62 28 8f 3f
       0.79653966 -0.06614534 0.13654953 1.1184199
000210 4f 57 bd be fe 7b 63 be 14 d5 d2 bf 32 f6 83 3f
       -0.36980674 -0.22215268 -1.6471276 1.0309508
000220 61 24 13 c0 a2 6c 1d c0 38 34 b3 be 1f c9 82 be
       -2.2990954 -2.4597554 -0.35000777 -0.25544068
000230 de 91 84 3f fe 73 1e bf c5 02 26 3d d8 95 e3 bf
       1.0357015 -0.6189574 0.040529985 -1.7780104
000240 db d3 47 3f be 43 7a 3e 78 87 c6 3f 09 ab dc bf
       0.7805764 0.24439904 1.5510092 -1.7239696
000250 dd 6c 0d 3e 60 76 9f 3f c1 08 f0 bf ef e5 ee bf
       0.1381106 1.2458 -1.8752671 -1.866392
000260 e0 4f 85 3f f9 5d b8 be 9f f6 bb 3d 79 e1 60 3f
       1.0415001 -0.36009195 0.091778986 0.87844044
000270 c2 41 5c bf d9 79 12 c0 8d 3e 60 3e 6a f6 83 3f
       -0.8603784 -2.288687 0.21898861 1.0309575
000280 37 e3 8d bf 25 72 2b bf 99 5b 03 bf c0 de 88 bf
       -1.1084965 -0.66971046 -0.5131164 -1.0692978
000290 f1 98 d8 3d 22 6f b7 3f 58 db b9 3f 01 9e b7 bf
       0.10576046 1.433079 1.4520063 -1.4345094
0002a0 6f 36 c2 3f 34 88 b2 bf b6 6b c4 bf 0c fe 26 40
       1.5172862 -1.3947816 -1.5345371 2.6092558
0002b0 7a 04 90 bf a4 4f c6 bf 7a af 08 40 93 1e 75 bf
       -1.1251366 -1.5493054 2.1357102 -0.9574978
0002c0 85 7b 76 3f 33 c4 1d bf 81 d0 ae 3e 77 29 a1 3f
       0.96282226 -0.616275 0.3414345 1.2590779
0002d0 c5 8d 08 c0 ed 2b e1 3f a6 16 ca 3f 93 fe 8e 3f
       -2.133653 1.759153 1.5788162 1.117144
0002e0 38 de 1c 40 48 16 6a be 3e b8 3e bf c7 9f d1 3f
       2.4510632 -0.22860062 -0.7449988 1.6376885
0002f0 0e 63 cf 3f d2 86 9d bf ac 68 b2 bf 7f 0a b0 3f
       1.6202104 -1.2306769 -1.3938193 1.3753203
000300 f6 66 1a 3f 4b ad 17 40 ed 17 a7 3d 76 b5 67 3e
       0.60313356 2.369952 0.0815886 0.22627816
000310 1f 25 b3 bf f7 64 bc be 9a 27 e7 3e cd 26 1b bf
       -1.3995703 -0.3679578 0.451474 -0.6060608
000320 9a 3e b0 bf 55 b7 e3 3e 34 eb 37 bf 43 00 02 40
       -1.3769104 0.4447581 -0.71843266 2.031266
000330 66 93 08 40 8b 3c 0a bf 0a 3e 06 c0 8d 16 85 bf
       2.1339965 -0.5399863 -2.0975366 -1.0397507
000340 d5 e5 23 3f 36 5e 98 bf b8 7c ce 3e ec f5 1b 40
       0.6402257 -1.1903751 0.40329528 2.4368849
000350 f9 5a 64 3d 0e a9 18 bc f1 3c f8 3f 4c 9c cb 3e
       0.05575082 -0.0093176495 1.9393598 0.39767683
000360 8a 81 79 bf b7 cc 00 3e 4d 21 65 bf 5e 8e 21 c0
       -0.97463286 0.12578093 -0.8950394 -2.5243144
000370 f3 06 89 3f f0 de 8b be 43 29 f5 3f a5 53 fd 3e
       1.0705246 -0.27318525 1.9153217 0.49477878
000380 46 8b 16 bf ac 7c 01 3f eb e5 b1 bf 69 ef ba bf
       -0.58806264 0.5058086 -1.389829 -1.4604312
000390 30 86 d0 3b e6 e6 89 bf 0f 87 49 40 7d 6d f6 3d
       0.0063636526 -1.077359 3.1488683 0.12032602
0003a0 4f 20 8a 3f a3 8a a5 3f e4 84 b0 3e f1 97 89 bf
       1.079111 1.2932934 0.34476388 -1.0749494
0003b0 8d ab ca bf f0 1f 75 3e 8d ab 83 3e c8 e1 28 c0
       -1.5833603 0.23937964 0.2571682 -2.6387806
0003c0 02 45 9a bf cf 55 a7 bf 0d fd d4 3d b2 7e 3f bf
       -1.205231 -1.3073062 0.10399828 -0.74802697
0003d0 4e 6f 9b 3f 84 96 3e bf 4a 4e 2f bf b9 0e 03 be
       1.2143342 -0.7444842 -0.68478835 -0.12798585
0003e0 46 1e 2c 40 a3 24 73 bf d7 1e a1 bf 86 d2 d7 3e
       2.6893477 -0.9497778 -1.2587537 0.42152804
0003f0 cc fb 64 bf d3 18 8f bf bd b2 d2 3f a8 ee 62 3e
       -0.8944671 -1.1179451 1.6460797 0.22161353

MIX_conc_core_f.CT_W_val f4 [48, 48]
000000 cb 1e 8c 3e f9 a0 99 be 45 88 84 3e 31 81 8d 3d
       0.27367243 -0.30005625 0.25885215 0.06909407
000010 b0 cc 97 3c eb 3d f6 be 95 2c eb bd 00 83 c1 3d
       0.01853022 -0.48094115 -0.11483113 0.094488144
000020 63 bb 0b 3f ae 33 2e 3e 19 55 92 be f4 bb 4c 3e
       0.54582804 0.17011902 -0.2858055 0.19993573
000030 23 4d 6c 3e 96 cc 10 bd 53 1e 09 be 1e 61 9c be
       0.230763 -0.03535136 -0.13390474 -0.30542845
000040 1e 8c 58 3d 16 38 9e 3e 0a 03 96 be 68 f8 b4 be
       0.052868 0.30902165 -0.29299194 -0.3534577
000050 7e 03 ec 3e 64 ea bc bd 36 ea 6f 3e c0 08 87 3e
       0.46096414 -0.09224394 0.23429188 0.26373863
000060 fa bf 68 bb f2 ed ea bc ff 15 41 3e 5d 4a 1e 3e
       -0.0035514818 -0.028677914 0.18856047 0.15458055
000070 a6 73 a2 bc 59 ac 1a be cc 9d 2a be 7f b2 93 3e
       -0.019830536 -0.15104808 -0.16661757 0.2884712
000080 61 35 38 3e f9 6f cf be 3c e0 cc bd 51 af b8 bb
       0.17989112 -0.40515116 -0.10003707 -0.0056361337
000090 9a 68 10 be 6b 68 89 be 72 1f f6 bc 9f 31 8d be
       -0.14102402 -0.26837477 -0.030044291 -0.2757692
0000a0 fe 17 98 3e 2d 15 4f be 43 8e 0b bf 81 8e a8 3c
       0.29705805 -0.20222922 -0.5451395 0.020575764
0000b0 42 ae 46 be 09 98 57 3e 35 f4 73 3e ac 02 48 3e
       -0.19402412 0.2105409 0.23823626 0.19532269
0000c0 ce e2 d1 3d eb 75 9d bd eb d9 ad be 71 66 ba be
       0.10248338 -0.07688507 -0.3395532 -0.36406282
0000d0 fe b1 a1 3e 56 0e 20 bd 98 2d 20 3e 12 c3 0a 3e
       0.3158111 -0.03907617 0.15642393 0.13550976
0000e0 3b ff de 3d 39 81 0f 3f bc bc 80 bd 0e 34 de 3e
       0.10888525 0.56056553 -0.06285998 0.4339909
0000f0 9a 62 2a bf 7c bd 82 3e b3 7c d0 bb 4c 56 bc 3c
       -0.66556704 0.2553519 -0.0063625216 0.022990368
000100 c1 12 38 3d 92 34 a4 bd 7c 3f 92 3a c3 69 ca be
       0.04493976 -0.080178395 0.0011157836 -0.39533815
000110 c6 c5 bb 3e e0 a2 0f 3f 71 45 98 3d 43 6a 8b be
       0.36674327 0.561079 0.0743512 -0.2722951
000120 d8 c2 e7 bd b8 b0 1e 3c fe fc 9f be 13 01 9f 3d
       -0.1131646 0.009685688 -0.31247705 0.07763877
000130 4c 90 31 bd 25 1b 40 be 58 f3 1b be c0 41 f8 3d
       -0.043350503 -0.18760355 -0.15229547 0.12121916
000140 d7 9a 45 3d d5 45 af 3e f4 cb 15 bc 0c de a5 3e
       0.04824337 0.34232965 -0.0091428645 0.3239597
000150 02 74 94 3e e7 c0 a1 be c4 58 0e bf c2 d9 16 bf
       0.28994757 -0.31592485 -0.55604196 -0.5892602
000160 bf ce 79 bd 88 d1 13 3f b0 98 22 3f 6a 13 cd 3e
       -0.060988184 0.57741594 0.6351423 0.40053874
000170 08 4e c9 3d fb 11 25 be 46 68 40 be b4 0c d3 3d
       0.098293364 -0.1612014 -0.18789777 0.10305157
000180 84 8f 84 3e d6 62 2f 3d e2 cf 9f 3d 1c 29 1e 3e
       0.25890744 0.042818867 0.078033224 0.1544537
000190 8b e0 6e be 10 13 da bd b4 5f 7f 3c 51 76 e0 bd
       -0.23327844 -0.10648167 0.015586782 -0.10960067
0001a0 82 c5 07 bc a3 9e 9e 3e b0 60 d3 bc cc 52 91 be
       -0.008286836 0.30980405 -0.02580294 -0.28383482
0001b0 61 7d 75 bd e8 ff 04 3e 79 0a 8f bd 2c b8 a6 3d
       -0.059934024 0.12988245 -0.069844194 0.08140597
0001c0 b0 41 5d bc 42 44 e9 bd 1d bd 93 3e 62 ed c6 bb
       -0.013504431 -0.11389972 0.2885522 -0.0060707787
0001d0 27 13 02 bf e5 fa 84 3e fe a3 32 3e f3 bb 2a 3e
       -0.50810474 0.25972667 0.1744537 0.1667326
0001e0 f4 ab 37 be 06 82 1d 3d a8 ae 98 bb 6d 8a d1 bd
       -0.17936689 0.03845408 -0.0046594925 -0.10231481
0001f0 56 8a 27 3e 22 e1 b4 3e 85 19 c1 bc 09 77 a8 3e
       0.16361365 0.35328013 -0.023571739 0.32903317
000200 45 2b af be 10 91 00 3e df a6 43 be 7c 5e d4 bd
       -0.342127 0.12555337 -0.19106625 -0.10369584
000210 0e 0b ce be e5 cc 0b be 52 0a 37 be a7 79 13 3e
       -0.4024281 -0.1365238 -0.1787503 0.14401875
000220 77 91 c8 bd b4 3b 89 be 0d de 2d be e9 43 95 3d
       -0.0979337 -0.26803362 -0.16979237 0.072883435
000230 d6 11 08 3f 2d 8b 1d bd 02 d5 01 3e d3 ff 61 bc
       0.53152215 -0.038462806 0.12678912 -0.013793903
000240 33 87 10 3f 3c bc b1 be 00 ec 0c bf f0 54 79 3e
       0.564563 -0.34713924 -0.5504761 0.24348807
000250 e9 ce d4 3e 2f be 68 be 28 9a 00 bd 20 88 ad bd
       0.4156411 -0.227288 -0.031397015 -0.084732294
000260 84 9e ac 3e 15 b0 0a 3e 54 3b af 3b c3 11 23 3d
       0.33714688 0.13543732 0.0053476486 0.03981186
000270 76 c5 08 bd ee 7d 1a bf f1 d4 c2 bd 05 5f 84 be
       -0.03339144 -0.60348403 -0.095132716 -0.25853744
000280 7a 6b 81 3d 39 33 06 3e 55 c9 1b bd 41 77 b3 bd
       0.06319328 0.13105477 -0.038033802 -0.0876298
000290 da 89 b4 be 63 12 a7 bd f8 9a 1b 3f 98 d7 56 bd
       -0.35261422 -0.08157804 0.6078334 -0.0524517
0002a0 f4 be f9 bd 24 48 32 be e9 6a 29 3e 4c a1 fb 3e
       -0.121946245 -0.17410332 0.16544689 0.49146497
0002b0 bf 2b 86 be a3 59 94 3c 78 6b 35 3e a5 b6 0b be
       -0.2620525 0.018109148 0.17716777 -0.13643892
0002c0 6f 8f d6 bd ce b0 16 3f ff 83 71 be f9 dc c8 3e
       -0.104765765 0.5886353 -0.23585509 0.3923109
0002d0 47 bb dd be 50 36 6d be e2 92 5f be ee 3c 70 3d
       -0.43306944 -0.2316525 -0.21833375 0.058651857
0002e0 2d 08 f5 bd 4c b6 29 bd e3 11 c0 be 81 2e 56 be
       -0.1196445 -0.041433617 -0.37513646 -0.20916177
0002f0 1a a4 d9 be 35 e5 df 3e 3d 58 b2 bc c5 12 07 3d
       -0.42508012 0.4372956 -0.02177059 0.032976884
000300 34 4f 2d 3e 54 0e 61 3e 03 c1 1e bf 7b d0 35 bc
       0.16924745 0.21978122 -0.6201326 -0.011097069
000310 9e a0 c5 be 8a f6 fa 3c 10 58 38 3e 0c 55 6a 3e
       -0.38599104 0.030635137 0.18002343 0.22884005
000320 0b 92 fa be 9b 46 bb 3e bd 99 54 3d f3 77 80 bc
       -0.48939547 0.36577305 0.05190443 -0.015682196
000330 ab c1 7d be bf d8 e4 be f7 32 f4 be dd a2 ef bd
       -0.2478091 -0.44696614 -0.47695133 -0.117009856
000340 62 40 05 3f c1 b7 a4 bd 2c f9 72 be 47 31 0d 3f
       0.52051365 -0.08042861 -0.23727864 0.55153316
000350 81 da a7 be 61 da f1 3d 1f 8f 8f be ff 3b 99 3d
       -0.32783893 0.118092306 -0.2803888 0.074821465
000360 bb 15 1f be d8 94 06 bf eb 37 bb be c1 7f 98 3d
       -0.15535633 -0.5257087 -0.365661 0.07446242
000370 a2 c4 aa bf f7 29 a1 3e a4 b8 a9 bc 65 fe 7f 3f
       -1.3341258 0.3147733 -0.020717926 0.9999755
000380 fe 3b af bd 59 f4 80 3c dc 8a b3 3e b7 bf 21 bd
       -0.085563645 0.015741514 0.3506688 -0.039489474
000390 0f ce d7 be 62 44 c6 bd 5b 6b 96 3e d7 a5 cd bc
       -0.42149398 -0.09681012 0.2937878 -0.025103493
0003a0 53 f2 8b 3e 54 fa 41 be 0e a6 73 3f 8a cf 9a 3e
       0.27333316 -0.18943149 0.95175254 0.30236465
0003b0 0d d1 2f be c3 a5 03 be 8b 12 f6 3d 2e 11 50 bb
       -0.1716959 -0.12856202 0.120152555 -0.003174852
0003c0 b8 50 0f 3d 37 01 1c bb dd 10 a0 3e c0 f6 06 be
       0.03498909 -0.0023804435 0.31262866 -0.13180065
0003d0 50 1f 95 3e 12 80 b7 be be 00 b3 3b 53 a2 c6 3c
       0.29125452 -0.35839897 0.005462735 0.024247324
0003e0 49 ca e3 3d 66 d5 95 3d c2 13 e6 3d ff cd b4 bd
       0.11122567 0.07316093 0.11234237 -0.08828353
0003f0 bc 13 44 3e 8b 0a 8e 3e ab d5 56 bd b2 bb ff be
       0.19148153 0.2774242 -0.052449863 -0.49947888

MIX_conc_core_f.CT_motivate_mlp.0.weight f4 [48, 96]
000000 ec 85 e2 3d 9e e1 0f bf cc 71 97 bd 67 ad b2 bf
       0.110607 -0.5620364 -0.07394752 -1.3959168
000010 d6 b4 3f bf 1a 80 7b 3d 57 64 b5 3f 94 0e 0a bf
       -0.7488531 0.061401464 1.4171246 -0.53928494
000020 97 8c b3 be 89 f4 ed be e3 c7 4d 3e 03 aa 85 bf
       -0.350682 -0.46475628 0.20095782 -1.0442508
000030 86 37 22 3e 6b 15 ea be 46 fe 91 bf 32 07 48 bf
       0.15841493 -0.45719466 -1.1405723 -0.7813598
000040 5c 9d b1 bf d8 12 bc be ef 8a 90 bf fb d3 84 bf
       -1.3876147 -0.36733127 -1.1292399 -1.0377191
000050 28 73 8f be ba ca a0 3e 5d e8 90 3e 85 0a a3 be
       -0.28017545 0.31404668 0.2830228 -0.31843963
000060 c0 c5 96 be 0e 5b 6f be ae 3c 50 3f 23 8d d4 3e
       -0.29447746 -0.23374578 0.8134259 0.4151393
000070 95 0f 72 3e 91 65 df 3e 54 10 b8 3e 06 e5 40 bf
       0.23638757 0.43632177 0.35949957 -0.7534946
000080 67 77 30 3e 71 7f 1f be 48 9f 14 bf 99 c3 6f bc
       0.17233048 -0.15575959 -0.58055544 -0.014634036
000090 25 c1 bf be 04 5b 33 3b e3 c2 83 bf 5b 0b 88 3f
       -0.37452045 0.0027367482 -1.029385 1.0628465
0000a0 5f d6 c7 3d a7 e2 e1 3e e2 62 ca 3f 1d 48 9c 3e
       0.09757685 0.44118235 1.5811427 0.30523768
0000b0 7e 5b 4b bf bf a2 c4 bf c1 58 ef 3e 3d d4 11 3f
       -0.7943648 -1.5362166 0.467474 0.56964475
0000c0 a9 0b 2c 3d cf 61 89 bd 15 64 66 be 99 be 96 3d
       0.042003307 -0.06708109 -0.22499116 0.07360572
0000d0 7b bd e6 3d 12 9c 2f be fe 7f 48 be 84 85 4e bb
       0.11266609 -0.1714938 -0.19580075 -0.0031512687
0000e0 a5 6b 97 3d 45 8e a4 3d 66 02 e6 bd 29 dc 46 bd
       0.073935784 0.08034948 -0.11230926 -0.048549805
0000f0 96 81 73 3e 38 7c f0 3e 9f e2 96 3d 35 ce 3f bd
       0.23779902 0.4696977 0.07367443 -0.046827514
000100 24 42 0f bc ed 82 32 be 8c 83 93 bd fa c4 8e be
       -0.0087437965 -0.17432757 -0.07202825 -0.27884656
000110 76 77 12 bf 27 0f 8f 3e 27 43 8a 3d 06 95 fe 3d
       -0.5721353 0.27941248 0.067510895 0.12430768
000120 67 15 ad 3d 23 ab dc 3c 26 6f 92 bc 3c 1c 56 bd
       0.08451348 0.026937073 -0.017875265 -0.05227302
000130 48 5d 91 3e 50 c9 18 3d 19 c8 d1 3d e4 8b 4e be
       0.2839148 0.03730136 0.10243244 -0.20170552
000140 01 de 87 be b8 3a 66 bd 86 f6 88 bc 41 eb 11 be
       -0.26536563 -0.056208342 -0.016719114 -0.14249898
000150 6a d7 69 be ed bb fe 3d 06 a4 22 be 8c cc cb 3e
       -0.2283608 0.12438188 -0.15882882 0.39804494
000160 88 1a 33 be 64 72 c0 3e b6 61 48 be ed 73 95 bd
       -0.1749059 0.37587273 -0.19568524 -0.07297502
000170 e2 80 3c bd a9 96 92 3e b1 52 67 3e 63 00 2a 3c
       -0.04602135 0.2863057 0.22590138 0.010376069
000180 bc 0a 54 3f 01 1a 1a 3f ca 48 5f bf 3b 40 1e bf
       0.8282888 0.6019593 -0.8722044 -0.6181676
000190 41 7a 07 3b dd 8c f1 be 62 58 3a 3e 8a 7c 13 40
       0.0020672234 -0.47177783 0.18197778 2.3044763
0001a0 e6 57 e4 bf 92 6e 1e c0 98 3c e3 3e bb 67 2e 3f
       -1.7839324 -2.4754987 0.44382167 0.6812703
0001b0 54 34 05 bf 46 7a bc bd c9 93 40 3f 45 7d 98 bf
       -0.5203297 -0.09203009 0.752255 -1.1913229
0001c0 3c 03 9b bd fc 97 de be d1 e7 2b 3f 21 be bc 3e
       -0.07568976 -0.4347533 0.671506 0.36863807
0001d0 d1 2b 1d 40 24 e0 04 3f ae 29 2e 3d e8 c5 db 3d
       2.4557993 0.5190451 0.042520218 0.10731107
0001e0 f1 7d b1 3f 0b 70 aa 3f 66 22 b8 40 b4 ec 0e be
       1.3866559 1.3315443 5.754199 -0.13957483
0001f0 4d 7a 03 3f ef 29 25 bf f0 d8 18 40 7b 0a 3d be
       0.5135849 -0.6451711 2.3882408 -0.18461029
000200 76 b9 cc 3f 6f e5 18 c0 cb d7 b2 3e 2c 6c 35 3f
       1.5994098 -2.3890035 0.34930262 0.7086818
000210 94 47 cd 3e bc a7 28 3d 6e 04 7b 3f 7b f4 cb 3f
       0.40093672 0.04117559 0.98053634 1.5933985
000220 de 58 5c bf 20 4a 47 3f 59 8d 30 3f 30 cb b4 be
       -0.860731 0.7784748 0.6896568 -0.3531127
000230 d2 5a 51 c0 14 a1 70 bf cb 14 2c c0 70 e3 41 3f
       -3.2711682 -0.93995786 -2.688769 0.7573767
000240 23 c3 06 bf e1 21 7d bd e9 0f 3c bf 95 13 a4 bf
       -0.52641505 -0.061799888 -0.73461777 -1.2818476
000250 6a ea 95 3f 8e 42 14 bd 23 22 89 3e 54 60 77 bd
       1.1712162 -0.036196284 0.26783857 -0.0603946
000260 06 09 07 3e 19 b6 c9 3e 42 b5 a0 3e 61 aa 81 3e
       0.13187036 0.39396742 0.3138829 0.253253
000270 2e 10 be 3d 9b e9 63 3f 1f 9d f4 3d 2d 50 53 bd
       0.0928043 0.8902833 0.11944031 -0.051590133
000280 17 c6 08 3d 0d 82 4f bf 1c 4e 43 3f be c0 2e 3e
       0.03339204 -0.81057817 0.7629106 0.17065713
000290 74 6e 52 bd 1c 14 1a 3c 8d 9a b1 be 51 ee c4 bd
       -0.051374868 0.0094042085 -0.34688225 -0.09615768
0002a0 5e 09 ad 3c b1 9e 4c 3d 23 06 88 be 64 8f 06 bf
       0.02112263 0.049956027 -0.26567182 -0.52562547
0002b0 1f 74 90 bf 88 e6 1b 3f 83 03 05 bf 31 26 e9 3f
       -1.1285437 0.6089864 -0.51958483 1.821478
0002c0 7e 9c bd 3e 55 00 eb 3e 5e f3 e2 be d6 4a 04 3e
       0.37033457 0.4589869 -0.443263 0.12919173
0002d0 b4 51 83 be 27 a3 2b 3f 61 52 ae bf 2d 34 4d be
       -0.25648272 0.67045826 -1.361889 -0.20039435
0002e0 cc 8e 81 bd 28 e0 13 3f 50 63 a8 3d 9f 4f 55 3f
       -0.063260645 0.5776391 0.08222067 0.8332462
0002f0 58 f8 20 3f 20 f7 35 bd 1b 4c 5e 3c ef db b4 3e
       0.6287894 -0.04442513 0.01356795 0.35324046
000300 dd c3 c8 be 43 96 9d 3e 43 e7 d0 be 60 c6 33 40
       -0.39211932 0.30778703 -0.4080144 2.8089828
000310 7a f7 6e 3f a8 7c 98 3f 79 ac c7 be f6 0f 53 3e
       0.9334637 1.1913042 -0.38998774 0.20611557
000320 b0 25 b6 bf ff 13 79 3f f1 eb ac be 8d 29 f0 be
       -1.4230251 0.97296137 -0.3377376 -0.469067
000330 5c 3f e6 3e 12 27 22 c0 9d a1 a8 3f 82 ff 8f bf
       0.44970214 -2.5336347 1.317432 -1.124985
000340 f9 b4 c2 3e cf 39 f1 3d 32 61 cc 3f 9f 56 53 c0
       0.38028696 0.11778604 1.5967162 -3.302162
000350 77 c9 45 bf 56 20 a1 bf 32 82 52 3e 6a c3 dd 3e
       -0.77260536 -1.2587993 0.20557478 0.43313152
000360 59 63 99 3f 92 53 0f bf d4 59 8c 3f 98 28 0c 3f
       1.1983443 -0.55986893 1.0964913 0.5474944
000370 cb 53 94 be f7 7b 3c 3f 27 e7 e7 3e 1c 1d 90 bf
       -0.2897018 0.73626655 0.45293543 -1.1258883
000380 24 11 aa be 96 96 eb 3d cd 6e 4c 3e 59 98 a6 be
       -0.33216202 0.11503331 0.19964142 -0.32538107
000390 0f d8 92 3f 23 e6 32 c0 6e 96 e7 be 30 c3 37 3e
       1.1472186 -2.7952964 -0.45231956 0.17945552
0003a0 cf 42 3d be f8 cf c7 3e 36 ff e9 3f f8 be 0b bf
       -0.18482517 0.39025855 1.8281009 -0.5458827
0003b0 30 d0 2e bd 00 9b c5 3f 1e fe 5f 3f 22 d5 06 3e
       -0.04267901 1.5437927 0.8749713 0.13167241
0003c0 1b 13 50 3e 32 85 40 be 09 a7 a4 3b c4 5b 26 3b
       0.20319788 -0.1880081 0.005024795 0.0025384286
0003d0 f2 3e 41 be 38 7a 00 3f 90 85 2d 3e a4 2a c1 3d
       -0.18871668 0.5018649 0.16945481 0.09431961
0003e0 79 18 13 3e cd d6 2c 3e a2 2a 0c bf 5e 25 cb bc
       0.14364804 0.16878815 -0.5475255 -0.024798092
0003f0 f9 f4 08 3f e2 e3 20 3f 60 f4 dd 3d 06 d0 61 3f
       0.534988 0.6284772 0.108376265 0.88208044

MIX_conc_core_f.CT_motivate_mlp.0.bias f4 [48]
000000 46 42 5d bd db 02 df bd 85 bf c5 be f0 03 aa be
       -0.05401828 -0.108892165 -0.3862268 -0.3320613
000010 0a 74 40 bf 54 03 52 bf 9f 56 a4 bf 6a b7 3d bf
       -0.7517706 -0.8203633 -1.2838935 -0.7410799
000020 b0 6b a2 bf 8c 17 02 c0 46 00 1c bd f0 bd 72 bf
       -1.2689114 -2.0326872 -0.0380862 -0.9482107
000030 a1 bf 2b bf 73 c6 89 be ad e9 2d bf db 45 35 bf
       -0.6708928 -0.26909217 -0.67934686 -0.70809716
000040 c8 df 84 be 61 40 b7 bd 26 a6 5a bf df 30 5a be
       -0.25951982 -0.08947826 -0.8540977 -0.21307705
000050 de 3a d8 be 7c ca e2 bd 6f a4 36 be 95 b6 96 bf
       -0.42232412 -0.11073777 -0.17836164 -1.177447
000060 df ba 43 3f e0 60 9a bd 03 ff 3c be 3e 51 7e be
       0.7645702 -0.07538009 -0.18456654 -0.24835679
000070 0b 3b 44 be 4e e6 64 be 3e 7e 0e be dd a7 15 3f
       -0.19163148 -0.2235348 -0.13915345 0.58459264
000080 a7 21 00 3e 6c 9d e4 be ab 9b 6e bf e4 ef 98 be
       0.12512837 -0.44651353 -0.9320628 -0.29870522
000090 2f 24 b4 bd 4e d3 13 3e 68 7c ec be 48 d8 c6 be
       -0.08795964 0.14436075 -0.46188664 -0.38836884
0000a0 8b 28 1a be 95 0d 92 3e 21 1f 34 bf d2 20 46 be
       -0.15054528 0.28525987 -0.7036 -0.19348457
0000b0 b3 72 34 3e e4 6f fe be 33 b7 e2 be e2 7f 9b bf
       0.1762188 -0.4969474 -0.44280395 -1.2148402
