ZHECKPOINT/basic-ma-40-demo/trained_model.pt (torch, 144087 bytes, 178 tensors)

_batch_norm.mean f4 [41]
00000000: 57ff 3f40 0000 0000 0000 0000 0000 0000
00000010: 0000 0000 0000 0000 0000 0000 0000 0000
00000020: 0000 0000 0000 0000 0000 0000 0000 0000
00000030: 0000 0000 0000 0000 0000 0000 0000 0000
00000040: 0000 0000 0000 0000 0000 0000 0000 0000
00000050: 0000 0000 0000 0000 0000 0000 0000 0000
00000060: 0000 0000 0000 0000 0000 0000 0000 0000
00000070: 0000 0000 0000 0000 0000 0000 0000 0000
00000080: 0000 0000 0000 0000 0000 0000 0000 0000
00000090: 0000 0000 0000 0000 0000 0000 0000 0000
000000a0: 0000 0000
2.9999597 0.0 0.0 0.0 0.0 0.0 0.0 0.0
0.0 0.0 0.0 0.0 0.0 0.0 0.0 0.0
0.0 0.0 0.0 0.0 0.0 0.0 0.0 0.0
0.0 0.0 0.0 0.0 0.0 0.0 0.0 0.0
0.0 0.0 0.0 0.0 0.0 0.0 0.0 0.0
0.0

_batch_norm.var f4 [41]
00000000: bf00 8040 0000 803f 0000 803f 0000 803f
00000010: 0000 803f 0000 803f 0000 803f 0000 803f
00000020: 0000 803f 0000 803f 0000 803f 0000 803f
00000030: 0000 803f 0000 803f 0000 803f 0000 803f
00000040: 0000 803f 0000 803f 0000 803f 0000 803f
00000050: 0000 803f 0000 803f 0000 803f 0000 803f
00000060: 0000 803f 0000 803f 0000 803f 0000 803f
00000070: 0000 803f 0000 803f 0000 803f 0000 803f
00000080: 0000 803f 0000 803f 0000 803f 0000 803f
00000090: 0000 803f 0000 803f 0000 803f 0000 803f
000000a0: 0000 803f
4.000091 1.0 1.0 1.0 1.0 1.0 1.0 1.0
1.0 1.0 1.0 1.0 1.0 1.0 1.0 1.0
1.0 1.0 1.0 1.0 1.0 1.0 1.0 1.0
1.0 1.0 1.0 1.0 1.0 1.0 1.0 1.0
1.0 1.0 1.0 1.0 1.0 1.0 1.0 1.0
1.0

AT_obs_encoder.0.weight f4 [8, 41]
00000000: 20c4 33bc b2ab 77be 1c5f 72be cf82 dc3d
00000010: 319c 31bd add1 58be 4c0b 07be 332d 42be
00000020: 6bf3 21be b75e 0abe c92f e5bc 83a0 d63c
00000030: 6421 d8bd 689e 653b 0f22 3c3d 3784 063e
00000040: 0c53 92bb d3ea 07be 51fb e0bd 50f5 18bd
00000050: 901c 033e 7908 18bd 7fc9 26bd 5944 e03d
00000060: c7f3 9e3e 066d 08be d0a9 e0bd 3195 71be
00000070: 1e1f 4c3e 3059 e2bc dd28 efbd 4cd6 3fbe
00000080: 6842 a9be 0106 8e3d 95fc c23d c7e5 c53d
00000090: bece d8bd be53 45bd 39da 7c3d 32c4 b2bd
000000a0: 92c0 41bb 9134 04bf 62f9 3a3c 5b75 c1bb
000000b0: 04b1 5ebc 3fc2 613c 6ef5 e4bc 0063 94bb
000000c0: 39f1 29bd 74fa 2dbd 4d19 acbb a38d 07bc
000000d0: ad44 52bd 4756 71bc 8c88 6ebc 4bfb 93bc
000000e0: e0a5 213c 83eb d4bc 687b 3a3b ba39 9e3c
000000f0: 0f05 61bb 3166 f7bc be20 deba 275a 33bd
00000100: 8ace 033b 998e 14bd bec9 36bd 43b6 b6bc
00000110: 06ea fdbc c8a7 9e3c 024c 743c fe2a 55bc
00000120: e8d5 93bc 23a7 0e3a 7b9e 5438 dea5 123c
00000130: 5f7b b73b 9a2c 123c 8905 10bc 7589 49bb
00000140: 5057 fe3b 9bd5 dbbc 3284 073f 8609 a43d
00000150: 4ba6 b8bb 45c9 ca3c 3bfd b83d 13e4 833d
00000160: 5b8a ad3d 12bc 953d 4eec abbd b8a5 393c
00000170: 0711 bc3d 56c4 893d 2b9f 123e 7090 c93c
00000180: e8c1 823d 4295 cb3d 4bfe 9c3d d272 a53d
00000190: e782 8f3c cb43 b73d e7d9 3b3e 15c2 183d
000001a0: e871 0b3e 37dc 6f3d 249c 3c3e 1305 9139
000001b0: 45da 873d 0536 bc3d f8ba af3c 3033 353e
000001c0: 6664 c43d 2c4c 0dbc 5294 5c3d cbdb 2b3d
000001d0: 29d7 c43b fdce 74bc 5c45 223c c524 afbb
000001e0: 73ad 01bd 5dc7 9d3d 033e b93d 3bd2 c9be
000001f0: acd3 abbd 131d a5bd 1117 f7ba a252 c7bd
00000200: 0b4e cb3a 4550 f8bd ba77 a0bd 8de1 023e
00000210: 59f2 41bd 1c90 03bc bf2f 043d 11c1 80bd
00000220: 6078 ba3b 6f78 dfbc b782 22be f801 843d
00000230: 4ccd a9bd b5d6 49be 05c8 36bd 7cae bf3d
00000240: 9ba5 f7bd c464 843d 5eeb cbbd e244 583e
00000250: 0a29 803c 239b e3bc 2bbe 033c c9dd 8bbd
00000260: 6b51 04be f341 9abd 75c3 4b3c 6923 dabd
00000270: ba1b 6fbd 497a 0dbe 0808 30be 222b a6bd
00000280: abd9 67bd f733 5ebe e6fb 2ebe 84f4 c8bd
00000290: 98c6 39be 8b2b 9e3d 3be3 233e 6d65 f43d
000002a0: 3ac2 633d f775 ab3c c24a 573d 340d 27be
000002b0: 2e1b 44be 916f fdbb 79fa 783d 55ce 36be
000002c0: b069 c03d 9719 233e 2b61 d73d 0d42 d93d
000002d0: 202e 423d dcdc 1fbd b7f4 cb3b e9a4 b0bc
000002e0: f37b 2abe 3d41 06be 0d48 613d 059f e33d
000002f0: c940 b1be 2cc6 c73c e786 5f3d 4697 3b3d
00000300: bf20 fc3d de1f 2b3d 41e6 673d c61e d63d
00000310: 2eda 08bd 4b0b c13d 2db4 903d 86e5 933d
00000320: 0591 5a3e 762e a8bc fecb a43d 1320 3b3d
00000330: 446f 57bc e38f 003f d5f0 593d c414 df3d
00000340: dfb2 753d e27e 18bb 54e5 563d ee38 a0bb
00000350: c84a 393d 8876 5d3e 295e 6f3d 08cf 7f3d
00000360: 883a 7c3d 9e45 3ebc c7d5 803d 9b30 333d
00000370: 11af 53bc feb0 d73c 3117 823d 5ad0 f83d
00000380: e316 3ebb efc3 85bd 096d 083e 8bf7 03bc
00000390: 12d4 593d 0c56 a1bd 95f7 e83d d304 323d
000003a0: 057a ae3c 4a83 523d 0dcb 94bd b82c 35bb
000003b0: 2cfa c13d 123a 433d 01f4 963d d075 dc3d
000003c0: 99f2 073e 10b5 6a3d 8a8a d83d 2fba 0f3e
000003d0: 7374 503d a401 96bc 6e6d 29be 75cf 25be
000003e0: 3a80 e2bd 05ef 8bbd 7086 433e 6297 72bd
000003f0: e388 efbd 2356 363d bbc2 493e f775 09be
-0.010972053 -0.2418659 -0.23669094 0.10767137 -0.043361846 -0.21173735 -0.13187903 -0.18962555
-0.15815513 -0.13512693 -0.027976887 0.026199585 -0.10553244 0.0035037044 0.04593092 0.13136373
-0.0044654664 -0.13273172 -0.10985435 -0.037343323 0.12803864 -0.037117455 -0.040719505 0.10950536
0.31045362 -0.13322839 -0.10969889 -0.23592068 0.19933745 -0.027630419 -0.11677716 -0.18734092
-0.33058476 0.06934739 0.095208324 0.09662967 -0.10586308 -0.048175566 0.06173155 -0.087288275
-0.0029564244 -0.5164271 0.011411997 -0.0059038824 -0.0135920085 0.013779222 -0.027949061 -0.0045284033
-0.041489813 -0.04247518 -0.0052520395 -0.008273515 -0.051335026 -0.014730043 -0.0145589225 -0.018064162
0.009866208 -0.025991207 0.0028454904 0.019314636 -0.003433529 -0.030200096 -0.0016947014 -0.043787148
0.002011212 -0.036268804 -0.04462599 -0.022303706 -0.03099538 0.019367114 0.0149107 -0.013010738
-0.018046334 0.00054417754 5.0692335e-05 0.008950679 0.005599424 0.008921767 -0.008790382 -0.0030752097
0.0077618733 -0.026835253 0.5293609 0.08009629 -0.005635058 0.024754176 0.09032675 0.06439986
0.08473655 0.07311262 -0.08394681 0.011331014 0.09182935 0.06726901 0.1431853 0.024605006
0.06384641 0.09940578 0.0766569 0.08078541 0.017518474 0.08948477 0.18344842 0.037294466
0.1361767 0.058559623 0.18418938 0.00027660336 0.066334285 0.09189991 0.021451458 0.17695308
0.09589462 -0.008624118 0.053852387 0.041957658 0.0060070944 -0.014941928 0.009904232 -0.0053449594
-0.031659555 0.07704041 0.09045031 -0.39418206 -0.083899826 -0.08062186 -0.0018851479 -0.09732558
0.001551093 -0.12124685 -0.07835336 0.12781353 -0.04735026 -0.008029964 0.032272097 -0.062868245
0.0056906193 -0.027279107 -0.15870176 0.06445688 -0.082911104 -0.1971081 -0.044624347 0.09359452
-0.120921336 0.06464532 -0.09957002 0.21120027 0.015644569 -0.027783936 0.008040945 -0.068294115
-0.12921683 -0.0753211 0.012436737 -0.10651285 -0.05837605 -0.1381618 -0.17190564 -0.08113696
-0.05660407 -0.2169951 -0.17088279 -0.09812263 -0.18142164 0.07723149 0.1600465 0.11933408
0.05560515 0.020930273 0.05256153 -0.1631363 -0.19150993 -0.007734247 0.060785744 -0.17852147
0.09395158 0.1592773 0.1051658 0.10608301 0.04740727 -0.039028987 0.0062242406 -0.02156301
-0.16648845 -0.13110824 0.055000354 0.11114315 -0.3461974 0.024386488 0.054572012 0.045798562
0.12310933 0.041778438 0.05661607 0.10455088 -0.033411197 0.09425982 0.07065616 0.072215125
0.21344383 -0.020529967 0.08046721 0.045684885 -0.013149086 0.50219554 0.05320819 0.108926326
0.059985038 -0.0023268987 0.052464798 -0.004889599 0.045237333 0.21627247 0.058439407 0.0624533
0.061579257 -0.011613278 0.06290775 0.043747526 -0.012920157 0.026329514 0.0635208 0.12149115
-0.002900534 -0.06531512 0.13322844 -0.008054624 0.05318076 -0.0787774 0.113753475 0.043461632
0.021298418 0.05139474 -0.07265291 -0.0027645063 0.094715446 0.047662802 0.07370759 0.107646585
0.13276137 0.05730158 0.10573299 0.14035867 0.050892305 -0.01831133 -0.1654565 -0.1619242
-0.110596135 -0.06832699 0.19094253 -0.0592264 -0.11696031 0.04451574 0.1970319 -0.13423906

AT_obs_encoder.0.bias f4 [8]
00000000: 2ad7 60be 9418 a4bc cbcf 753d cc5b 06bd
00000010: cf4d 933c bf2b 6c3d f9a8 6abd 4ff5 4ebe
-0.21957079 -0.020031251 0.06001262 -0.032802388 0.017981438 0.057658907 -0.05729005 -0.20210765

AT_obs_encoder.2.weight f4 [8, 8]
00000000: 1d59 04be f95e c83e 3499 16bf 750f d23e
00000010: c654 bfbe 2951 18bf f1db 423e 19f9 bbbc
00000020: 62db 1fbf 606c cb3e 78a9 ddbd 1983 8cbe
00000030: d06b 773c 9ce0 b33e fd28 cabe 34f1 a3bd
00000040: 736a babc e90c 0c3e 8f54 983e cb4b 0cbf
00000050: 3a5f 8dbd 9e7a ecbe e486 943e e650 6abd
00000060: 7303 053f ac74 2a3f 0aa4 313e 4a45 2bbe
00000070: 7881 36be 3796 a73d 6f66 41be d338 87be
00000080: cc50 383d e6ad 193d dc03 94be 7905 8ebe
00000090: 9696 7abe bb5e d53e b631 0e3f 62d1 753e
000000a0: 7035 d53d 900d bf38 a2e1 40be 6918 523e
000000b0: d5ff 913e 5deb 5a3e d8db 903e 8ad1 bebe
000000c0: 8cfc 8fbe e1ef 3a3e 5038 3d3f 0f2c f83e
000000d0: 0955 32be 6f2a e43e 6b6c 833e 5e9b 303e
000000e0: 84c9 053e 8546 f43e c788 25be a5c8 cd3d
000000f0: 9d6c 2c3f 160f 87bd 6745 003e a8a7 093f
-0.12924619 0.39134958 -0.5882752 0.41027418 -0.37369365 -0.5949884 0.19029213 -0.022945927
-0.62444127 0.3973112 -0.10823339 -0.2744377 0.015101388 0.351323 -0.39484397 -0.0800499
-0.022755837 0.136768 0.29752013 -0.5480315 -0.06902929 -0.461873 0.29009163 -0.057206057
0.5195839 0.6658428 0.17347732 -0.1672565 -0.17822826 0.08182948 -0.18886732 -0.2641054
0.04499893 0.037519358 -0.28909194 -0.2773855 -0.24471506 0.41673836 0.555446 0.24005654
0.10410583 9.110116e-05 -0.18836072 0.20517124 0.28515497 0.21378846 0.28292727 -0.3726924
-0.28122365 0.18255569 0.7391405 0.48471114 -0.17415251 0.44563624 0.25668654 0.17246768
0.13065153 0.47710052 -0.16165458 0.100480355 0.6735323 -0.06594674 0.12526475 0.5377145

AT_obs_encoder.2.bias f4 [8]
00000000: 96a1 9d3d 2705 10bd 27a0 723d c740 11be
00000010: d0b1 e93c 6a29 d8bd 2603 53be e6ca a33c
0.07696836 -0.035161164 0.059234764 -0.14184867 0.02852717 -0.10554774 -0.2060667 0.01999421

CT_get_value.0.weight f4 [8, 8]
00000000: b690 703f 5de4 07be 2a00 debe 749c ae3d
00000010: 2f3d 9abe c2dd 94be 0259 90bd 6e6c 193f
00000020: f684 fe3e c0ca 9f3e b6b1 ad3e 695f 0e3f
00000030: 6d14 0b3f bebc 52bf d4e0 e8be 04a4 b03d
00000040: cf85 d43f 4b9a 93bf 8686 b63d 0de8 86bf
00000050: 69b1 32be e6b5 26bf e92e 2dc0 726d 893d
00000060: 1fd8 4e3d 8f6f d7bf d842 59bf 9e70 c1bf
00000070: 0936 96be 90c2 d8bd fdc6 6ebe b830 8ebd
00000080: 4c30 6f3f e38e 5fbf 4f26 c9bf 3467 fc3d
00000090: 0fae 59bf 0851 c2bf 5a58 f73e 8a58 88bf
000000a0: d301 6b3f ed6d 2abe ea2f d0bc 0d1f 473e
000000b0: 9f15 923e d28d 87be 27f8 543d 54f2 a33e
000000c0: 0a3c 593f 5de2 203f 6084 1b3e c08a 493f
000000d0: bf9b c33d 470b dabe 71cb 1dbc d38a 603f
000000e0: fa53 b3be 5fa1 c23e 3c56 603f 1644 a4be
000000f0: 5b33 ae3c 5404 04bf 6b08 99bf 335a 123e
0.9397081 -0.13270707 -0.433595 0.08525935 -0.30124804 -0.29075438 -0.07048227 0.59931076
0.49710816 0.31209373 0.33924645 0.55614334 0.5432804 -0.8231925 -0.4548403 0.086250335
1.6603335 -1.1531461 0.08912377 -1.0539566 -0.17450489 -0.65121305 -2.7059882 0.06710328
0.050499078 -1.683092 -0.8486762 -1.5112493 -0.293381 -0.10583985 -0.23318096 -0.06942886
0.9343307 -0.873274 -1.5714816 0.12324372 -0.8503122 -1.5180979 0.48309594 -1.065202
0.9179966 -0.16643496 -0.025413472 0.19445439 0.2853212 -0.26475388 0.05199447 0.3202082
0.8485724 0.628454 0.15187216 0.7872734 0.095511906 -0.4258673 -0.009631024 0.8771183
-0.35025007 0.3801374 0.87631583 -0.32083195 0.021264723 -0.51569104 -1.1955694 0.14292221

CT_get_value.0.bias f4 [8]
00000000: b301 a43f 9fb4 273f 5dbe 4bbe 2895 c23c
00000010: c427 00bd 34bb 583f 7d20 6e3f ee0d 283c
1.2813019 0.6550998 -0.19896837 0.023752764 -0.031287923 0.8466065 0.93018323 0.010257227

CT_get_value.2.weight f4 [1, 8]
00000000: 7fb5 973f c430 e53e da94 c7be 2a9c 0f3e
00000010: 9ba3 00bf 727f 113f 7c07 903f 59c3 043e
1.1852263 0.44763768 -0.38980752 0.14024416 -0.5024964 0.5683509 1.1252284 0.12965144

CT_get_threat.0.weight f4 [8, 8]
00000000: d0ed af3d 1107 6c3d e3ba 0f3f 6f58 183f
00000010: fc55 a7be 427a c8be 9f1a 413e 016e 1f3e
00000020: f4c6 ad3e 00c0 a5be 9fef 003e 896e 13bf
00000030: 00da 05bf ba32 7dbe 5c54 5fbe bcdf 653e
00000040: e1ec 0d3f c305 ed3e 04ec 0ebe 98e2 87bd
00000050: b749 9fbe e4e1 9c3e 8090 f53e 921a 3cbe
00000060: cf90 5fbe feba 7ebe 6899 f83e f6bb bbbd
00000070: c24f 68be 62fe c33e b609 dcbc f843 2bbf
00000080: 83fa 10bf 8f46 e43e 78d2 e33d 82e4 eabe
00000090: becc c8bd a2e6 b5be 6e5c b23e 8c42 afbc
000000a0: 698c 1ebd dfbd f2be 4c55 3f3e ca08 0cbe
000000b0: 69e4 693e e5f5 883e 814f 2a3f b9c9 c83e
000000c0: 0748 833e 3a94 a3be efcf 40be 68c7 b9bc
000000d0: f6d7 883e 98c1 16bf b35f 983e 9ab8 09bf
000000e0: 58ba bbbe c6a5 99be a045 13bf b817 893e
000000f0: 97e7 14bf 58dc bf3c cfb4 3b3e 463c a1bc
0.08590281 0.057623927 0.5614454 0.5950994 -0.32682788 -0.39155775 0.18857811 0.15569307
0.33940852 -0.32373047 0.12591408 -0.5759054 -0.52285767 -0.24726382 -0.21809524 0.22448629
0.55439574 0.46293458 -0.1395722 -0.06635016 -0.31110927 0.3064109 0.47961807 -0.18369511
-0.21832584 -0.2487602 0.4855454 -0.0916671 -0.22686675 0.38280016 -0.0268601 -0.6690059
-0.5663225 0.44585082 0.11124128 -0.45877463 -0.098046765 -0.3552752 0.34836143 -0.021394037
-0.038708124 -0.47410485 0.18684882 -0.13675228 0.22841038 0.26750103 0.66527563 0.39216402
0.2564089 -0.31949025 -0.1882932 -0.022678092 0.26727265 -0.5888915 0.29760513 -0.53797305
-0.36665606 -0.30009288 -0.57528114 0.26775908 -0.5816588 0.023420498 0.18330692 -0.01968206

CT_get_threat.0.bias f4 [8]
00000000: ebd3 0fbb c274 77bc 70d4 adbb e12f 7cbb
00000010: e2b6 a33c ae11 be3a 6225 9b3c 779a 91bc
-0.0021946381 -0.015103521 -0.0053048655 -0.0038480686 0.019984666 0.0014501119 0.018938724 -0.01777385

CT_get_threat.2.weight f4 [1, 8]
00000000: 5462 09bf 879a 00bd cb15 f03e 4f0c 1a3e
00000010: 63cc f13c 3fd8 2bbf f4e8 963d 8a8e dc3d
-0.5366566 -0.03139737 0.46891627 0.15043758 0.029516404 -0.6712684 0.07368651 0.10769375

AT_get_logit_db.0.weight f4 [8, 8]
00000000: 46bf 84bf 6db2 453e b92d f43e c7c6 963e
00000010: 79f2 973e 6fb3 03bd baaa 073f a72d c3bd
00000020: 31f3 c83e 1389 0abf 542e 543f 8a4e af3e
00000030: 4702 e2bc 348f 223f c907 473d 5466 883e
00000040: bcaa 1b3f ffd1 323e ba79 ca3e b963 f7be
00000050: 7084 98bd 984e 2e3e 1539 febe e29a 313f
00000060: 8a9a a13d da0e 5a3d e25e f73d c0d1 123f
00000070: 69e2 033f af39 053f bb95 7d3e 91b6 453f
00000080: ffec 88bf b064 143f 1190 a53d 8c9f 0bbe
00000090: 7512 0d3d 2898 933e 091f 6f3f 0d11 ddbe
000000a0: 5eac a4bd 3fcd 0bbf c0e0 9e3d 1e92 33bf
000000b0: 897d 66be b01a 523e 8474 8ebf 489a f1bd
000000c0: e42f ab3d 0f45 d6be 367a 943e b45a 23bf
000000d0: 8a47 033f 02f2 95be d30b 4ebe f122 83bd
000000e0: 90af e03e aae4 963e d895 803e ad2d 5d3e
000000f0: e4b9 983e ed47 59be 9956 8bbe d484 13bf
-1.0370872 0.19306345 0.47691134 0.2944853 0.2967718 -0.032153543 0.52994883 -0.09530192
0.3924804 -0.5411541 0.8288319 0.34239608 -0.027588977 0.6349976 0.04859141 0.2664057
0.60807395 0.1746292 0.39545995 -0.4831827 -0.074471354 0.17022169 -0.49652925 0.6937696
0.07890804 0.05323682 0.12078644 0.57351303 0.5151735 0.52041143 0.24764149 0.772317
-1.0697325 0.57966137 0.08084119 -0.13635081 0.03444143 0.28827024 0.9340673 -0.4317707
-0.08040689 -0.54610056 0.077577114 -0.7014483 -0.22508825 0.20517993 -1.1129308 -0.11797005
0.08358744 -0.41849563 0.2899949 -0.63810277 0.51281035 -0.292862 -0.20121698 -0.06403149
0.43883944 0.29471332 0.25114322 0.21599455 0.29829323 -0.21218844 -0.27214506 -0.57624555

AT_get_logit_db.0.bias f4 [8]
00000000: 0de4 503e b27d e63d d2f2 603e de37 153e
00000010: f1eb 293e ade6 0f3f 0fde d33e eb86 df3e
0.20399494 0.11254443 0.21967629 0.14572093 0.16593911 0.5621136 0.41380355 0.43657622

AT_get_logit_db.2.weight f4 [8, 8]
00000000: f08b 34bf 4fae fd3c 2058 bc3e d7cf b33e
00000010: 1b58 46bf 953a 473e d55e 873e ddfe 363f
00000020: 3694 64bf 9d4a 773f 2a4c ce3e bb3d b23e
00000030: 5ad7 7cbf f4fd f5be ba52 19be 9653 17bf
00000040: 1759 2dbe 9b27 0f3f e974 93be 103e 763e
00000050: 7b6a 00be 59d3 a63f 6e51 c63e 333a 5c3f
00000060: 159a d4be 5279 943e 7438 593f d60a 14bf
00000070: 2319 6abf ad90 513f 7905 fb3d 37d9 423f
00000080: 64ce 06be f11d 783c 5f3e e63e 7590 1b3f
00000090: ab0e 6cbf 721d e03e c754 e7be 6e36 2d3e
000000a0: 46a4 b2be f1ee 5cbe 0b59 f6be ac43 01bf
000000b0: f1d1 8dbe a41e eb3d 84c3 c3be f226 a9be
000000c0: 35c8 79bf 0a80 663e 13ba 163f a3e3 b03e
000000d0: 860b 003e 2360 dfbc a636 c6be 4623 c63d
000000e0: f6e2 3abe 10f3 b7be a86e 573e b385 a8bd
000000f0: 3b78 20be 20d8 a23f c158 7f3f ffcd 6b3e
-0.7052603 0.030966906 0.36785984 0.35119507 -0.7747819 0.19455941 0.2643954 0.7148264
-0.8928865 0.96598226 0.40292484 0.34812722 -0.987661 -0.48045313 -0.14972964 -0.59111917
-0.16928516 0.5591981 -0.28800133 0.24047112 -0.12540619 1.3033248 0.38734 0.86026305
-0.41523805 0.2899881 0.84851766 -0.57829034 -0.91444606 0.8186138 0.12256903 0.76112694
-0.1316467 0.015143857 0.4496946 0.607673 -0.9220988 0.43772465 -0.45181867 0.16915295
-0.34890956 -0.21575524 -0.4811481 -0.50493884 -0.27699235 0.114804536 -0.38235104 -0.33037525
-0.97571117 0.2250978 0.58877677 0.34548673 0.12504396 -0.027267521 -0.38713568 0.096746966
-0.18250641 -0.3592763 0.21038306 -0.08228626 -0.15670864 1.2722206 0.997448 0.230278

AT_get_logit_db.2.bias f4 [8]
00000000: 977a 853e 8e69 033d 49cc ea3e 194e 7b3e
00000010: fa48 183e 3400 94bc d2d1 c93d 550e 0a3f
0.2607009 0.032083087 0.45858982 0.2454151 0.14871588 -0.018066503 0.09854473 0.5392812

AT_get_logit_db.4.weight f4 [8, 8]
00000000: 805e f63e c058 fd3e 9467 88bf fb4e 493f
00000010: 02cf 2dbe a7e0 9f3e 28a4 a13e 5c69 07bf
00000020: 4b84 433f 119a 3b3e d6e7 173e 6013 233f
00000030: 6a03 683f 25c1 8dbd 74dc 78be 2b02 c53e
00000040: 1caa 63bd 6c1f 213f 24ea 34bf 6705 62bf
00000050: bef4 d23d 7ef3 2a3f ffc3 283e 47a0 2dbf
00000060: 105e 643e e5f6 a7be e223 113f 5206 213f
00000070: 6756 65bd eec6 173f 4bae 13be d630 9bbe
00000080: 3943 71bf c84a 80be 1739 d63e 3455 27be
00000090: 25b7 07bf 8edf 00be fded 42bf 1131 953f
000000a0: 2b46 8bbe 1d2d 30bf 8136 e2be adec 083f
000000b0: eae8 f23e 6cab 1f3e bcb8 37bf 39c9 f4be
000000c0: 1be8 e93d 38dd 483f cbfa 92be ba83 41be
000000d0: 055d f2bd 1469 6dbe 4456 acbe 7a14 8dbf
000000e0: 82ee 923e f4d0 3dbf 945c 593d 3247 c8be
000000f0: f290 c8be 5a62 a33d 77ee 42bf 1b64 183f
0.48118973 0.49481773 -1.065661 0.7863614 -0.16973498 0.31226084 0.31570554 -0.5289514
0.7637374 0.1832049 0.14834532 0.6370144 0.9063021 -0.06921605 -0.24302846 0.38478217
-0.05558215 0.6293857 -0.7066977 -0.88289493 0.10300587 0.6677779 0.16481017 -0.6782269
0.22301507 -0.32805553 0.5669538 0.6290027 -0.055990603 0.5928792 -0.14421956 -0.30310696
-0.942432 -0.25057054 0.4184043 -0.16341096 -0.5301383 -0.1258528 -0.7614439 1.1655599
-0.2720197 -0.6881884 -0.44182208 0.5348614 0.47443324 0.15592736 -0.7176626 -0.4780977
0.11421224 0.78462553 -0.28706965 -0.18897906 -0.11834148 -0.23184615 -0.33659565 -1.1021874
0.28697592 -0.7414696 0.053066805 -0.39116818 -0.39173084 0.079777434 -0.7614512 0.5952775

AT_get_logit_db.4.bias f4 [8]
00000000: 36b4 fc3d 426c 453e 62b3 b23e 59ca 0a3e
00000010: af9d e1be 1cb4 9dbd 4a2c 0a3f bc68 25bf
0.1233906 0.19279578 0.34902483 0.13553752 -0.44065616 -0.07700369 0.5397383 -0.64612937

AT_div_tree.nets.0.0.weight f4 [8, 48]
00000000: 5c90 cb3c 67d7 ef3e 6a8c 71bf 7c90 a53e
00000010: 44a2 593f 83e5 603f 7ac2 5fbf eaa9 bd3f
00000020: de3b 34bc 16ea 29bd b33a 4dbf b543 9fbd
00000030: f1cf 6cbe 20db efbd ced6 b4be bc39 aabd
00000040: 7176 9fbe b5be b0bc 546c 3fbe e1d3 f5bd
00000050: f493 dc3c 4f74 d4bd 77e9 f9bd 5bd9 0dbe
00000060: da18 debd ea9b 7ebe f2da 2bbe 77c0 03bc
00000070: 99e3 3bbe 4177 53be 29bd 12be 9d58 9e3c
00000080: 488f 8dbe 5119 3ebe f735 0fbd 6884 8dbd
00000090: e31e 59be b9be 75be 1436 08be 27eb 47be
000000a0: 295b 94be 1028 81be f45f 0f3e 8546 f4bd
000000b0: 665b 0cbd d292 1dbe 6614 863c 574d c9bd
000000c0: 3259 fe3e 8d9c 093f 6346 4fbf 8321 0a3f
000000d0: 43fe 27be f2f8 713e 3eb8 2dbf 0468 1cbd
000000e0: 5be3 08bd d88f d23d 8b13 09bf 36b0 0fbe
000000f0: d833 f5bd 6818 18b9 66b3 dd3d c529 4e3e
00000100: fb7a 55bd cd8a d4bd b4b0 21bc cbd7 9abd
00000110: 9729 a13d d1fa 8a3d efdc 00be 0efd e8bd
00000120: 622b 2a3b a1cf 2cbd 5e45 56bd 0753 f0bd
00000130: f89c 7c3d 5479 c53d 0ee0 2dbe 2469 243d
00000140: 6dad 19bd d135 973c 5669 91be 2e54 dcbc
00000150: 4119 ef3d 53b1 543d d4f0 89bd ad1b 753d
00000160: 81eb 9bbd 30c4 d83d d78d 6b3d 88a8 863c
00000170: 9272 19be 5118 87bd b2cd 45bd e48d 2bbe
00000180: bad3 a7bf 94e3 53bf c51b 15be 6f54 a2be
00000190: 7407 bd3f cbab 73be a1d0 84be 8c4e ee3f
000001a0: 730b febc 8e75 2abe b6dc 673e 62b0 7b3e
000001b0: 7385 1fbd 4a95 44bd 0e53 11be 76b0 63be
000001c0: 13e6 f0bc 9e31 d1bd 67ff 90bc 48d0 363d
000001d0: 13e1 2bbd 5881 f5bd df50 d6bc 3be4 a0bc
000001e0: 97e7 efbb 302c b2bd 0a55 57be 09be 2ebe
000001f0: 0ce4 15be edfa 76bd d9dd 973d 9ed8 623e
00000200: 3314 41bc b479 28be 834a 9a3d 674e 773e
00000210: 2680 c13d cabe e1bc 52c6 2abd daeb b1bd
00000220: c719 37be 6a07 e23c b665 aebc b571 ee3d
00000230: db39 abbd 6742 afbd 2646 c1bd b514 c83c
00000240: bf5b 873f 9a0e 213f ade0 44be 0768 e93e
00000250: 94ca 6abf c470 c5bd 1c50 f33c cb1f 58bf
00000260: 6233 8c3d a62f 3e3e e6a1 8a3f 2ac7 ee3d
00000270: 56af 913d 7aa7 093c 7d8d 1c3d 8929 0cbe
00000280: c489 ddbc db75 5f3d a082 af3d 280a ca3d
00000290: c8e0 8e3e 72a2 df3d 7bda ef3d 383d 853e
000002a0: e69e 713d 4e6c 45be 33c9 483e 7f97 553d
000002b0: 9f34 c53d 43fb ed3d 1797 113e 144a c23c
000002c0: a4a9 1fbe 477f fa3d 2c98 3c3c 8d23 ec3c
000002d0: ebf6 febd 6bfe 5e3c 5ead 063e d63c 8f3d
000002e0: 6bc0 083c 29e6 923d 19cd 62be 75f3 053e
000002f0: 8771 713d 26d7 a23e 7b74 993e a86d 36bd
00000300: 5c39 94bf 7e38 ec3d 06bc 2cbf e815 2c3e
00000310: ea6c 393f 4f71 51be 9554 d9be 0214 933e
00000320: 25f8 fcbd ea69 823d 2be9 c33f ce57 ef3e
00000330: f5bd 453e f2ee 55bd 4b1f 92be 7c84 073e
00000340: 96f4 903d 11a5 08bd 69fc 57bd 52e9 093e
00000350: 5b09 ddbd 0f8b 773d c77f c3bd 0963 43bc
00000360: c329 f7bc a087 363d e2f2 8f3d f092 843d
00000370: 848a 323e b7d1 6e3e 22e1 653d 2385 973e
00000380: 7a84 13bd db42 29bd f67e c3bd 2b11 9a3d
00000390: 4a56 2c3e 0904 1c3e 6308 91bb 0650 d63c
000003a0: cd11 ddbb 72b3 3f3c 5403 60bd 8f97 dabc
000003b0: 1bf7 0f3d 044e 83bd 0c43 edbb 1e35 f0bd
000003c0: 81ed 33bf 5d42 7e3e ccbe 3abf f4d8 c23e
000003d0: 9a8f 503d 1ff3 84be 1b5b 61bf 1584 063e
000003e0: 43e5 04bb d18e 6ebd 1aa3 bfbe 2fcf 51be
000003f0: 2dcc ba3d 0a25 61be d927 15be 69ed 453e
0.02484911 0.46844026 -0.9435488 0.32336795 0.8501322 0.8785021 -0.8740612 1.4817479
-0.011000602 -0.041483007 -0.8016769 -0.07776586 -0.23126198 -0.11711717 -0.35320133 -0.08311793
-0.3114505 -0.021575311 -0.18693668 -0.12003303 0.026926018 -0.103737466 -0.12202733 -0.13852446
-0.10844584 -0.24864164 -0.1678274 -0.008041493 -0.1834854 -0.2065096 -0.14329971 0.019329363
-0.27648377 -0.18564345 -0.034963574 -0.0691002 -0.21203189 -0.23998536 -0.13301879 -0.19523297
-0.289758 -0.25225878 0.14001447 -0.11927513 -0.03426685 -0.15388039 0.016367149 -0.098292045
0.49677426 0.537545 -0.80966777 0.53957385 -0.16405587 0.23630121 -0.67859256 -0.038185135
-0.033419948 0.10281342 -0.53545445 -0.14032063 -0.11972779 -0.00014504942 0.10825233 0.20133121
-0.052119236 -0.10378037 -0.009868789 -0.075606905 0.07869261 0.06786121 -0.1258428 -0.11376391
0.00259658 -0.042190198 -0.052312247 -0.11734586 0.061673135 0.09642282 -0.16980001 0.040139332
-0.037518907 0.018458279 -0.28400677 -0.026895609 0.11674739 0.051926922 -0.067353874 0.059840847
-0.07613278 0.10584295 0.057508316 0.016437784 -0.14985111 -0.06596435 -0.04829187 -0.16753346
-1.3111489 -0.8276913 -0.14561374 -0.31705043 1.47679 -0.23796003 -0.2594042 1.8617721
-0.031011319 -0.16646406 0.22642788 0.24579003 -0.038945626 -0.047993936 -0.14191839 -0.22235283
-0.029406583 -0.10214542 -0.01769991 0.044632226 -0.041962694 -0.11987561 -0.02616161 -0.019640079
-0.007321309 -0.08699834 -0.21028534 -0.1706468 -0.14637774 -0.060297895 0.07415361 0.22152945
-0.011784601 -0.16452676 0.07533743 0.24151002 0.094482705 -0.027556796 -0.04169304 -0.08687563
-0.17880927 0.027591426 -0.021288734 0.11642782 -0.083606444 -0.08557587 -0.09437208 0.024423936
1.0574874 0.62912905 -0.19226332 0.4558718 -0.9171536 -0.09640649 0.029701285 -0.8442351
0.06845738 0.18572864 1.0830657 0.11659081 0.07113521 0.008401746 0.03822087 -0.1368772
-0.02704323 0.054555755 0.085698366 0.098652184 0.2790587 0.10919656 0.11711594 0.2602327
0.058989428 -0.19279596 0.19608001 0.05214643 0.09629177 0.1162019 0.14217792 0.023716964
-0.15592057 0.122313075 0.01151089 0.028825546 -0.124494396 0.013610463 0.13152072 0.069940254
0.008346657 0.07172806 -0.22148551 0.13081153 0.05894616 0.3180477 0.2997168 -0.04453817
-1.1580005 0.115342125 -0.674744 0.16805232 0.72431815 -0.2045338 -0.42447343 0.28726202
-0.12352017 0.06367858 1.5305532 0.46746677 0.19310744 -0.05222983 -0.285395 0.13234133
0.07077901 -0.033360545 -0.05273095 0.13467911 -0.107928 0.06043535 -0.09545856 -0.011925467
-0.03017128 0.044562936 0.07028748 0.064733386 0.17435652 0.23322187 0.056122907 0.29593763
-0.03601501 -0.041323524 -0.095457 0.07522806 0.16829792 0.15235914 -0.0044260486 0.026161205
-0.006746507 0.011700498 -0.054690674 -0.026683597 0.035147768 -0.06411365 -0.0072406586 -0.11728881
-0.7028428 0.24830003 -0.7294738 0.38056147 0.0509182 -0.25966737 -0.8802964 0.13136323
-0.0020278252 -0.05824167 -0.37429124 -0.2048919 0.09120975 -0.21986786 -0.14565982 0.19328846

AT_div_tree.nets.0.0.bias f4 [8]
00000000: f931 8ebf d3eb d3be cab8 00be ffe5 d23e
00000010: 5c5c 013f 7363 bcbe 76f8 5b3e 622a d93e
-1.1109 -0.41390857 -0.12570491 0.41191098 0.50531554 -0.36794624 0.21481499 0.42415148

AT_div_tree.nets.0.2.weight f4 [10, 8]
00000000: caf8 be3c c4d4 e03d 00b5 3b3e c639 053f
00000010: 0f93 59bf 8ab8 123d 61e1 e13e 038c 7a3f
00000020: ba36 763e c9d3 03bf ddb1 44bf 6c52 ea3e
00000030: 9770 6b3f ab74 5cbf 5d6d 3cbf 22de b6bf
00000040: 1154 7c3d 1c95 81bd ce1f 71bd e0e8 d3bd
00000050: ce3c 3abe 2d84 02bd 7eb6 84bd bd70 46bd
00000060: 1389 643e 3da9 0ebc 8c4a f33c 2bf3 9ebd
00000070: 6027 663b e72a 1e3c 99e7 893b cf59 a73d
00000080: a7dd c33d ce92 72bd 6df8 2f3e 9ee3 6abe
00000090: 76a5 dabd edf0 9bbd 0d82 acbd 9136 24bd
000000a0: 49af 9abf 68d8 f33e 1e3d e5bd 3a38 343f
000000b0: 1a09 35be 6c59 b23e f79c 4a3f 3eb0 8fbf
000000c0: dc0a aa3e 4b7e 843e 7184 b9bf bdcc a4be
000000d0: 03b1 453e 9212 d73e 10a1 b43e 2eba 723d
000000e0: 030c 4c3f c47c 9f3e f368 443e df62 62bf
000000f0: e0f4 c13d ed46 9e3c 9d13 54bf 3a7d dc3e
00000100: 9a69 cdbe cc21 18bf 7e44 7b3f 909e 27bf
00000110: 2bbc c23e 8566 ae3d a1e4 dcbe ed23 bf3e
00000120: 0b03 c5be 3d3a 88be cf68 923e 0cfd 6ebe
00000130: 6525 7cbd 337f 5dbd 00ab b1bc 1309 dd3d
0.023311991 0.10978082 0.18330765 0.5204128 -0.8499002 0.03582052 0.44117263 0.9786989
0.24044314 -0.51495034 -0.768339 0.45766008 0.91968673 -0.8611552 -0.73604375 -1.428654
0.06160361 -0.063272685 -0.058868222 -0.10347152 -0.18187258 -0.031864334 -0.0648012 -0.04844736
0.22317915 -0.008707342 0.029698633 -0.07761224 0.0035118684 0.009653783 0.004208517 0.081714265
0.09563761 -0.059222035 0.1718461 -0.22938392 -0.106760904 -0.07614312 -0.08423243 -0.0400911
-1.2084743 0.47626042 -0.11193298 0.70398295 -0.17679253 0.34833848 0.7914576 -1.122566
0.3321141 0.25877604 -1.4493543 -0.32187453 0.19305806 0.42006356 0.3527913 0.059259586
0.7970583 0.31149876 0.1918066 -0.88432115 0.09470534 0.01932093 -0.8284243 0.4306429
-0.4011963 -0.5942657 0.98151386 -0.6547632 0.38034186 0.08515648 -0.4314318 0.37332097
-0.38478884 -0.26606932 0.28595588 -0.23338717 -0.0615591 -0.054076385 -0.021687984 0.107927464

AT_div_tree.nets.0.2.bias f4 [10]
00000000: ad66 9b3e beba f73f 2f95 96be 14a6 a4be
00000010: e1a9 dcbe 5e95 5fbe d111 00bf 3946 55bf
00000020: b31e 0fbe ba92 e1be
0.30351773 1.9353864 -0.29410693 -0.32157958 -0.43098357 -0.21834323 -0.50027186 -0.83310276
-0.13976555 -0.44057256

AT_div_tree.nets.1.0.weight f4 [8, 48]
00000000: ed97 253e f742 e73e a530 71bf 9e88 a23e
00000010: 13fe 3c3f d1cc 643f 970b 5dbf 96d4 ae3f
00000020: fc74 97be 406b 8a3c 8cae 3abd 873e 1fbe
00000030: a9f9 8fbe 7a72 53be 4841 18bd e064 8fbd
00000040: 149e 89be 6d80 5abd 2dbb 80be a521 21be
00000050: 119a 513d 3ae7 62be adf7 bebd 67ae 75be
00000060: 9189 b9bd 4192 a6be cc1e 34be d01a 14bd
00000070: f488 04bf da1c c5bd 103a 3fbe 191c 033e
00000080: 8d0b 23be d43e 91be a847 1bbd b863 55be
00000090: 51cc 22be 18be 5fbe 5310 d7bd 0241 7fbe
000000a0: 7fc4 50be c5bc 3fbe 4876 47bd 457d 3bbf
000000b0: a86e a7bb 19c6 cebd 74c1 113d 52f3 3ebe
000000c0: b319 073f 95c8 213f d3ca 61bf 52d9 213f
000000d0: 8d25 65be 437a d73e 3474 33bf 7403 adbd
000000e0: 45c3 80be da30 133e e8ad 9a3d 93cc 0e3e
000000f0: 9f6a 1dbe d2b3 963d 39d2 593d 2da6 223e
00000100: 1188 95bd f256 5bbd 4e30 e43a 1543 b0bd
00000110: c7cb 15be 0477 0abe dc87 24be 4f51 cdbd
00000120: 13f9 6fbd 0d85 61bd ce44 13be 3cb8 edbd
00000130: 5c61 19be 3475 b33d 79b7 15be e06b aa3d
00000140: 83e2 56bd 5245 49bd ce89 98be 3d95 f4bc
00000150: f744 973d d085 303d 6c3f c1bd aa87 a13d
00000160: 1961 8bbd 99a7 da3d 39f1 b8bc 346d 23bf
00000170: 2ed3 2dbe acd7 5dbd 9b3c e9bd 51bc ebbd
00000180: a9f0 abbf 796c 62bf 3343 5abe 5a36 b7be
00000190: 7ab8 bb3f 5b5e a9be 4e79 bdbe d902 f23f
000001a0: 6f09 5d3e f090 91bd ead3 96bd ac89 e23d
000001b0: e8f5 a1bb f59e 91bd 2ff2 78be 1853 5bbe
000001c0: 0e68 82bd 7524 3fbd e9e3 5bbd 190b c0bc
000001d0: 470f 8a3e 4bc9 d43c 8047 87bd 1681 853d
000001e0: 8ae4 4d39 a0c7 e2bd f5d6 20bd 3dbe 58be
000001f0: 378a 9fbd 4485 29bd c50d 513c 7e61 99bd
00000200: 6626 a9bc 91f4 bebd 918b d63d 92fe 273d
00000210: 3cce 6cbe 3d48 213b a05e a9bc ccd2 1abe
00000220: dfef c0bd 590e cebc b3e7 c43c 8cc5 6c3e
00000230: da74 e6bd 898b 97bd da72 acbd 7b07 993c
00000240: ab8e 683f e446 363f 17f0 17be bfcb fc3e
00000250: 8c34 80bf eeff 5cbe 80e8 ae3d 88d4 84bf
00000260: 06f3 123e 98c9 2a3e e3e6 1a3e 3e46 6a3e
00000270: 9ee5 92bc 1a53 9a3d e70e b3bd a501 41be
00000280: 0233 0f3b b7bf ac3d 25f5 fe3d 03d4 d53d
00000290: 4b92 173f 5782 cebd 2f4c c63d dc6d 8e3e
000002a0: 5f2e 9bbd 8a4f 08be eb39 ce3d 6d3a 8a3d
000002b0: f85d b23c a4e7 3f3e 6053 363e d4d4 73bc
000002c0: 8ac1 07be 3dd2 543c d8f6 f6bc e92d 113e
000002d0: 75c4 a3bd 65b7 afbb ad07 b63d 194f f13d
000002e0: d569 cd3c 14db 2e3e 6d51 60be ff0b 4e3f
000002f0: 89a8 5e3d 287e 9a3e 5187 823e 788e 103d
00000300: 1260 8abf 04b9 153e 6fb5 25bf 59bd 593e
00000310: 2662 763f d609 b6be 780d babe db66 c43e
00000320: 6834 de3e 4d6a b13d 72f6 b73c 8f17 253d
00000330: 9dbe f83d 622b 63bd cad5 11be 51a5 483e
00000340: 905d b33d 947e 0dbd 1770 09be 4733 b83d
00000350: 8f0f aa3c 04fd 453e fc2a 7cbd eda7 e63b
00000360: 4903 6a3d 75b3 b73d 6f10 e53d 55b5 993d
00000370: bb3c 8a3e 4754 783e ac48 2c3d 1e27 2a3d
00000380: b383 e4bc 8792 ac3c 2e1b 9cbd e9db 05bd
00000390: a86e 1a3e dac8 2d3e df8d 34ba a732 403d
000003a0: 1141 8c3c f876 50bb 4ac7 dfbc a5f9 9e3f
000003b0: 1363 4d3c b8bd 6e3b d198 d3bc ac20 51be
000003c0: 6991 57bf cfef 703e 2cef 3fbf e4ea b43e
000003d0: 92ee 7a3e 0449 9ebe 1861 64bf 878c 453e
000003e0: 82f2 5cbe 6bdb 503b 845b 193e cf3f f83d
000003f0: 25dd 883d df1d 19be 4302 d33b 492a 023e
0.16171236 0.45168278 -0.9421485 0.31744856 0.73825186 0.89375025 -0.8634581 1.3658626
-0.2958144 0.016896844 -0.045576617 -0.15551196 -0.28120163 -0.20649138 -0.037171632 -0.07001662
-0.26878417 -0.053345133 -0.25142804 -0.1573549 0.05117232 -0.22158518 -0.09324584 -0.2399231
-0.09059442 -0.32533458 -0.17589873 -0.036158383 -0.51771474 -0.096246436 -0.18674493 0.12803687
-0.15922375 -0.28368247 -0.037910134 -0.20838821 -0.15898253 -0.21849859 -0.105011605 -0.24927142
-0.20387457 -0.18724354 -0.048696786 -0.7323802 -0.005109627 -0.10096378 0.035584882 -0.18647507
0.5277359 0.6319669 -0.8820011 0.6322223 -0.22377606 0.42085466 -0.70099187 -0.08447924
-0.2514898 0.14374104 0.07552701 0.13945226 -0.15372704 0.07358517 0.053179 0.15883704
-0.07301343 -0.053549714 0.0017409415 -0.08606545 -0.14628516 -0.13521963 -0.16067451 -0.10025274
-0.058587145 -0.055058528 -0.14381716 -0.116074055 -0.14978546 0.08762589 -0.1462077 0.08321357
-0.052462112 -0.049138375 -0.29792637 -0.029856319 0.07386201 0.043096364 -0.09435925 0.07887204
-0.06805629 0.10676498 -0.022575961 -0.63838506 -0.1697509 -0.05416076 -0.11388513 -0.11510528
-1.3432819 -0.88446766 -0.21314697 -0.35783654 1.4665673 -0.330798 -0.3700661 1.8907119
0.2158563 -0.07107723 -0.07364638 0.11061415 -0.0049426444 -0.07110397 -0.24311136 -0.21418417
-0.06367503 -0.046665628 -0.05368415 -0.023442792 0.2696478 0.02597489 -0.066054344 0.06518762
0.00019635461 -0.11073232 -0.0392675 -0.2116632 -0.07790034 -0.041386858 0.012759631 -0.07489298
-0.020648193 -0.09323991 0.10475839 0.04101426 -0.23125547 0.0024609708 -0.020675004 -0.15119475
-0.09420752 -0.025153326 0.024036264 0.23122233 -0.112527564 -0.07399661 -0.08420344 0.018680325
0.90842694 0.7120192 -0.14837681 0.49374196 -1.0016036 -0.21582004 0.085404396 -1.0377359
0.14350519 0.16678464 0.15127139 0.22878358 -0.017931756 0.075353816 -0.08743077 -0.18848284
0.0021850471 0.08435004 0.12449101 0.10440829 0.592076 -0.10083454 0.096824996 0.2781819
-0.07577204 -0.13311592 0.10069641 0.06749425 0.021773323 0.18740708 0.17805243 -0.014882285
-0.13257423 0.012989578 -0.030147001 0.1417767 -0.079964556 -0.0053624385 0.08888183 0.11782665
0.025074879 0.17075759 -0.21906061 0.80487055 0.054359946 0.30174375 0.25493863 0.03529212
-1.0810568 0.14621359 -0.6472997 0.21263637 0.9624351 -0.3555438 -0.363384 0.38359722
0.43399358 0.086628534 0.022456381 0.04030567 0.121457316 -0.055461295 -0.1424171 0.19594313
0.0875808 -0.034544542 -0.13421665 0.089941554 0.020759372 0.19334799 -0.06156443 0.0070390613
0.05713204 0.089697756 0.11184775 0.075052895 0.2699946 0.242509 0.042061493 0.04154121
-0.02789483 0.021065963 -0.076223716 -0.032680426 0.15081275 0.1697115 -0.00068875955 0.046923306
0.01712087 -0.0031809192 -0.027316708 1.2419935 0.012535828 0.0036429 -0.025829704 -0.2042262
-0.84206253 0.2352898 -0.7497432 0.35335457 0.2450507 -0.30915082 -0.89210653 0.19291888
-0.21576884 0.0031869065 0.14976317 0.121215455 0.06682805 -0.14952801 0.0064394786 0.12711443

AT_div_tree.nets.1.0.bias f4 [8]
00000000: 39f9 8bbf 58ba 24bf bb91 2ebd 9af2 cb3e
00000010: 438d 343f bbd2 bdbe 27d2 df3d 7f95 a83e
-1.0935432 -0.6434684 -0.04261945 0.39833528 0.7052805 -0.37074837 0.10928755 0.32926556

AT_div_tree.nets.1.2.weight f4 [10, 8]
00000000: b21e 233e 0b43 803e 1b96 7b3e 2c88 2b3f
00000010: 9e12 4fbf cc28 163e 6d19 0a3f 0393 723f
00000020: d28d 8e3e 48fb 11bf e888 3abf 027a e13e
00000030: e1be 733f a3fa 6bbf b471 0cbf b83c a7bf
00000040: 7710 4d3e fd30 723d a4fb b03d 7978 00be
00000050: c7b2 a7bd 9922 a33d a02f 883c 6234 2b3d
00000060: 699e 333e 5e84 03bb bad5 ac3d 1727 e1bd
00000070: 8419 6c3c 5a8c 973b 548e 943c aa46 853d
00000080: 2cdf bb3d b984 25bc 7116 07bd 86e2 27be
00000090: de64 17be 0490 b7bd 7ab0 21bd 5981 853d
000000a0: ee37 9bbf 9e7b e63e 862e 05be 8037 383f
000000b0: 1e9a a3be 3b9d 8a3e a24b 403f 711c 84bf
000000c0: 9487 963e de07 933e 042a b9bf 24ba 62be
000000d0: ad21 0a3e ebfe c93e 21c1 a93e 028d dbbd
000000e0: 4407 3f3f 9932 9a3e 5933 4e3e f209 3abf
000000f0: 228f c53d 701b 873c c102 5fbf 0e52 383f
00000100: fd9c 2abe 76a8 48bd ddf0 e53e ba29 2bbe
00000110: eb64 053e 90f0 adbd e4cd 0cbd 9800 e23d
00000120: 6bda febe 8f5f 2fbf ffe7 553f bd01 2cbf
00000130: ff93 ad3e cc3f 633e 6261 e1bd ec10 733e
0.15929678 0.2505115 0.2456898 0.67004657 -0.8088778 0.14664 0.53945047 0.9475557
0.27842575 -0.5702405 -0.7286515 0.44038397 0.95213133 -0.92179316 -0.54861 -1.3065405
0.20025812 0.05912875 0.08641747 -0.12545957 -0.08188396 0.07965583 0.016624272 0.041798003
0.17540897 -0.002006791 0.084392026 -0.10993784 0.01441038 0.0046248855 0.018134274 0.06507619
0.09173426 -0.010102444 -0.032980386 -0.16395006 -0.14784572 -0.08963016 -0.03947494 0.06518812
-1.2126443 0.45016187 -0.13006029 0.71959686 -0.3195352 0.27073082 0.75115407 -1.032118
0.29400313 0.2871694 -1.4465947 -0.2214132 0.13489409 0.394523 0.33155158 -0.107202545
0.7462046 0.30116728 0.20136775 -0.72671425 0.09646441 0.016492575 -0.8711358 0.72000206
-0.16661449 -0.048988782 0.44910327 -0.16715136 0.13026778 -0.08493149 -0.03437604 0.110352695
-0.49776015 -0.68505186 0.8355712 -0.6719015 0.33901975 0.22192305 -0.110049024 0.23736924

AT_div_tree.nets.1.2.bias f4 [10]
00000000: f8dc 533e 177c e83f 6bda 83be ab1e a7be
00000010: 5432 9ebe 07df 8cbe 625d 10bf d78d 3ebf
00000020: 4b2f f8be 9986 b0bc
0.20689762 1.8162869 -0.25752577 -0.32640585 -0.30897772 -0.27513906 -0.5639249 -0.7443518
-0.48473582 -0.021548556

AT_div_tree.nets.2.0.weight f4 [8, 48]
00000000: a453 413e 332b b53e b0e4 64bf ae83 723e
00000010: aae9 7c3f 848a 823f 9557 56bf 9653 d73f
00000020: de3b 34bc 16ea 29bd 5d2c 223c 0f01 95bd
00000030: f1cf 6cbe 20db efbd 7e53 05be a4d1 fcbd
00000040: 20f1 9abe b5be b0bc 546c 3fbe e1d3 f5bd
00000050: f493 dc3c 4f74 d4bd ec34 a5be df78 eebd
00000060: da18 debd 4b96 63be f2da 2bbe 77c0 03bc
00000070: 99e3 3bbe fa89 19be 8a5b c7bd 951e 293e
00000080: 6728 47be 5119 3ebe ae87 b0bd 3ff7 27be
00000090: 5380 1abe 30c7 d5be 1436 08be b6a1 5ebe
000000a0: 295b 94be 49ae 53be f45f 0f3e 8546 f4bd
000000b0: 87a6 89bd c563 65bf 6614 863c 574d c9bd
000000c0: a882 033f 7007 293f e55b 73bf d367 2b3f
000000d0: 3af7 3cbe 60f3 eb3e 552f 46bf 0bd1 0a3b
000000e0: 5be3 08bd d88f d23d 7abe a33d 9b3b 063e
000000f0: d833 f5bd 6818 18b9 79a4 e53d 7a94 2f3e
00000100: 7036 bbbc cd8a d4bd b4b0 21bc cbd7 9abd
00000110: 9729 a13d d1fa 8a3d 6be7 e1be 9a7d 32be
00000120: 622b 2a3b 8c69 b5bd 5e45 56bd 0753 f0bd
00000130: f89c 7c3d 49bc 063e 043b a1be 42c2 133e
00000140: ebb4 0cbd d135 973c 880f a8be 6cd3 163c
00000150: a33d 903d cd2b 5cbe d4f0 89bd 3181 d2bd
00000160: 81eb 9bbd 90ec 063e d78d 6b3d 88a8 863c
00000170: ac7a 59be 2f7a 16bf b2cd 45bd e48d 2bbe
00000180: ef41 a3bf 74c1 67bf c41b 1abe d293 c7be
00000190: 44db af3f 8aa9 afbe 65be a6be 9d5a e13f
000001a0: 730b febc 8e75 2abe fe5f d6b9 a367 3d3e
000001b0: 7385 1fbd 4a95 44bd 5b64 9ebe 4f7d 0ebe
000001c0: fb9b 9ebd 9e31 d1bd 67ff 90bc 48d0 363d
000001d0: 13e1 2bbd 5881 f5bd b288 253e fb21 413d
000001e0: 97e7 efbb ca60 10bc 0a55 57be 09be 2ebe
000001f0: 0ce4 15be 8a69 c5bd e37b 593e 6c22 7dbd
00000200: 9443 4ebd b479 28be fbee cd3d 1abc cd3d
00000210: dce1 16be 65c9 1e3e 52c6 2abd f7b5 b13d
00000220: c719 37be 162b 89bb b665 aebc b571 ee3d
00000230: 9840 66bc da6f 7d3e 2646 c1bd b514 c83c
00000240: 871a 513f babe 343f afb5 64be 5efd 103f
00000250: 1ab7 59bf 7502 68be 457c 273c 7582 62bf
00000260: 6233 8c3d a62f 3e3e 0ef2 0c3e 8d29 3a3e
00000270: 56af 913d 7aa7 093c 2a85 99bb 0f64 0dbe
00000280: d582 573d db75 5f3d a082 af3d 280a ca3d
00000290: c8e0 8e3e 72a2 df3d b735 523e 33b7 213e
000002a0: e69e 713d 2cdc 6bbe 33c9 483e 7f97 553d
000002b0: 9f34 c53d fb75 4d3e c396 17bc a6de 653d
000002c0: efd1 35be 477f fa3d 501e a4bd f510 2a3e
000002d0: 6f92 04be 2d46 0b3e 5ead 063e 2cc5 80bd
000002e0: 6bc0 083c bb21 383e 19cd 62be 75f3 053e
000002f0: 1bf4 0fbd 951a 673f 7b74 993e a86d 36bd
00000300: ef1f 8ebf cf38 1a3e 8999 41bf f507 ab3e
00000310: be81 5b3f 2338 1dbf 17fd e5be 5107 743e
00000320: 25f8 fcbd ea69 823d e71e 003d e34b 8f3c
00000330: f5bd 453e f2ee 55bd 3e1a 4dbe 6790 303e
00000340: b157 373d 11a5 08bd 69fc 57bd 52e9 093e
00000350: 5b09 ddbd 0f8b 773d d57f cc3e a1d6 803d
00000360: c329 f7bc 881b 8b3d e2f2 8f3d f092 843d
00000370: 848a 323e fa26 793e a82e 8b3e e8bc 99bb
00000380: f7ad 6fbd db42 29bd c8ae aabc 2611 babc
00000390: 69a0 003e 596b dd3e 6308 91bb bbd8 4e3e
000003a0: cd11 ddbb 5ddd e4bc 5403 60bd 8f97 dabc
000003b0: 8697 f43d ec23 5e3f 0c43 edbb 1e35 f0bd
000003c0: 3a2f 36bf 4515 773e 2561 4cbf cd34 a73e
000003d0: 1606 d43d 2b99 36be 9c3b 73bf 8be5 7c3e
000003e0: 43e5 04bb d18e 6ebd f161 663e 12f6 433e
000003f0: 2dcc ba3d 0a25 61be abde b93d b1d2 be3d
0.18879563 0.3538452 -0.8941145 0.23683044 0.98794043 1.0198522 -0.8372739 1.6822383
-0.011000602 -0.041483007 0.009898272 -0.072755925 -0.23126198 -0.11711717 -0.13020131 -0.12344673
-0.3026209 -0.021575311 -0.18693668 -0.12003303 0.026926018 -0.103737466 -0.3226694 -0.11644148
-0.10844584 -0.22225301 -0.1678274 -0.008041493 -0.1834854 -0.1499404 -0.097342566 0.16515572
-0.19449006 -0.18564345 -0.08619629 -0.1640291 -0.15088014 -0.4175353 -0.13301879 -0.21741375
-0.289758 -0.20671953 0.14001447 -0.11927513 -0.06721216 -0.8960536 0.016367149 -0.098292045
0.5137124 0.66026974 -0.95062095 0.669553 -0.18453684 0.46084118 -0.7741597 0.0021181728
-0.033419948 0.10281342 0.07995315 0.13108675 -0.11972779 -0.00014504942 0.11213011 0.17146483
-0.022853106 -0.10378037 -0.009868789 -0.075606905 0.07869261 0.06786121 -0.4412187 -0.17430726
0.00259658 -0.08858022 -0.052312247 -0.11734586 0.061673135 0.13157763 -0.31490338 0.14429572
-0.034352224 0.018458279 -0.3282435 0.00920568 0.07043006 -0.21501084 -0.067353874 -0.102785476
-0.07613278 0.13176179 0.057508316 0.016437784 -0.21238202 -0.5878019 -0.04829187 -0.16753346
-1.2754496 -0.9052956 -0.15049654 -0.38979965 1.373879 -0.34309036 -0.32567134 1.7605778
-0.031011319 -0.16646406 -0.0004088878 0.18496566 -0.038945626 -0.047993936 -0.3093594 -0.13914989
-0.07744595 -0.10214542 -0.01769991 0.044632226 -0.041962694 -0.11987561 0.16165426 0.047151547
-0.007321309 -0.008812139 -0.21028534 -0.1706468 -0.14637774 -0.096392706 0.21238665 -0.061800405
-0.050357416 -0.16452676 0.100553475 0.10045643 -0.14734596 0.15506513 -0.04169304 0.08677285
-0.17880927 -0.0041860444 -0.021288734 0.11642782 -0.014053486 0.24749699 -0.09437208 0.024423936
0.816811 0.70603526 -0.22334932 0.5663661 -0.85045016 -0.22657187 0.010222499 -0.8848031
0.06845738 0.18572864 0.13764212 0.18179913 0.07113521 0.008401746 -0.004685064 -0.138077
0.052615006 0.054555755 0.085698366 0.098652184 0.2790587 0.10919656 0.20528303 0.15792541
0.058989428 -0.23033208 0.19608001 0.05214643 0.09629177 0.20064537 -0.009252253 0.056120537
-0.17755865 0.122313075 -0.08013594 0.16608031 -0.12946485 0.13600989 0.13152072 -0.062876076
0.008346657 0.17981617 -0.22148551 0.13081153 -0.035144906 0.90274936 0.2997168 -0.04453817
-1.1103495 0.15060733 -0.756249 0.33404508 0.85744846 -0.6141378 -0.44919655 0.23830916
-0.12352017 0.06367858 0.03127947 0.01749224 0.19310744 -0.05222983 -0.20029542 0.17242585
0.044761363 -0.033360545 -0.05273095 0.13467911 -0.107928 0.06043535 0.39941278 0.06290937
-0.03017128 0.067923605 0.07028748 0.064733386 0.17435652 0.24331275 0.27184033 -0.004691709
-0.058515515 -0.041323524 -0.020835295 -0.022713255 0.12561192 0.43245962 -0.0044260486 0.20199864
-0.006746507 -0.027937585 -0.054690674 -0.026683597 0.11942963 0.8677356 -0.0072406586 -0.11728881
-0.7116581 0.24129207 -0.7983573 0.3265747 0.10352723 -0.17831866 -0.9501283 0.24696939
-0.0020278252 -0.05824167 0.22498299 0.19136837 0.09120975 -0.21986786 0.09075674 0.0931753

AT_div_tree.nets.2.0.bias f4 [8]
00000000: b3c3 9fbf ea1e 35bf efae 883b 796e ad3e
00000010: 7a61 4e3f 074e c7be 4184 fa3d 33cc a93e
-1.2481598 -0.70750296 0.0041712443 0.33873346 0.8061749 -0.38926718 0.12232257 0.33163604

AT_div_tree.nets.2.2.weight f4 [10, 8]
00000000: c70e b23e d6c0 8a3e f369 823e f038 1a3f
00000010: 431f 60bf e61d ca3d 5e24 043f 763c 5f3f
00000020: e385 c23e 866a eebe d7c3 31bf be07 103f
00000030: fb7f 603f 7c24 81bf cf57 2abf 2af4 b9bf
00000040: 03e6 193e 95d0 053d d473 d7bd 76ba 80bd
00000050: 78ac ecbd c353 323d 67b3 deba 5215 94bc
00000060: 5f8a 543e 6d5a ce3c 8b88 af3d 5f6e 12be
00000070: 3fc8 9abc f734 523d 4e80 a83d fcfc a83d
00000080: 8533 933e ed80 5a3c a28a 2d3e 87b4 53be
00000090: f645 9abd 16ff 33bc 9b2b 40be d465 db3d
000000a0: afb6 a4bf a8b5 e13e 691c 14bd 8bd5 2c3f
000000b0: 22a6 9dbe 828c 863e 407c 403f 980d 83bf
000000c0: 8e09 ad3e 9fbb 9b3e 290b b7bf 36ad 80be
000000d0: 8b7a a43d 59cb c23e f7a7 d43e 28f0 ff3d
000000e0: d99b 563f 7750 c63e fde9 823e 3e6a 29bf
000000f0: d20b 953d 1138 5b3d 4660 6fbf 90bc 463f
00000100: ec69 f5be 4521 2fbf fad6 683f 69d4 63bf
00000110: 18ef e63e 60fd ee3d 6057 81be 6e5e 003f
00000120: 707b 51be 86d1 083d d131 a63e 4f70 edbd
00000130: b10e 1a3d ae35 ad3d a3d5 3e3e ab9e 853e
0.347769 0.27100247 0.25471458 0.6024313 -0.875477 0.09868984 0.5161799 0.8720163
0.37992772 -0.46565646 -0.6943945 0.56261814 0.8769528 -1.0089259 -0.66540235 -1.4527638
0.15029149 0.032669622 -0.10520139 -0.062855646 -0.11556333 0.043536913 -0.0016990722 -0.018076573
0.2075591 0.025189603 0.085709654 -0.14299916 -0.018894313 0.051320042 0.08227597 0.08251378
0.28750244 0.013336402 0.16947415 -0.20674334 -0.07532875 -0.01098611 -0.18766634 0.107127815
-1.2868251 0.44083905 -0.036159907 0.6751334 -0.30790812 0.26279074 0.7518959 -1.0238523
0.33796352 0.3041658 -1.4300281 -0.2513215 0.08031186 0.38045767 0.41534397 0.12496978
0.83831555 0.38733265 0.25569144 -0.6617774 0.07277645 0.053520266 -0.93506277 0.77631474
-0.47932374 -0.6841014 0.9095303 -0.8899599 0.4510429 0.11669421 -0.25261974 0.5014409
-0.20457244 0.033402942 0.32459882 -0.11593687 0.037611667 0.08457504 0.18636183 0.26097617

AT_div_tree.nets.2.2.bias f4 [10]
00000000: 3363 353e 2289 ed3f 830b b8be d700 efbe
00000010: 8c1b c5be bbd5 eabe 8c27 0abf 1875 47bf
00000020: 113a 97bd 4d93 d6be
0.17713623 1.8557475 -0.35946283 -0.46680328 -0.3849758 -0.45866188 -0.53966594 -0.77913046
-0.07384122 -0.41909257
