ZHECKPOINT/test-50+50/model.pt (torch, 241759 bytes, 32 tensors)

_batch_norm.mean f4 [16]
00000000: 0000 0000 d8cb 723e b6ef 66be 5791 99bd
00000010: ba56 813d 9f28 86bd 86dc 2242 48d0 763f
00000020: 0000 0000 0000 0000 0000 0000 0000 0000
00000030: 0000 0000 0000 0000 0000 0000 0000 0000
0.0 0.23710573 -0.2255238 -0.074984245 0.0631537 -0.065507166 40.715355 0.9641156
0.0 0.0 0.0 0.0 0.0 0.0 0.0 0.0

_batch_norm.var f4 [16]
00000000: 0000 803f ede6 aa40 708d a140 a600 4640
00000010: 6518 003e 60f3 023e d4dc 4044 0ad7 233c
00000020: 0000 803f 0000 803f 0000 803f 0000 803f
00000030: 0000 803f 0000 803f 0000 803f 0000 803f
1.0 5.340689 5.0485153 3.0937896 0.12509306 0.12788153 771.45044 0.01
1.0 1.0 1.0 1.0 1.0 1.0 1.0 1.0

AT_obs_encoder.0.weight f4 [48, 16]
00000000: 6179 623e 610a f93d 6757 76bd 85ed 203e
00000010: 9c8f 7cbd 2bc3 a6bd d65f 34be 5096 c9be
00000020: 30f2 233d d261 f13b 72a4 a53d 23a7 e13d
00000030: 61a3 e33d 1f26 213e 669e 813e 63b3 773d
00000040: e2d3 9d3e d030 45bd 3ba5 243f 5096 c0b9
00000050: 550a 63bb 1894 023d dd58 73bc b4ec c3bc
00000060: 9ef6 003c c286 dc3b 02cd 4dbb 6438 f63b
00000070: 57f8 853c bb48 473e bc45 4b3e c722 9bbd
00000080: 119f b83e c10d a23d d7cc 68bf 453e b2bb
00000090: fd06 643a 2843 f9bc 7b7d 1bbc 2cc0 803c
000000a0: dd65 7bba f418 9f3b cb4a 8e3b b2c8 07bb
000000b0: c10b 923b bad4 00bc 3a65 0b3c 596c 723d
000000c0: 90a1 513e e7d6 9dbd 8bbd 553f 1199 523b
000000d0: 139f 2039 8b76 fe3c c1aa 01be 91b8 b5bc
000000e0: 71c3 413c 5e74 cf3b 3a37 683c fba7 083d
000000f0: ad43 6d3d 6c86 e73d f1a1 6e3e 7d37 e13d
00000100: 4048 963b a698 4f3e 5eed 29be b66a afbe
00000110: 9cfb 3abd ad75 d63c e7b9 50be 701c 26bc
00000120: 4db1 b3bc 39b0 71bb f8be 30bd b81b ebbd
00000130: 3aa5 0dbd 857f 5abe c668 77be d097 aabd
00000140: 6e69 b5bd 6392 9bbf 32be 8b3c 4c56 9737
00000150: c372 25bd f542 193c 3caf 6eba 1559 4bbb
00000160: 2294 c9ba 7a60 f33b c77d 8d3b 8e41 3f3b
00000170: 935c bd3b f5d1 afbc 3b1c 95bc c0f9 56be
00000180: 608f 583e 1b07 db3c b339 05be 18cd bb3e
00000190: f6a8 49bb ca85 ff3c eae1 98be d369 b83d
000001a0: 0c10 c6ba 1429 763b 07cb b33b d07b 673c
000001b0: 7f6e 523d 1358 433e f3df ec3e a390 8fbd
000001c0: c4a2 613e 5b6b d1bd df98 803f 0267 0c3c
000001d0: 6cc3 8db9 00eb e83c 74fc 70ba 5c8e b6bb
000001e0: 7fa9 f23a d606 e3bb 979d bcbb ede3 6bbc
000001f0: 1a34 b9bc 7ca2 1fbd 894f 98bd 5225 aa3d
00000200: 6c95 8d3e 2b2a 803f fc0a 5e3d 1da3 683b
00000210: 85f1 ff3c bd80 36bb 98fc 54bb e270 393c
00000220: 01c2 423c 8e1a 09bc b7d2 7dbb b80d 72bb
00000230: 8a5f 72bc a8c4 12bc ad96 0fbd 3098 b33d
00000240: d1ef d0bd 8883 16bd 80f3 333d d88c 31bf
00000250: 4587 c03c 7349 da3c f3e0 cebd deeb c93b
00000260: a6df aabb 4d5d f63b 5a05 323b db9f a3bb
00000270: fb52 023c cba5 e43c 31de 98bd 5554 53be
00000280: 0fab ef3e 2513 fcbc a42c 0d3f 67fc d73b
00000290: 6ecb 393a 4ef9 81ba 3e20 09be 968a a8b9
000002a0: 6142 e13b 6136 8e3b 2601 943c d7c0 1b3d
000002b0: 588a 793d 29bb 13bd e3fc 143e 6c8c 47bc
000002c0: 958d 70bd 0837 9b3d 7fde 64bf d7cf 2abc
000002d0: d806 b73b 5756 02bd 38f8 633c fbfa 033c
000002e0: ed12 d83a 5050 2bba 02e5 913b 55dc 1b3c
000002f0: e78f 103c 1f99 693c 40a4 083d e6d1 cabd
00000300: 485c 9d3d ec55 adbd d39d e2be def4 febd
00000310: 2b17 64bc 541c 393b 30d0 0d3f d402 01bc
00000320: 5b80 8c3c e9e6 903c 278b 533d ae45 e53d
00000330: fc6c 393e 857d c83e 39e1 1a3d e6ab ac3d
00000340: 5d08 a43e caf5 ff3c 3ae3 27bf a847 4f3b
00000350: ea1b 153b 3826 44bc 6c63 6abe 572d 2fbb
00000360: b884 0c3c 3d4a ba3c e558 e73c c7b1 703d
00000370: b96a e83d b4a6 743e 3827 893e 93e7 1b3e
00000380: 4858 793e 048a 093e 77ef dbbc 0e10 993c
00000390: 28b0 d3bd 3758 833d 2c17 243e 1e1e a83e
000003a0: 7822 893c 0621 f03c 5079 703d ad9e 143e
000003b0: ce5f 4e3e 8301 823e 7a5f 403e 4b7c 283e
000003c0: 3b47 2b3d 33c4 ce3e 15e1 043f 4b3a 50bb
000003d0: ac00 0e3c 2ff0 83ba fb9b 82bc 46b3 60bc
000003e0: d6ea adbb 6637 9f3b 655c 483c 6c93 003d
000003f0: 3421 d23c b368 523d d7f7 033e 9fbf d93d
0.22116615 0.12160183 -0.060141947 0.15715607 -0.061660394 -0.08142694 -0.17614684 -0.39372492
0.04002589 0.0073663974 0.08088006 0.11018207 0.111151464 0.15737198 0.2531616 0.06047381
0.30825716 -0.048142254 0.6431462 -0.00036733085 -0.003464361 0.031879514 -0.01485273 -0.02391658
0.007871298 0.0067299316 -0.0031402712 0.0075140465 0.01635377 0.19461338 0.1985082 -0.075749926
0.36058858 0.079127796 -0.9093756 -0.005439552 0.0008698551 -0.03042753 -0.009490366 0.015716635
-0.0009590069 0.0048552696 0.004342412 -0.002071899 0.0044569676 -0.007863218 0.008508021 0.05918536
0.20471787 -0.07707005 0.83492345 0.0032134692 0.00015318049 0.031062385 -0.12662794 -0.022182735
0.011826382 0.0063310107 0.014173323 0.033363324 0.05792587 0.11304936 0.23303963 0.10996912
0.0045862496 0.20273075 -0.16594455 -0.342611 -0.04565011 0.026179159 -0.20383416 -0.010138616
-0.02193513 -0.0036878719 -0.043150872 -0.11479896 -0.0345814 -0.21337707 -0.24161062 -0.08329737
-0.08858 -1.2154049 0.017058466 1.8040788e-05 -0.04039265 0.009354343 -0.00091050914 -0.0031028439
-0.001537923 0.0074272724 0.0043179723 0.002918336 0.005778858 -0.02146242 -0.018201938 -0.2099371
0.21148443 0.026736787 -0.13010292 0.36679912 -0.0030770875 0.031191725 -0.2985986 0.09004559
-0.0015110984 0.0037561106 0.005486849 0.01412864 0.05137491 0.19076566 0.4626461 -0.07010009
0.22034746 -0.102255546 1.0046653 0.008569481 -0.00027039216 0.02843237 -0.0009192892 -0.00557117
0.0018513649 -0.006928305 -0.005756091 -0.014397603 -0.022607852 -0.038973317 -0.07437045 0.083078995
0.27653062 1.0012869 0.054209694 0.0035497614 0.031243095 -0.002784773 -0.003249919 0.011318417
0.011887074 -0.008368148 -0.0038730332 -0.0036934447 -0.014793286 -0.008958019 -0.035055805 0.08769262
-0.10201991 -0.03674653 0.04393339 -0.69355536 0.023502002 0.026646351 -0.101014994 0.0061621508
-0.0052146493 0.0075184465 0.0027163834 -0.0049934215 0.007954354 0.027911087 -0.07464255 -0.20637639
0.46810195 -0.030770848 0.5514624 0.006591368 0.00070875033 -0.0009916218 -0.13391206 -0.00032146712
0.006874368 0.0043399786 0.018066954 0.038025703 0.06092295 -0.03606716 0.14549594 -0.012179475
-0.058728773 0.07578856 -0.89402 -0.010425529 0.0055855326 -0.03182062 0.01391416 0.008055444
0.0016485133 -0.00065351 0.0044523487 0.0095129805 0.0088233715 0.014257698 0.033359766 -0.09903316
0.07683617 -0.08463654 -0.44261035 -0.124490485 -0.013921539 0.0028245645 0.55395794 -0.007874209
0.017151048 0.017688232 0.051646378 0.11194931 0.1810798 0.39158264 0.037812445 0.084312245
0.3203763 0.031245131 -0.65581095 0.0031628404 0.0022752234 -0.011972003 -0.22889489 -0.0026729906
0.0085765645 0.022740478 0.02824063 0.05876329 0.11348481 0.23891717 0.26787734 0.15225057
0.24350083 0.13431555 -0.026847584 0.018684413 -0.103363335 0.0641331 0.16024464 0.32835478
0.016740069 0.029312622 0.058709443 0.14513655 0.20153734 0.25391778 0.18786421 0.16453664
0.041815978 0.40384063 0.5190595 -0.0031773027 0.008667152 -0.0010066087 -0.015943518 -0.013714617
-0.0053075356 0.004858899 0.01222906 0.031390592 0.025650598 0.05136938 0.12887512 0.10632252

AT_obs_encoder.0.bias f4 [48]
00000000: a896 c33e 84fb 8c3e 797d 1b3e 7042 873e
00000010: 432f 1ebe 2e98 af3d 190b be3d 3a19 9b3e
00000020: 2e94 893e 3222 a23c 5fd1 bb3e 1323 973e
00000030: e013 5abd b524 c03e 2712 6b3e e7f9 693e
00000040: 1025 203f 3c5a 1e3e 13ea 903e 2304 023e
00000050: da18 96bd de61 a3be afc1 673e 3a5f aa3e
00000060: b277 303e ddd9 d93c 08da bb3e fd79 ed3e
00000070: 57f5 2f3e 0b4d 0fbd 746f cd3e af89 ca3d
00000080: 8264 7bbd 018a 953e dba9 0e3f e327 ad3e
00000090: a53e 8cbe 58e7 a03e f814 b93e 3274 783e
000000a0: eaac 6ebd d5d4 0c3d b0da ecbc 4542 de3e
000000b0: 20a0 9d3d 4245 49bb 4dad 5c3d 28f9 2b3d
0.3820088 0.2753564 0.15184583 0.26417875 -0.15447716 0.08573948 0.092794605 0.30292684
0.26870865 0.019791696 0.36683175 0.29518947 -0.05324161 0.37528005 0.22956143 0.22849236
0.6255655 0.15464109 0.28303584 0.1269689 -0.07328959 -0.31910604 0.22632478 0.33275777
0.1723316 0.026593143 0.36689782 0.46382132 0.17183433 -0.034985583 0.40124094 0.09889542
-0.06137515 0.2920685 0.5572793 0.33819494 -0.27391544 0.314265 0.3614881 0.24263075
-0.058270372 0.03438266 -0.028912872 0.43409935 0.07696557 -0.0030711447 0.05387621 0.04198566

AT_obs_encoder.2.weight f4 [48, 48]
00000000: a269 19be 89c7 9d3d ca20 83bd 5a0b f63d
00000010: fb50 af3e 8e2e dabd 37b2 d63d 6d5a 08bd
00000020: 7313 9b3d fc76 13be e81d 1bbd 6c89 823d
00000030: 59a3 bcbe 9ded abbc 50e8 f03d 2353 8c3c
00000040: 2203 06be 18e2 a1bd de40 363d 463a 123e
00000050: 30ae 1c3e 33ef 0bbe e088 95bc 7960 d13b
00000060: 5d29 1ebe dc7d 52be feca 7a3e a058 163e
00000070: a1b0 e53d d74f 8d3e 2c6e 8dba 81a3 05bd
00000080: feed a43d fbc1 1b3e f7ba f63c bae3 9abe
00000090: 66fc a1be 87db 1f3e 1961 27be 6814 b3bd
000000a0: de54 fc3d 21dd 24bd 49a8 283e ffb0 643e
000000b0: 33b8 aa3d c443 81bd e540 32be 929b f0bd
000000c0: 17b1 693d ec03 533d 6120 383e 6ba8 fc3c
000000d0: 3097 213d 1195 c4be 4a1d 9abe bc8d 133e
000000e0: 4ce9 9a3d 4bb4 3b3e 5d2a df3d 34d6 f33d
000000f0: e429 c3bd 8965 10be 1bf3 db3b 793a a83d
00000100: 042a 7d3d c738 c83d fd73 aa3d 1aaa ec3e
00000110: 3278 4d3d 88b3 fc3e eba6 2bbe ec52 453e
00000120: 2230 893d 22bc 023e abac 43be 14fd fa3d
00000130: 879a b03e a65d 3bbd 7770 02be 72b9 f43d
00000140: 9365 4d3d df29 7fbc d4dd bebe 627d 6abb
00000150: b420 f3bd 363c 723d 6a3f 25be 1379 943d
00000160: 8955 17be 3a0a 703e ebc8 7dbb c1cf 6fbc
00000170: 1f20 3f3e d93c dfb9 9b30 67be c3eb 403e
00000180: 043a 89bd 4c91 25bd 0eca 37be 56c0 363e
00000190: 46b6 9abd 63c3 1f3c 94ce cf3d 7380 1ebc
000001a0: 60e8 3b3e 8446 2cbe 8540 843d 20cf cb3e
000001b0: 5512 d3bd cf7b c33d 142d 3dbe 7e06 bf3d
000001c0: aafb fd3e ac66 2a3e c065 3e3e 2d5f 823d
000001d0: 0e89 abbc abb0 063d 3c2f c43d 3e6e be3e
000001e0: 24f6 85be 3d47 583d 9b47 3abe cc94 993e
000001f0: 87e3 303d 9fc6 87bc 22e4 5b3e b947 4fbd
00000200: 7880 173c e8a6 623d 72a5 cb3d 13bd 1b3e
00000210: 3d8a 953e c865 2d3d 69d5 97bc 9745 883e
00000220: c898 43be 43cc 963d 97c2 333d 3436 6abd
00000230: 6642 29be e181 74be 3317 7cbe 177e 95bd
00000240: c11a 8bbc 5ec9 093d 99d9 05be 5e2d 2e3e
00000250: 78dd f1bc 77f7 ee3d 0739 893e d436 a23d
00000260: c901 1ebe e753 a43e dcb2 08be 2e76 893d
00000270: 47ed 8a3e 3f88 54be 6901 323d 7162 f03d
00000280: 1765 28bd 09dd 8dbd 03e6 3ebe 99bf 49be
00000290: 4b7d 6c3d 576a bd3d 5637 5ebe 6254 8cbd
000002a0: abac fd3c ebe2 3cbd f7b1 073d cfcc 5e3e
000002b0: 6480 473e c696 e7be 88ba 7f3b 79a0 5dbd
000002c0: 2151 bb3e f480 b13d 44cb fcbc a857 853e
000002d0: 208e 203e 0e92 f0bb 6498 aebe 03c4 d2bc
000002e0: 6ea5 53bd b26e 6bbd ff7f 803a 38ba afbc
000002f0: 699f fbbc 66ec 0ebd 9bad 5e3e bea6 eebc
00000300: c7bd c6bd a06c c03d 1ffe c9bd 3d06 a73d
00000310: 0651 643e 476b 7abe e0bc 063d aa92 a93c
00000320: aa58 11be afbb 883d 3d0a 183e 3f09 31b8
00000330: 276f 833d 5fe5 c93d 71f7 503e f14e 2b3c
00000340: 5bba 4bbe ea2d 9c3d 11b8 2bbe 5cfe b63e
00000350: 74b5 18be d226 da3e 85ef 8a3e 4fd9 4d3e
00000360: 7922 0f3d 6ab2 85be 1d03 19be 8196 c1bd
00000370: 557c 123e 4579 4d3e 8125 b93c 219f 033e
00000380: 5927 24be 8f2c 81bd 41ac 9c3e f8e3 c4bd
00000390: acfe 253d 7049 2d3c efd4 9ebe 6eba 3f3e
000003a0: a5c9 ba3d cd32 13be effb 1dbe cb52 c7bd
000003b0: 0f0b df3d e1b5 c93d 3eef 073c 885b 50be
000003c0: d4b9 b5be 5054 0dbe 457f 553d 1406 76bd
000003d0: 93ca 2dbe 956e 54be fc04 53be c819 013e
000003e0: bf0b 8dbe 6731 9cbe 4595 733e 77d9 a03c
000003f0: 967d 1abe 74e1 1a3e cdb1 cc3d 6b25 203d
-0.14981702 0.07704074 -0.064027384 0.12013884 0.3424147 -0.10653411 0.104832105 -0.03328936
0.07572069 -0.14400858 -0.037870318 0.063738674 -0.36843374 -0.020987326 0.1176306 0.017129486
-0.13087133 -0.07904452 0.044495456 0.14280042 0.15300822 -0.13665466 -0.018253744 0.0063896743
-0.15445466 -0.20555824 0.24491498 0.14682245 0.1121533 0.27599975 -0.001079028 -0.032626633
0.08053206 0.15210716 0.030118449 -0.30251867 -0.31637877 0.15611087 -0.16345634 -0.087441266
0.12320875 -0.040249947 0.16470446 0.22333144 0.083359145 -0.063117534 -0.17407568 -0.11748423
0.05705365 0.051517412 0.17981102 0.030842027 0.039450824 -0.3839498 -0.3010047 0.14409536
0.07564029 0.18330495 0.10896752 0.119060904 -0.095294744 -0.14101233 0.00671233 0.08214278
0.061807647 0.097764544 0.08322904 0.46223527 0.050163455 0.4935572 -0.16762893 0.19269913
0.06698634 0.1276708 -0.19108836 0.12255302 0.34492895 -0.045743607 -0.12738214 0.119494334
0.050145697 -0.015573948 -0.37278616 -0.00357803 -0.11871472 0.059139453 -0.16137472 0.072496556
-0.14778723 0.23441401 -0.0038724493 -0.014636935 0.18664597 -0.0004257921 -0.22577135 0.18839936
-0.06700519 -0.04042177 -0.17948171 0.17846808 -0.07554297 0.009751174 0.101468235 -0.009674179
0.18350363 -0.16823775 0.064576186 0.3980646 -0.10306231 0.09545099 -0.18474227 0.0932741
0.49606067 0.16640729 0.18593502 0.063658096 -0.020939376 0.032883327 0.09579322 0.37193483
-0.26164353 0.052802313 -0.18191378 0.29996336 0.043185737 -0.016574202 0.21473745 -0.05060551
0.009246938 0.055334955 0.099436656 0.15208845 0.2920703 0.042333394 -0.01853438 0.26615593
-0.1910125 0.073631786 0.043886747 -0.0571806 -0.16529235 -0.2387767 -0.24618225 -0.0729944
-0.01698053 0.033639304 -0.13071288 0.17009494 -0.02952455 0.11668294 0.2680132 0.07920614
-0.15430368 0.32095262 -0.1334948 0.06711994 0.27134153 -0.20755099 0.043458376 0.11737526
-0.04111203 -0.06926925 -0.1864243 -0.19701995 0.057736676 0.09248798 -0.21700796 -0.06852032
0.030966124 -0.046114843 0.033128705 0.21757816 0.19482571 -0.45232219 0.0039021093 -0.054108117
0.36585334 0.08667174 -0.030858643 0.2604344 0.15679216 -0.00734163 -0.3410064 -0.025728231
-0.051671438 -0.057478614 0.0009803771 -0.0214511 -0.030715661 -0.034893416 0.21745913 -0.029132243
-0.09704166 0.093957186 -0.09862923 0.08155487 0.22296533 -0.24454986 0.03289497 0.020699818
-0.14193979 0.06676423 0.14847656 -4.22087e-05 0.06417685 0.09858202 0.20406891 0.010455833
-0.19895308 0.07625945 -0.16769435 0.35740936 -0.14912969 0.42607743 0.27135864 0.20102428
0.034944985 -0.26112682 -0.14942594 -0.094525345 0.14305241 0.20065792 0.022600891 0.12853672
-0.16030635 -0.06307327 0.3060017 -0.09613794 0.040526077 0.010576591 -0.3102183 0.18723461
0.09120492 -0.14374848 -0.15428136 -0.097325884 0.10890781 0.09849144 0.008296786 -0.20347416
-0.35493338 -0.13801694 0.052123327 -0.06006439 -0.16971807 -0.20745309 -0.2060737 0.12607491
-0.27548024 -0.3050644 0.2378741 0.019634945 -0.1508697 0.15125066 0.0999485 0.039098185

AT_obs_encoder.2.bias f4 [48]
00000000: 9c81 4abd 325c eebd 4729 b43d 8a27 a6bd
00000010: b23e d0bd 9983 2fbd 5a22 553e 8d35 b03d
00000020: 2c3c f63c c699 96bd d020 51be e81f f93d
00000030: 073d 66be 8729 a7bd 8990 26be 78e0 b13d
00000040: f981 863d 09c4 c93d 9994 b1bd 841c 30be
00000050: 89c9 cebd 8087 863d 6786 e6be b167 b5bb
00000060: a6bd 483e 6b35 a7be e051 a23d 3c67 9d3e
00000070: e163 b2bd f903 64be b812 bdbd 5b9d e63c
00000080: d081 cfbd 6a30 7bbd b885 18be e0b3 ffbd
00000090: 88df 313d 7f0c b9bd 1d2c 9c3d 3722 04be
000000a0: 66b7 713d 3329 1fbc ddb2 6bbe 3a0f 033e
000000b0: 512c ae3d 4273 db3d 149f 1fbd d7d2 693c
-0.04944001 -0.116386786 0.087969355 -0.0811301 -0.10168208 -0.04285011 0.20813885 0.08603964
0.030057989 -0.07353549 -0.20422673 0.12164289 -0.22484218 -0.081622176 -0.16266073 0.08685392
0.06567759 0.09851844 -0.08670921 -0.17198378 -0.100970335 0.06568813 -0.45024416 -0.0055360426
0.19603595 -0.32657942 0.07925773 0.30742824 -0.08710457 -0.2226714 -0.09232086 0.028151205
-0.10132182 -0.061325468 -0.1489476 -0.1248548 0.043426067 -0.090355866 0.076256014 -0.12903677
0.059012793 -0.0097144125 -0.2301745 0.12798777 0.085045464 0.10715343 -0.038970068 0.01427146

MIX_conc_core_f.CT_W_query f4 [48, 48]
00000000: dfcf 0fbf ad2a c8be f7f5 bebe 4b0f 443f
00000010: 93fe f63d 6b38 1fbf 6bb7 db3e 29d0 103d
00000020: f8b7 09be 93a6 11bd 0916 c53d 2e63 bfbe
00000030: 454b c93f a99a 0fbe b52e 08bf a428 5dbf
00000040: 70eb a1be dd78 52be 4b37 463e 5982 813f
00000050: 9002 29be 7c3b 4e3f 913d 65bf c37f 90bd
00000060: fc97 783f 3a4a e1be df0d 803c 2813 7bbf
00000070: e8f2 103e 6acf 44bf d57e e9be 0879 8bbe
00000080: bae5 0340 55de acbf 8f4d 24bf ddc7 04be
00000090: fc40 e5bd 8fc0 ff3e 1e8d c03e 9805 86bf
000000a0: 3116 66bf 2dfd 3cbf 600c ca3e f3f0 3bbe
000000b0: 380f e43f 80f0 4e3e 757c 4cbe 2cd1 943d
000000c0: 1e70 823d 8d09 a4bf 41b9 2a3f 40b0 85be
000000d0: 0ce2 3bbf 303f dc3f 087f f03e d245 4fbe
000000e0: 3e1c 1d40 1dff d33f 9132 9f3f 1574 07bf
000000f0: 53b7 bfbf 8534 3ebf 9b0e 313f 3c34 b13e
00000100: cda5 59bf b71a e13f 93b9 b53f 909d 60bf
00000110: c8e0 a1bf 13c3 8d3f e05d b5bf 1415 673e
00000120: bf08 99bf 45fa 80be 1c1a a8bf aa47 cfbe
00000130: 6731 0ec0 820a 853f f22b 993f ed62 14c0
00000140: 22b0 c7bf b982 77bf 48e0 fdbe 3f02 093f
00000150: 1b33 9a3f df92 f2bc ce6e 003f 0e34 15c0
00000160: a7bd ecbf 78f2 62bf 75e8 8a3e e951 ca3f
00000170: afda c4bf 465b 053f 719e 68be c541 dd3f
00000180: 4ab2 a840 cd85 a0c0 52fe 6ebf b9fe 5a3e
00000190: 980f ab3d 770d fc3e 13bc 7d40 f891 ae3e
000001a0: 1446 d1be a348 3640 6e8d 713f ba68 6e40
000001b0: 7bad 753d 6b03 1dc0 e87b d240 7b5a 843e
000001c0: c9fa c5bf 609d b4bf b18a c2bf 15d8 a0bf
000001d0: 127a cebf 9365 be3f 1d1e 78be 4feb 20c0
000001e0: 2b28 aebf e3c4 87c0 0f8d d63f c4fd 973f
000001f0: ec8c 8dbf 36a7 fa3e 7896 bc3f bfea cfbf
00000200: 95b9 00c0 53c3 2dc0 eee8 6540 430c 0b3f
00000210: 62b2 5ec0 2121 41c0 a623 ba3f d548 dbbf
00000220: f1bd 3f3f f956 5cbf 4ea2 8e40 fb24 883f
00000230: 3635 3fc0 4906 6c40 01db 2bc0 a9b2 0d3f
00000240: da76 9d3f 6d1e 01c0 314a bb3d d8d8 4cbf
00000250: 30b3 5ebf 7375 923f 6c5e 213f 1b6a 74bf
00000260: 6c00 f33e 37bb af3f 6483 30bf bcd8 123f
00000270: 0b04 8bbf 97dd 65bf b5f2 5c40 d33d a5bf
00000280: aa84 97be 3d9d 3fbf b3c4 2abe a9ba 25bf
00000290: 8b49 f1bf 67fa 013f fb8c f53e fbe4 9bbf
000002a0: 5728 f13e 5535 75bf 8272 e93e 7de2 213a
000002b0: 07af 683e bb51 423f 36f3 763e 54a1 22bf
000002c0: 285c 29bf 3071 a9be 8f62 013f 0e2e 4d3e
000002d0: f9bf b2bf 09b2 093f c1c4 033f 66cc bfbe
000002e0: 1c7f 42bf 17cf 453f d3a8 5e3f 1264 5e3e
000002f0: 93e8 f2bf a5a9 2540 300b 2cbd 2eb4 483e
00000300: 0a05 cd3f fb62 093e 99e8 0ec0 dad2 0a40
00000310: f99c 3bbf c82c 70c0 ab1a 03bf 73da 263f
00000320: 0ea8 58c0 385d 12bf a95d 6440 d21d 9d3f
00000330: f7c7 c63e 13da 88bf 3e44 723f f8e6 b83f
00000340: d288 c0bc 5c89 d4bf 558a 85c0 4217 d4bf
00000350: cc2a 6b3f 0176 06bf 413e f83f 7f48 ae3e
00000360: c8dc 05be 5275 57bf f9b8 6e3f 9bc2 0c40
00000370: 6534 bb3f 9410 e43e 1bad 7fbf 4ede 0e40
00000380: 1928 573f 978b f73f 6d05 363e 7e13 01bf
00000390: fb8a 25c0 3900 92be a60e 84bf 8d30 783f
000003a0: 73c0 5f40 7437 dc3f e2ff 5bbe 3a5b 0bc0
000003b0: d031 793f 0e39 1d40 65e1 243f de4c 2dc0
000003c0: 3ac9 a640 03dc 93c0 25be ac3e f84b 37c0
000003d0: 7d83 ed3f 3910 a73f 9cd7 e440 aa21 2040
000003e0: 180e c9bf a683 b440 1e14 bbbf 1280 213f
000003f0: 094a 8340 88c3 bec0 cf19 b840 8c63 7b3f
-0.5617656 -0.3909506 -0.3729703 0.76585835 0.12060275 -0.6219546 0.42913374 0.035354767
-0.13449085 -0.03555925 0.096233435 -0.37380356 1.5726095 -0.14023842 -0.5319627 -0.8639014
-0.31624937 -0.20553918 0.1935703 1.0117904 -0.16504884 0.80559516 -0.8954707 -0.070556186
0.9710691 -0.44001943 0.015631614 -0.98076105 0.14155161 -0.7687899 -0.45604578 -0.27240777
2.0608964 -1.350535 -0.64180845 -0.12966867 -0.111940354 0.49951598 0.37607664 -1.0470457
-0.8987761 -0.73823816 0.39462566 -0.18353634 1.7817144 0.20208931 -0.19969352 0.07266459
0.06369041 -1.2815415 0.66688925 -0.2611103 -0.73391795 1.7206783 0.46971917 -0.20241478
2.4548488 1.6562229 1.2437307 -0.529115 -1.4977821 -0.7429889 0.6916291 0.34610164
-0.85018617 1.7586278 1.4197258 -0.8774042 -1.2646723 1.1075157 -1.4169273 0.22566634
-1.1955794 -0.2519094 -1.3132968 -0.40484363 -2.2217653 1.0393832 1.1966536 -2.318538
-1.5600626 -0.9668384 -0.49585176 0.5351905 1.2046846 -0.02961105 0.50169075 -2.3313022
-1.8495377 -0.8865123 0.27130476 1.5806247 -1.5379237 0.520924 -0.2271669 1.7285696
5.271764 -5.016333 -0.9335681 0.21386231 0.08352584 0.49229023 3.9646041 0.3409574
-0.40873778 2.8481834 0.9435643 3.725142 0.059979897 -2.4533336 6.5776253 0.2585028
-1.5467159 -1.4110527 -1.5198575 -1.2565943 -1.6131003 1.4874748 -0.24230237 -2.514362
-1.3606008 -4.242784 1.6761798 1.1874318 -1.1058631 0.48955697 1.473342 -1.6243514
-2.011327 -2.7150466 3.592342 0.54315585 -3.4796376 -3.017647 1.4542129 -1.7131602
0.748992 -0.8607021 4.4573126 1.0636286 -2.9876227 3.6878836 -2.685242 0.5535074
1.2301896 -2.017482 0.0914501 -0.8001838 -0.8699217 1.1442093 0.630347 -0.95474404
0.4746126 1.3729008 -0.68950486 0.5736196 -1.0860609 -0.89791244 3.4523137 -1.2909492
-0.29593402 -0.748493 -0.16676597 -0.64737946 -1.8850569 0.5077271 0.47959122 -1.2179254
0.4710109 -0.95784503 0.45595175 0.0006175412 0.22723018 0.7590596 0.24116215 -0.6352742
-0.66156244 -0.33094168 0.50541013 0.200371 -1.3964835 0.53787285 0.514721 -0.3746063
-0.75975204 0.7726912 0.86976355 0.21717861 -1.8977226 2.5884793 -0.042002857 0.19599983
1.6017163 0.13416664 -2.2329466 2.1691194 -0.73286396 -3.7527332 -0.5121257 0.6517708
-3.3852572 -0.5717349 3.5682166 1.2274725 0.38824436 -1.0691551 0.9463538 1.4445486
-0.023502741 -1.6604419 -4.173136 -1.6569598 0.9186218 -0.5252381 1.9393998 0.34039685
-0.13072503 -0.8416339 0.93250996 2.1993778 1.4625365 0.44543898 -0.99873513 2.2323184
0.8404556 1.9339474 0.17775507 -0.5042037 -2.5866077 -0.28515795 -1.031697 0.9694908
3.4961212 1.7204423 -0.2148433 -2.177443 0.9734163 2.4566073 0.64406425 -2.7078166
5.212064 -4.620607 0.3373882 -2.8640118 1.8555752 1.3051826 7.1513195 2.5020547
-1.5707426 5.6410704 -1.4615514 0.63086045 4.1027875 -5.9613686 5.7531505 0.9819877

MIX_conc_core_f.CT_W_key f4 [48, 48]
00000000: cc06 aec0 c297 9c40 da2e f53f 72a6 b13f
00000010: a156 543f e6e7 19c0 613d adc0 9c44 acbf
00000020: 4fda 71bf dfdd 94c0 8c2b 28c0 f164 89c0
00000030: c70f dabf aab6 9a40 0693 91c0 96c2 0abf
00000040: a010 4540 a1a9 0b40 8004 3240 7a9c ee3f
00000050: 53a6 6640 81a6 53c0 4f8d 8c3e 3bab 6140
00000060: 5b80 3040 eb4d aa40 966e 03c0 0b30 43c0
00000070: cee7 8440 a791 f3be 5c94 62c0 f12c 8240
00000080: ecc6 0d40 64d2 9e40 ce24 69c0 f36f 93bf
00000090: ac77 ab40 52d1 8240 a0f6 6ac0 3e2e 1b40
000000a0: 345a d03e 2e8c 173f a7a2 aec0 d067 01c0
000000b0: a9ef 2b40 9399 a9c0 cc9e a240 56bd 7abf
000000c0: d5e5 32bf 7a84 743e 60ea 5b3f 5b65 6e3f
000000d0: 2df4 97bf c536 a73e a024 c6bf deeb 89bf
000000e0: 4ae6 a23d b8f1 043f 4235 f73e 7a53 f9be
000000f0: 1119 dbbd f149 d9bd 1bda b8be 631c 073e
00000100: 645c 4e3f 2f4a a53f cda1 b7be de91 933e
00000110: 4e40 d4be 6a2c 82be 4569 2bbf b507 2b3f
00000120: 0688 7d3f 9c89 993d 2f39 e6be 6599 a0bf
00000130: c7aa 023d f1c7 ca3e e34c 8d3e 6789 9bbe
00000140: 82c3 f1be 923a 2a3e d85d 7dbf bf73 cebe
00000150: 7d08 863f 3697 fe3e f20a fcbb 5283 313e
00000160: a1ad c7bd 5c34 d4be 677f 37be a671 b53f
00000170: 437e 8abe 4ba3 3cbf acec 863f 54a9 c33e
00000180: 6f7b 01c0 c10e 7640 05b4 d2bf e975 8d40
00000190: 68a5 2b40 65bd 98c0 c846 febf 6f27 9dbf
000001a0: 72f2 6cc0 f855 74c0 1ba8 0a3d a257 873f
000001b0: 4aab 0cbf 6220 3d40 1fc2 8dc0 2230 1cbf
000001c0: d33a b93f a51a 58c0 f95a 9bbf f3f6 9e40
000001d0: 8ab1 8840 bb57 b8bf 33e8 2b3f 8277 4c3f
000001e0: f414 893f 1c6d 0940 083d 0f40 1f0c 673f
000001f0: f86c 5340 80be bbbe 3bed 74c0 4e53 8c40
00000200: 9d41 8c40 cf0c 9140 6b60 99bf 834d d13f
00000210: 6514 763f 3454 f63f 629b 82c0 5d27 4d3f
00000220: bfde 5d40 6246 2c3f 3c1e afbf 8348 15c0
00000230: 1887 9a40 7b11 2fc0 4824 a53f 454c 75bf
00000240: 470f 3840 1bdf f6bf ae50 57c0 5121 5d3f
00000250: 7f69 acbe b394 9f3f b952 1740 1f01 0cbf
00000260: b9f5 043e b993 f23f d13a cabe 613c 1940
00000270: 2fd0 bbbf 483b 5dbf 5414 1940 d4e3 2cc0
00000280: 74c4 98bf f6b2 c3bf 9955 953e 865f 05bf
00000290: d676 4fbf 46d0 3f40 b195 debf 628e 15c0
000002a0: 8c15 5bc0 d925 66c0 79a6 8d3f bf2b f03f
000002b0: bb67 0bc0 1c18 1f3f 2d36 5b3f 0bbe 02c0
000002c0: 2335 f0bf 3f5e 68c0 0637 5a40 a39c 0840
000002d0: 3265 00c0 d4a0 54c0 0993 c03f 715c 3cc0
000002e0: 2424 87be a9fe b8bf ddd7 7340 d9f0 0a40
000002f0: 2f97 8fbf e39e 833f 7ad3 34c0 33ed 753f
00000300: af58 5dbf 6333 9abf cc1c a140 5179 78c0
00000310: 9a68 7f40 9222 d1bf 0a7c d13d 0d42 6a40
00000320: ff68 13bf acdd 60bf 49e8 4bc0 ef95 5cc0
00000330: 6c9e 0e40 1590 15c0 e651 813e 8e53 8940
00000340: 8d74 263e da9d 8f3e c3cf 05c0 385d 12c0
00000350: f0f2 2140 f596 70c0 5b48 09c0 d63e cfbf
00000360: 7137 953f 11ed 0440 a157 3040 8fab 7cc0
00000370: 7f36 b43f 74b7 89c0 e25b 0340 e2e1 2a3f
00000380: 5bd4 303f 719b 0240 737d 0440 3b48 74c0
00000390: 7b22 33bf 63ce 4a3f 9502 51bf 57fb be40
000003a0: a8b5 083f 6ac2 7540 5328 65c0 d3ed 46c0
000003b0: 6b08 b63f d376 353e 283b 713b d242 81c0
000003c0: 1db8 18c0 91ce 8040 9d53 523e 54aa 763f
000003d0: ce82 0840 d7aa 64c0 f556 48c0 8973 c03f
000003e0: 6ebd 81c0 3d12 44c0 e8be e5bf 335c 87bf
000003f0: a52f ee3f f9cc f23f 921d 2ec0 a070 143e
-5.4383297 4.893525 1.9154923 1.387892 0.82944685 -2.404779 -5.4137425 -1.3458438
-0.9447374 -4.652084 -2.627658 -4.293572 -1.7036065 4.834798 -4.549197 -0.54203165
3.0791397 2.1822283 2.7815247 1.8641503 3.6039016 -3.3070376 0.2745156 3.526076
2.7578342 5.3220115 -2.0536246 -3.0498073 4.1532965 -0.4757206 -3.5403051 4.067986
2.2152662 4.9631824 -3.6428714 -1.1518539 5.3583584 4.088052 -3.6713028 2.4246974
0.4069382 0.5919827 -5.457355 -2.0219612 2.6865027 -5.299997 5.0818844 -0.97945154
-0.69881946 0.23878661 0.859045 0.93123406 -1.1871392 0.32658973 -1.5479927 -1.0775106
0.079540804 0.51931334 0.4828282 -0.486965 -0.106981404 -0.10609806 -0.361039 0.13194422
0.80609727 1.2913264 -0.35865632 0.28822225 -0.4145531 -0.2542451 -0.66957504 0.66808635
0.9903568 0.0749695 -0.44965503 -1.2546812 0.031901147 0.39605668 0.27597722 -0.30378267
-0.47219473 0.16623905 -0.9897132 -0.40322682 1.047134 0.4972474 -0.0076917345 0.17335251
-0.09749914 -0.41446197 -0.17919694 1.4175308 -0.27049455 -0.73686665 1.0540977 0.38215125
-2.0231588 3.8446505 -1.6461188 4.4206433 2.6819706 -4.7731194 -1.9865351 -1.2277659
-3.7022977 -3.817747 0.033851724 1.0573618 -0.54948866 2.9551015 -4.4299464 -0.61010945
1.4471077 -3.3766263 -1.2137138 4.967645 4.2716722 -1.4401773 0.6715118 0.79869854
1.0709519 2.1472845 2.2381 0.9025287 3.303526 -0.36668777 -3.8269794 4.385169
4.3830094 4.5328135 -1.198255 1.635178 0.9612487 1.9244447 -4.0814676 0.8013819
3.4667203 0.67294896 -1.3681102 -2.3325508 4.828991 -2.735442 1.2901697 -0.95819503
2.8759325 -1.9286836 -3.3642993 0.8637896 -0.33674237 1.2467254 2.364424 -0.5468921
0.12984361 1.8951331 -0.39497998 2.3943102 -1.4672908 -0.8641858 2.3918657 -2.7014055
-1.1934953 -1.528899 0.29166868 -0.5209888 -0.81040704 2.997087 -1.7389432 -2.3368154
-3.42319 -3.59606 1.1066428 1.876335 -2.1782062 0.62146163 0.8562954 -2.0428493
-1.8766216 -3.6307523 3.4096084 2.1345603 -2.0061765 -3.3223162 1.5044872 -2.9431422
-0.2639476 -1.4452716 3.8100502 2.1709502 -1.1218013 1.0282863 -2.8254075 0.9606506
-0.86463445 -1.2046932 5.0347652 -3.8824046 3.9907594 -1.6338675 0.10228737 3.6602814
-0.57582086 -0.87838244 -3.1860526 -3.4466512 2.2284193 -2.336919 0.25257796 4.2914495
0.16255398 0.2805012 -2.0908058 -2.2869396 2.5304527 -3.7592137 -2.1450412 -1.6191051
1.1657544 2.0769694 2.7553484 -3.947971 1.4079131 -4.303644 2.052483 0.6675092
0.6907403 2.0407374 2.0701568 -3.8169086 -0.6997449 0.7922117 -0.81644565 5.968181
0.53402185 3.839991 -3.5805862 -3.1082656 1.4221319 0.17721109 0.0036808942 -4.039407
-2.3862374 4.0252156 0.20539708 0.9635365 2.1329837 -3.5729272 -3.1303074 1.5035259
-4.0543737 -3.0636132 -1.7948885 -1.0575012 1.860829 1.8968803 -2.7205548 0.14496088

MIX_conc_core_f.CT_W_val f4 [48, 48]
00000000: f0ad 943f d5a1 f9be a032 16be 7cd6 573f
00000010: 3265 133f 9f58 00bd edf8 b43e 4937 80bf
00000020: 02a4 403f 09dc 6e3f edde 803d 64c2 e03f
00000030: f046 de3e c16f 6e3e 9008 b0bf ee33 26be
00000040: 122d c6be 8442 26bf f2c3 d93e 48b9 c7bf
00000050: cb91 21bf b11a 73bf 44d8 b3bf d309 1ebf
00000060: dce8 be3f ca04 373f fad8 fcbf 5095 283f
00000070: df84 85bf 5b49 05bf de0d 2bbd af14 273e
00000080: 9d8a 0d3f 2cbc 263f 7080 61bf 036a e13e
00000090: 6fc1 d53c 125a 893e 6adf f03e 5cbb d53e
000000a0: 857d a73f 00ea 0f3e 4a74 36bd 405d bc3e
000000b0: 4f0e 86bc d45e 513e 6dae 7ebf 0fd0 473e
000000c0: 5db9 a6bf b9f0 0cbf 6908 3a3f aa52 b33d
000000d0: 7ecd c3be 1d26 99be 38af aa3e 3d68 cf3c
000000e0: 66dc 38be 1c79 0e3f df68 e7be 2cf9 f7be
000000f0: 2ba3 bf3e ced9 66be 7c7d b3be 03ed 783e
00000100: 2d0d d93e 1d8f fd3e c405 f13e 8aa4 2bbf
00000110: fd3c 87be 9385 2c3f 7d3f 4ebf 1fb1 843f
00000120: c580 95be 2af6 ea3d 428c 98be 1e99 09bf
00000130: f425 ff3e 47f3 70bd a25b 6f3d d5e0 5bbe
00000140: f20c 07bf 82be 38be 2819 433d 6b1c a1be
00000150: c647 ca3e 5709 01bf 369a 84bd 941f 8fbe
00000160: 23e2 bdbe 17b7 af3c 028c 4fbf 463c 113e
00000170: 25b2 c03d bc9f 6e3f e9ed 76be 0ce6 54be
00000180: 7654 93be 79a6 533d 3ace 9f3e 7809 333e
00000190: ee52 9cbe 2a82 dd3d 3567 cb3e e712 8f3e
000001a0: 73be f0bd 57dc a0be 3a54 0ebe 2784 11bf
000001b0: 3945 3c3e 7445 473e 351e 9b3d ae20 a2bd
000001c0: ce13 77bc 7f52 1e3e 4fc9 92be dfa1 1bbf
000001d0: 085a 15bf 4a64 e13e 019f f63e a211 863e
000001e0: a56e dcbd 42eb b73e 63d0 01bf 9dc9 b13e
000001f0: 9559 dfbe e001 bf3e 3256 cbbe 1472 583e
00000200: a04b 8fbe a29d 81be 6cea 913e eb8e 27be
00000210: 9660 fcbd 0ec4 f5bd 645d 3b3e 3f6b 16bf
00000220: 1e9a 91be 0a8a 3c3d e9dc 14be 1134 6dbe
00000230: f35a 743e 689e ddbd 9c78 623f 54e6 453d
00000240: 8693 a73e 177c 10bf ca24 583f 8996 75be
00000250: de24 8f3d 92f2 eebe 1d82 843e fbe1 1e3f
00000260: 5fff 15be 70db bbbe cc0c 12bf d1c7 253f
00000270: f9dc ab3e e662 07be 6276 febd f496 d13d
00000280: 1388 68be 4215 383c 0268 bebe 3228 1d3f
00000290: feed 3abe 82e0 f13e a74d cc3f 4240 cebe
000002a0: 990d 9d3e aeef 19bf 4139 d83f 2c52 13be
000002b0: 9d35 443f e259 393d 8f88 17bf be0d 033f
000002c0: 52a7 67bf 38e9 c63e 99d3 ec3e c94a 003f
000002d0: f737 313d 5cbd 473f a643 21bf 3bc4 e0be
000002e0: 5755 d8bd c502 4fbe 1c77 d0be beff cebf
000002f0: dbc6 4a3e fb1c 4dbf e36b 9b3f 3fd7 c43d
00000300: 56d9 7e3f bfe2 f3be 4bab 36bf 02ee ff3e
00000310: 4fc5 10c0 4533 d4bf bb9a 463e 871d 73bf
00000320: 707f 93bf 859b 373f f040 f43e e32f d53e
00000330: 4f61 f13f 2254 adbf 7804 7f3e c295 74bf
00000340: cf4e aebf 4053 8d3f bdfe b7bf d1ab a73f
00000350: 0e4d 183f 78b7 3dbf c1b0 553f c56a e3bf
00000360: 29cf 80be fe3a b13f 8b8f 2240 4703 0ec0
00000370: 4439 cd3e f122 25bd 9159 bd3e bd4a d9be
00000380: 38aa f43f 9868 a33d 5299 1ac0 e54a bbbf
00000390: 0f3d 40be e35c 86be 0fdf fd3e 6820 033f
000003a0: 6c2a a93f da9a 05bf 7bda c83e 62cd 473f
000003b0: 4440 fe3f a599 1ebf c7c3 a1be fe27 1340
000003c0: fcb9 9abf 222e 03bf 0096 bdbd 0c5e 07bf
000003d0: 521a 963e 0b38 ca3f e738 20bf e683 753e
000003e0: 0d84 9b3f ca5f 51bf a462 c13e ae16 80bf
000003f0: 70da 26bf b2e8 873f 96a0 bb3e 790c 3a3f
1.1615582 -0.4875628 -0.1466775 0.8431165 0.57576287 -0.031334516 0.35346165 -1.0016872
0.75250256 0.93304497 0.0629252 1.7559323 0.43413496 0.23284818 -1.3752613 -0.16230747
-0.3870626 -0.64945245 0.42532307 -1.5603418 -0.6311309 -0.949626 -1.4050374 -0.6173374
1.4914813 0.7149168 -1.9753716 0.6585283 -1.0431174 -0.52065057 -0.04176127 0.16316484
0.5528963 0.6513088 -0.88086605 0.44026193 0.026093213 0.2682653 0.4704545 0.41744506
1.308518 0.14054108 -0.044544496 0.36789894 -0.016364245 0.2044633 -0.994849 0.19512962
-1.3025318 -0.55054814 0.7266908 0.08756001 -0.38242716 -0.2991189 0.33336806 0.02531826
-0.18052825 0.5565355 -0.45197198 -0.4843229 0.37429175 -0.22544023 -0.35056674 0.24309163
0.42392865 0.4952325 0.4707471 -0.6704794 -0.26413718 0.6739132 -0.80565625 1.0366553
-0.29199806 0.11472733 -0.29794508 -0.53749263 0.49833643 -0.058825757 0.058436997 -0.21472485
-0.5275413 -0.18041423 0.047631413 -0.31466994 0.39507884 -0.50404876 -0.06474726 -0.2795378
-0.3708659 0.021449609 -0.8107301 0.14183149 0.094089784 0.93212485 -0.24114193 -0.20790881
-0.28775376 0.051672433 0.31212026 0.17484081 -0.3053202 0.108158424 0.39727178 0.2794411
-0.11755075 -0.31418106 -0.13899317 -0.56842273 0.18385781 0.19460088 0.07574121 -0.079163894
-0.015080405 0.15461157 -0.2866921 -0.6079387 -0.583405 0.44021827 0.48168185 0.26185328
-0.10763291 0.35921675 -0.507086 0.3472413 -0.43623033 0.37306118 -0.397142 0.21137267
-0.27987385 -0.25315577 0.28499162 -0.16363113 -0.1232311 -0.12000285 0.18297344 -0.58757395
-0.28437895 0.04603008 -0.14537396 -0.23164393 0.2386282 -0.10821229 0.88465285 0.04831536
0.3272974 -0.56439346 0.84431136 -0.23983206 0.06989454 -0.4666944 0.2588052 0.6206357
-0.14648198 -0.36690855 -0.57050776 0.6475802 0.33567026 -0.1322132 -0.124249235 0.1023387
-0.22708158 0.011235537 -0.37188727 0.6138946 -0.1825485 0.47241598 1.5961198 -0.402834
0.30674437 -0.6013135 1.6892473 -0.14386815 0.7664431 0.045251735 -0.59192747 0.51192844
-0.90489686 0.38849807 0.46255186 0.50114113 0.043266263 0.78023314 -0.6299385 -0.43899712
-0.10563152 -0.202159 -0.40715873 -1.6171796 0.1980242 -0.80122346 1.21423 0.096113674
0.9955038 -0.4763393 -0.7135512 0.49986273 -2.2620428 -1.6578146 0.19394962 -0.9496693
-1.1523266 0.7172168 0.47705793 0.41638097 1.8857821 -1.35413 0.24904048 -0.9554101
-1.36178 1.1041031 -1.4374615 1.3099309 0.59492576 -0.74108076 0.8347283 -1.7766958
-0.2515805 1.3846128 2.5400112 -2.21895 0.40082753 -0.040316526 0.36982396 -0.42439833
1.9114447 0.07978934 -2.415608 -1.4632231 -0.18773292 -0.26242742 0.49584243 0.51221323
1.3216071 -0.5218941 0.39229187 0.78047764 1.9863362 -0.6195319 -0.3159468 2.299316
-1.2088008 -0.5124227 -0.09257126 -0.5287788 0.29316956 1.5798353 -0.62586826 0.23976097
1.2149674 -0.8178679 0.3777057 -1.0006921 -0.6517706 1.0617888 0.36645955 0.7267528

MIX_conc_core_f.CT_motivate_mlp.0.weight f4 [48, 96]
00000000: e723 aabe 197f 47bf 63ed 7ebf f75d 86bf
00000010: d0fd d93e 0762 00c0 6f4b b7bd b2df 0ebe
00000020: c564 00bf 962c 8bbf 2def 35bf 0bcc 6dbe
00000030: 8752 90bf adec a5bf 4f8a 5e3e ab6a 2e3f
00000040: 1480 3c3f 9824 c23e 47b5 a9bf f146 38be
00000050: 36a1 88bf 63c7 ed3f 1a88 c4bf a6a3 693e
00000060: 0a78 26bf a833 a7bf 9c13 193f 0b74 f5be
00000070: 156b 3abe df6f 073f 07e4 6dbf 0ad3 723f
00000080: f38a 04bf e9a1 e03e bd2e 463e c453 a6bf
00000090: b415 c3be 023f ce3f e04b 80be 5ab0 67bf
000000a0: 4c47 9abe 6d67 e1bd 2223 63be 8fcd b93e
000000b0: 76ad b8be 4570 c8be 2ec9 63bf 996a 03bf
000000c0: 42c7 1a3e 4cb7 8cbe d765 cc3e ac50 2b3f
000000d0: d654 003e f453 8dbf c7c6 573d 3c34 4f3d
000000e0: c79b bdbf 57df c0bd f33b cdbe b800 aebe
000000f0: 7095 b33e 16f4 2ebf b677 0fbf 01a8 46bf
00000100: 915d e0be cb19 06be 5fa0 1c3e da2a 093f
00000110: 7a12 e03e 8b83 68be e313 713f 4922 1f3f
00000120: 25d6 123f d856 83bf da57 a1bf 8d02 81bf
00000130: 327a ffbf 3715 b73f 6ed5 d2be ce5d 363f
00000140: f7c2 463e 7778 24bf a138 f6bc 7e11 243f
00000150: 3c43 f73e 5bc7 a13e 1372 2dbf f1c2 dd3e
00000160: 1dfd 18be bcc6 e33d bcee 94be 360a 23bf
00000170: 3200 11bf ca06 7b3d 5e8c 0a3f 08d0 913f
00000180: 4f7a 6a3d a25c 713d 28e4 87be 3210 1ebc
00000190: a8f8 1dbe d524 1bbf 6ff1 dc3d be5a 2b3b
000001a0: c093 babd 6114 80be 2809 cf3c 0976 a03e
000001b0: cb28 59bf 7fcf f0be 0cfd 3dbe 9967 013e
000001c0: 7706 bc3d f432 f0bd 17f3 6bbe a246 ca3d
000001d0: 0076 b9be d611 a73d ad18 e2be 0be1 1fbd
000001e0: ef1b 303d 1391 05bf 88c5 e7bd 591f cb3d
000001f0: b3b0 fabd 852f da3d db5e 1fbe 720c 803e
00000200: d5c3 e23c 681e fd3a ce4e c13e 9309 1a3d
00000210: 7e32 70be ff95 053f 2325 8fbe 5041 b9bc
00000220: 3343 de3e 8f02 b03e aa79 3c3c 789b 7a3e
00000230: 0a16 fabe 3a9f 98bb 794d 1fbf 5158 e4bd
00000240: aa4a 67be 0817 883c 6e90 363d 4ca9 2bbe
00000250: ef9d 48be afbc 55be c020 3abd 6961 b5bd
00000260: 130c 983e 3861 813e 43eb 3fbe 40d9 1cbe
00000270: 6125 00bf 63ad 423e bb62 923e 52cf b83d
00000280: cd27 933e 5c9c af3d e168 1a3d cea5 62bd
00000290: 18db 79be 676a 91be 4321 18be 099e 9ebd
000002a0: af5b b8bd 94e4 27bd 7c83 8d3b 450f 8f3d
000002b0: 223a 11bf ffab d53d 247b 88be 358c 923d
000002c0: e650 353e 31e3 543e 257b b53d acfd 603e
000002d0: 94c9 22be 2852 443d 9ac7 42bd 7a92 fbbd
000002e0: 5759 b13e a246 44be 4eff 37be 3a2e 45be
000002f0: 99d3 bc3e 9fc0 24be 809e 8a3d e934 9c3e
00000300: 77d7 12bf df79 d4be 926d e7bf cb07 7f3e
00000310: 5095 023e 5e7c c4bf a725 8d3e 45d9 7c3e
00000320: f5c9 423f 6d2b 49bf 4b94 2fbf a3f0 1f3d
00000330: 8036 acbf 1219 8fbf ae82 873f 4d40 213f
00000340: 702d 433f 18ce 813e c6e3 903f 2a56 33bf
00000350: 5f2e 8ebf 907e bd3f 64f7 0bbf 89c7 1c3e
00000360: 39e5 63bf 30d9 90bf 5f34 453e 27d2 f43e
00000370: c0c8 cebe f938 4fbd a3cc 5fbf 2e5e c0be
00000380: 37ee c1bf 9d81 b6be 10e7 a43f bdd7 5dbe
00000390: 0ee8 95bd 35ad be3f 98f7 02be 35f3 08be
000003a0: 218b c3be 7e7c 8d3d 78ca 59bf c64a 043f
000003b0: 3fa4 09bf 345c 22bf 1eba 4fbf 1bd2 98bf
000003c0: dabe 3abd ed08 70bf e3d0 b53f 7232 cfbe
000003d0: 98d1 1d3f bc2f 12be c702 303e 6499 863d
000003e0: 01dc a5bd ac62 1d3e d924 a5bd 62d7 46bf
000003f0: 1393 523e 1afd 76be 385b 163e 1ade 7d3e
-0.33230516 -0.7792831 -0.99580973 -1.0497426 0.42576456 -2.005983 -0.08949935 -0.1395252
-0.5015376 -1.0872982 -0.7106808 -0.23222367 -1.1275185 -1.2962853 0.21732448 0.6813151
0.7363293 0.37918544 -1.3258446 -0.17995812 -1.0674198 1.8576473 -1.5354035 0.22816333
-0.65026915 -1.3062639 0.59795547 -0.47940096 -0.18204911 0.52905077 -0.9292607 0.9485327
-0.5177452 0.43873528 0.19353767 -1.2994313 -0.38102496 1.6112978 -0.25057888 -0.90503466
-0.3013252 -0.11006055 -0.22181371 0.3628964 -0.3606984 -0.39148155 -0.8897885 -0.5133453
0.15115073 -0.27483594 0.39921448 0.6691997 0.12532362 -1.1041245 0.052679803 0.050586924
-1.4813164 -0.09417599 -0.400848 -0.33984923 0.3507495 -0.68341196 -0.5604204 -0.77600104
-0.43821386 -0.13095777 0.15295552 0.5358101 0.43764096 -0.2270643 0.9417097 0.6216169
0.5735801 -1.0260878 -1.2604935 -1.0078903 -1.9959166 1.4303349 -0.4117846 0.71236885
0.1941031 -0.64246315 -0.0300563 0.6408919 0.48293483 0.3159741 -0.6775219 0.4331279
-0.14940305 0.1112189 -0.2908839 -0.63687456 -0.56640923 0.06128577 0.54120433 1.1391611
0.05724555 0.058926232 -0.26541257 -0.009647416 -0.15426886 -0.60603076 0.10788237 0.0026146616
-0.09110212 -0.25015548 0.02527292 0.31340054 -0.8482787 -0.47033307 -0.18553561 0.12637176
0.091809206 -0.117284685 -0.2304195 0.098767534 -0.3622284 0.08157699 -0.4415945 -0.039032977
0.04299539 -0.5217449 -0.11316973 0.099180885 -0.12240734 0.10653595 -0.15563528 0.25009495
0.02768127 0.001931143 0.37755436 0.037606787 -0.23456761 0.52182 -0.2795802 -0.022614151
0.43410644 0.34376952 0.011503616 0.24473369 -0.4884494 -0.004657653 -0.6222759 -0.111496575
-0.22587076 0.016612545 0.044571333 -0.167638 -0.19591497 -0.20872758 -0.04544139 -0.0885647
0.29696712 0.25269485 -0.18742089 -0.1531725 -0.50057036 0.19011454 0.2859095 0.09023918
0.28741303 0.08574745 0.037697677 -0.055333905 -0.24399984 -0.2840149 -0.14856438 -0.077449866
-0.09001862 -0.040989473 0.0043186527 0.06985334 -0.5672933 0.10433196 -0.2665645 0.071556486
0.17706642 0.20789792 0.088613786 0.21971768 -0.15897208 0.047929913 -0.047553636 -0.122837976
0.34638473 -0.1916757 -0.17968485 -0.19255915 0.36880186 -0.16089104 0.06768513 0.30509117
-0.57360023 -0.4149923 -1.8080313 0.24905317 0.1275227 -1.5350454 0.2756779 0.24692257
0.7608941 -0.7858189 -0.6858565 0.03904785 -1.3454132 -1.1179526 1.0586755 0.6298874
0.7624121 0.2535255 1.1319511 -0.7005335 -1.1107901 1.4804249 -0.54674363 0.15310492
-0.8902164 -1.131628 0.19258259 0.47816584 -0.40387535 -0.050591443 -0.87421626 -0.37571853
-1.5150822 -0.35645762 1.2883015 -0.21664329 -0.073196515 1.4896609 -0.12789762 -0.13374026
-0.38192084 0.069085106 -0.8507457 0.51676595 -0.53766245 -0.6342194 -0.8114337 -1.1939119
-0.045592166 -0.9376362 1.4204372 -0.40468174 0.6164794 -0.14276022 0.1718856 0.06572226
-0.08098603 0.15369672 -0.08063669 -0.776724 0.20563917 -0.24119988 0.14683235 0.24791756

MIX_conc_core_f.CT_motivate_mlp.0.bias f4 [48]
00000000: 3dd5 a9bf f26a e1be 3a0f adbf b354 13bf
00000010: 8ff0 79bf 7c8a d8be 0b9b 7fbf f9e6 c5be
00000020: bf40 57bf 88d2 43bf 8ced 76bf 84a2 68bf
00000030: 5b8d 13bf 9e8c 67bf 83ec 38bf e457 83bf
00000040: 6f0e 82bf 7ed7 01bf e559 61bf 86b2 c5be
00000050: b576 02bf 0f58 673c f24d aebe bc24 fcbd
00000060: f25e 5ebe d013 88bf 8fe4 06bf f3a0 80bf
00000070: c899 00bf c72c 8dbf 6393 fbbe 9e8f 23bf
00000080: d3c0 c6bf fc64 71bf c3d4 2cbf afc0 33bf
00000090: e46c d1be a7ff 2abf d70c 16bf fe9b 68bf
000000a0: d7b7 34bf b015 57bf a25d 903e e10d 54be
000000b0: b1b0 d6be 62f3 afbe 3b02 dbbe 726d 12bf
-1.32682 -0.44026905 -1.3520272 -0.57551116 -0.9763269 -0.42293155 -0.9984595 -0.3865278
-0.8408317 -0.7649312 -0.9645622 -0.9087298 -0.57637566 -0.9044894 -0.7223589 -1.0261197
-1.0160655 -0.5071944 -0.88027793 -0.38612765 -0.5096238 0.014120116 -0.34043843 -0.12311694
-0.21715906 -1.0631046 -0.526925 -1.0049118 -0.5023465 -1.102929 -0.49135885 -0.6389102
-1.5527595 -0.94294715 -0.6751215 -0.70215887 -0.4090339 -0.66796345 -0.5861334 -0.90863025
-0.7059302 -0.8401747 0.28196436 -0.2070842 -0.4193168 -0.34365374 -0.4277514 -0.5719825

MIX_conc_core_f.AT_forward_mlp.0.weight f4 [48, 128]
00000000: c6eb 9dbd fe2d 75bd 7c6b 6a3d e9b6 993c
00000010: e1e5 25be bfe4 8c3e a597 0bbe bca9 743d
00000020: 7fb9 62be bdc3 c43d 4093 7dbe 04f2 f43b
00000030: 36b1 debd b390 683c 6d75 41bb 7681 6c3e
00000040: 5718 b23d 2393 34be 5a51 ab3d 7492 6abd
00000050: 071f 3bbe ff27 f43b e209 18be 9e6c 96be
00000060: 3223 fb3d e9e6 0e3e c24f 2cbe 1b3c 7c3e
00000070: 43af 123d 3da2 aabc 3b7c 2c3e 9585 8dbd
00000080: ee9d 03bd a5a9 83bd 9b1d 98be b04a d0be
00000090: d0b7 2abd 15b1 ee3d 9b22 823d 7145 f0bc
000000a0: f875 fd3d d8c7 033e abbd 87bc fc49 23bd
000000b0: 576c b63b b445 4abe 7f72 04be cc27 29bd
000000c0: 242e b2bb 2576 193e b02e 7c3e f795 b33d
000000d0: a95f a4be 69f6 45be 67dd 99bc 23d2 943d
000000e0: 170a e7bd 1fe1 b1bd f22d 603d 0569 2dbe
000000f0: 5531 8c3c 3457 b53d ca8a f63d 30c5 ddbc
00000100: a6c0 b9bc bfa1 a93d 9b8f 3cbd 5dd1 bb3d
00000110: 0505 5dbd 5583 b0bd b155 b73d ca72 d4bc
00000120: 2258 ddbc 29fc c03d 8bed 283e d315 cf3c
00000130: 0509 e2bd 6d3a 373d e1e1 3c3e 6e90 c5bd
00000140: 08e9 173e 612d d53c 4067 303e 68a5 b93d
00000150: 4734 4d3d 34ea d03c 7582 31be 1c97 cdbd
00000160: 5a18 96bd 7334 afbb 2f2b fbbd 7428 bcbc
00000170: b537 d53d cb0f 6d3e 76a3 a03d 9bee d8bd
00000180: 2a5e 943a cd06 1fbd d728 6c3e 7129 11be
00000190: 3f26 41bd 8dee d93b ba18 893d 4aef f53c
000001a0: eb8a a4bd 4924 ed3d 75bb 0a3d a805 d5bd
000001b0: d219 0abc 953a 5ebe 3f09 ffbd 7cb3 0dbe
000001c0: 4952 6abd ec2e 17bd 0f30 5d3c 7cc1 743d
000001d0: be4e 663d 010a e43c e675 56bd 79c1 5ebd
000001e0: 5fb6 8fbd 2cd9 033d 112a a53d 324a abbd
000001f0: 4bed ac3a 3a67 bf3b 2384 1b3c 83b9 fc3c
00000200: 175b cebb 47f6 6c3e fae2 01be dc01 99bd
00000210: ef1e a23d 4d52 fcbd 8cee 9c3d de38 4ebd
00000220: efad e83e 6b4e 1f3b 1c41 c53d 97bc 68bc
00000230: 5feb 8d3d 7785 013e 1b81 923d 2922 4e3d
00000240: f667 8bbd 732c 313e 6247 a9bc 55fa 243d
00000250: eba1 01bd 8b1c a7bc 9896 6dbd 766a 5cbe
00000260: a304 e53c 8efd 84be 918d 9ebe 67c0 db3d
00000270: f906 a33c 4a08 9dbc ed5a e7bd 291f ae3d
00000280: b459 c7bb adee f8bd f34e 003d 17e7 123e
00000290: db9b 8f3d 721a 35be 2ad4 0a3e b61d 873d
000002a0: b07f 033e 2feb b9bc dece 933e 95c6 1c3e
000002b0: f35e 9b3c cb4d d63d 218e d33d d2c4 fcbd
000002c0: 6b2e 98bd 5d01 32bc 1497 10bd 2c1b 52bf
000002d0: 73ce 97bd aa8e 893e 8e19 433e 416d 11bf
000002e0: 0f09 04bd 2266 b0bd 6791 9ebd ea98 7b3e
000002f0: 9e7b a13d b624 e23d bdcc c9bd 81f8 b3bd
00000300: bb82 d6bd 5acd 393d 8d50 e7bd d04e 8d3d
00000310: 5cbd 79bd f2c8 133d f2cd 803d af46 f53d
00000320: 6966 30be 16a8 5ebd 13ee 333c 84cc 3fbd
00000330: e94c b9ba 1db6 a23d 5b78 78bd 0f17 703c
00000340: f39d 1a3d 87ef 6a3d b7b7 983d 0daf 533d
00000350: ba37 d63c cbc8 763a f716 b7bd c0ec e63d
00000360: f7af 9dbe 54ba 453d bc63 ab3d 2502 053e
00000370: 04f6 1dbd 258f 31bc 535a dc3d 96e6 ebbd
00000380: e9a8 53bd 471d 3bbc 6f0b c83c 2ea4 2fbe
00000390: 1efd 263e feec 103e 0517 00bd 9fe8 17be
000003a0: e193 3a3d 1a1f 0bbe 15c1 9abd e50f 4b3c
000003b0: fea6 0bbd 1077 b6bd 7dc7 02b9 4870 37be
000003c0: 3254 af3b 1f8a 91bb 08cb 9c3d 7cbd dfbd
000003d0: 2c04 ca3d 1cfa 66bd 1260 d23d c1e6 27be
000003e0: f968 1ebd 21ce 64bb 7afe cb3c 2c53 f1bc
000003f0: 5506 443e 0a33 2a3d 20b5 a4bb 4009 a7bc
-0.07710986 -0.059858315 0.05723141 0.018763976 -0.16200973 0.2751827 -0.13632067 0.059732184
-0.22141074 0.096076466 -0.24763203 0.0074751396 -0.10873644 0.014194655 -0.0029519454 0.2309626
0.08696049 -0.17634253 0.08365126 -0.057268575 -0.18273555 0.007451057 -0.1484752 -0.29379743
0.12262572 0.13955273 -0.168273 0.24632303 0.035811674 -0.020829314 0.16844265 -0.069102444
-0.032133035 -0.064288415 -0.29710087 -0.40681982 -0.041679204 0.116548695 0.06354257 -0.029329987
0.123760164 0.12869203 -0.016569933 -0.03986548 0.0055671143 -0.19753152 -0.12934302 -0.04129772
-0.0054376293 0.14986475 0.24627185 0.08768838 -0.32104233 -0.1933228 -0.01878233 0.07266643
-0.11281221 -0.086855166 0.054731317 -0.16934593 0.017113367 0.08854523 0.12038191 -0.027071565
-0.02267487 0.08282804 -0.04603539 0.09170792 -0.053959865 -0.086187996 0.08951891 -0.025933642
-0.027019564 0.09423096 0.16496865 0.025278961 -0.110368766 0.044733454 0.18445541 -0.096466884
0.14834988 0.026022615 0.17226887 0.09064752 0.050098684 0.025502302 -0.17334922 -0.100385875
-0.073288634 -0.0053468286 -0.12264096 -0.022968508 0.10411016 0.23150556 0.07843678 -0.105923854
0.0011319567 -0.038824845 0.23062454 -0.14175965 -0.047155615 0.006650752 0.06694169 0.030021328
-0.08034309 0.115791865 0.03387018 -0.104014695 -0.008429008 -0.21702035 -0.124529354 -0.13837999
-0.05720738 -0.036909983 0.013500228 0.059754834 0.05622744 0.027836801 -0.05235853 -0.05438373
-0.070172064 0.032189533 0.08064664 -0.08363761 0.0013193277 0.005841163 0.009491953 0.030850178
-0.00629748 0.23140822 -0.12684241 -0.07471058 0.07916056 -0.12320385 0.07662687 -0.0503472
0.454452 0.0024308215 0.09631559 -0.01420512 0.06929659 0.12648569 0.07153531 0.050325546
-0.06806938 0.17302112 -0.02066392 0.040277798 -0.031648558 -0.020399353 -0.058004946 -0.21524987
0.027956313 -0.25974697 -0.30967382 0.10730057 0.019900786 -0.019168992 -0.112966396 0.08502037
-0.0060836915 -0.12154899 0.03132529 0.14345966 0.07012149 -0.1768587 0.13557497 0.06597464
0.12841678 -0.022695152 0.28868765 0.15310128 0.018966174 0.104640566 0.10329843 -0.12342228
-0.074307285 -0.010864583 -0.03530033 -0.8207271 -0.07412424 0.26866657 0.19052717 -0.56807333
-0.0322352 -0.0861323 -0.07742577 0.24570051 0.07884906 0.11042158 -0.09853504 -0.08787633
-0.104741536 0.045361854 -0.11294661 0.06899798 -0.060971603 0.03608031 0.06289281 0.119763725
-0.17226566 -0.054359518 0.010982054 -0.0468259 -0.0014137301 0.079448916 -0.060661655 0.014653935
0.03774829 0.057357337 0.07456916 0.051680613 0.02614962 0.0009414076 -0.08939927 0.11275625
-0.30798313 0.0482734 0.08368632 0.129891 -0.038564697 -0.010837351 0.107594155 -0.1151859
-0.051674757 -0.0114205545 0.024419514 -0.17152473 0.16307494 0.14152905 -0.031271953 -0.14834832
0.045551185 -0.13586083 -0.07556359 0.012393926 -0.034094803 -0.08909428 -0.00012472081 -0.17913926
0.005350613 -0.004441514 0.07655913 -0.10924813 0.09864077 -0.056390867 0.1027223 -0.1639662
-0.03867433 -0.0034912901 0.024901617 -0.029458605 0.1914304 0.04155258 -0.0050264746 -0.020390153

MIX_conc_core_f.AT_forward_mlp.0.bias f4 [48]
00000000: 3add 9dbd b880 21bd 7fa8 98ba 0230 21bd
00000010: b24f 2dbd a32d 98bc 976e 853d 4017 07be
00000020: 75d9 773d b0f8 4abc b530 b93c aa19 013c
00000030: 623b 1a3c 30d1 9e3d cfd1 bdbd 11f3 bfbb
00000040: b3ef c8bd 98cf 6fbd 785b 0a3d 7a04 c03c
00000050: b0c4 143d d6f1 683d d8eb 87bd 5e73 5fbb
00000060: 527c 023d 9a3a d8bd ca0d 8ebd 2cf0 bcbd
00000070: 9073 44ba b0f0 68bc 241f 40bb 9da0 40bd
00000080: fccf 44bb 34c5 203c 138c 06bd f59d 30be
00000090: f63b 05be 5ed0 d43c 60b2 bd3c 617f c2bd
000000a0: 83c0 1a3c 1f21 d0bc f4e1 5d3c 2884 12bc
000000b0: b674 4bbc b860 73bd 8464 5dbd 76e3 693d
-0.07708211 -0.039429396 -0.0011646895 -0.039352424 -0.04231233 -0.018576449 0.06515234 -0.13192463
0.060510118 -0.012388393 0.022606233 0.007879654 0.009413572 0.07754743 -0.092685334 -0.005857833
-0.09811344 -0.058547586 0.033778638 0.023439635 0.03632039 0.056871258 -0.066367805 -0.0034095864
0.031856842 -0.10558052 -0.06936224 -0.09225497 -0.0007494027 -0.014217541 -0.0029315436 -0.047028173
-0.0030031195 0.009812642 -0.03284843 -0.17247756 -0.13011155 0.025978263 0.023156345 -0.09496952
0.009445312 -0.025406418 0.013542641 -0.008942641 -0.012417963 -0.05941841 -0.054050937 0.05710169
