ZHECKPOINT/test-100+100/model.pt (torch, 241763 bytes, 32 tensors)

_batch_norm.mean f4 [16]
000000 00 00 00 00 43 77 a3 3d e6 f1 08 bd 0d e7 62 bb
       0.0 0.07981732 -0.033433817 -0.003462258
000010 d9 e6 cb 3c a1 05 dc bc e7 b4 ab 42 cb ba 78 3f
       0.02489035 -0.026858153 85.853325 0.97160023
000020 00 00 00 00 00 00 00 00 00 00 00 00 00 00 00 00
       0.0 0.0 0.0 0.0
000030 00 00 00 00 00 00 00 00 00 00 00 00 00 00 00 00
       0.0 0.0 0.0 0.0

_batch_norm.var f4 [16]
000000 00 00 80 3f a9 dd 6b 40 b2 5d 60 40 f0 96 45 40
       1.0 3.685404 3.5057187 3.0873375
000010 03 82 2f 3e 5a 18 27 3e 00 00 7a 44 0a d7 23 3c
       0.1713944 0.16317883 1000.0 0.01
000020 00 00 80 3f 00 00 80 3f 00 00 80 3f 00 00 80 3f
       1.0 1.0 1.0 1.0
000030 00 00 80 3f 00 00 80 3f 00 00 80 3f 00 00 80 3f
       1.0 1.0 1.0 1.0

AT_obs_encoder.0.weight f4 [48, 16]
000000 cb 0c f4 3e c1 c0 12 3f 90 81 c2 3e 80 22 09 3c
       0.4766601 0.5732537 0.37989473 0.008370042
000010 7b 57 09 3d 9c ab 72 3b 78 37 20 bd f8 be 86 3c
       0.033530694 0.0037028557 -0.0391154 0.016448483
000020 86 34 cd 3b d6 97 84 3b 01 06 f1 bb 43 29 10 bb
       0.006262365 0.0040464206 -0.007355452 -0.002199725
000030 3b 85 86 3c c4 95 34 3c 00 71 84 3c c7 c3 84 3c
       0.016420951 0.011022035 0.016167164 0.016206635
000040 ce f8 55 3e 91 bd 92 3e a7 0c f1 3c 28 31 84 3b
       0.20895693 0.28660253 0.029424978 0.00403418
000050 b5 54 56 3e 18 3e 1b 3e d1 b4 46 3d e7 1e 2f b9
       0.2093075 0.15160406 0.048512284 -0.00016700813
000060 0c b3 45 3c 37 d3 49 3c 3f 13 bb 3b 22 84 75 3c
       0.012066614 0.012318424 0.0057090814 0.014985116
000070 1f ec 11 3d c8 4e 14 3e b1 b2 7c 3e fb 21 89 3e
       0.035625573 0.14483178 0.2467754 0.26783738
000080 6f 57 e6 bc 0e 5e b0 bd 17 6d 48 3f e1 fd d3 3a
       -0.028117863 -0.086116895 0.7829146 0.0016173684
000090 6e ae 77 3b 92 44 03 3d 0c fc 32 3e 1b d5 44 3b
       0.0037793177 0.032047816 0.17478961 0.0030034247
0000a0 03 63 02 bc e0 76 4f bc e5 6c d0 bc 22 7a 25 bd
       -0.007958177 -0.012662619 -0.02544255 -0.040399678
0000b0 3f 7d ba bd 8d c4 3f be 57 da be be a3 1d f7 3d
       -0.0910592 -0.18727322 -0.37275955 0.120662
0000c0 70 b7 be 3d 8e 4b b0 3d d2 95 75 bf 42 ab 5e 3b
       0.09312332 0.08608161 -0.9593173 0.003397659
0000d0 e1 1f f6 ba b8 06 23 bd 8e 92 0b 39 f2 c6 4b 3c
       -0.0018777811 -0.03980133 0.00013310669 0.012437569
0000e0 3e 5c 0d bc 25 79 29 3b f2 bb 07 3b f2 ee 28 bb
       -0.008627949 0.0025859561 0.002071139 -0.0025777188
0000f0 99 ec 68 3b 54 a0 d8 bb ef 99 95 bc b8 80 2e 3c
       0.0035541414 -0.0066109095 -0.018261878 0.010650806
000100 8e 1f af 3c 19 91 95 bc d7 08 7e 3c 5c 18 20 3f
       0.021377351 -0.018257665 0.015505037 0.6253717
000110 c3 3c d5 3c 3e c0 9b bc 3c 83 d8 b9 7c 19 fd 3b
       0.02602995 -0.019012567 -0.00041296508 0.0077239852
000120 82 11 94 3b 03 c7 5d 3b 09 ca 13 bc 03 96 c8 bb
       0.0045186887 0.0033840544 -0.009020337 -0.0061213984
000130 a8 cd 88 bc db 93 d6 bc 1a 75 38 bd 73 29 5f be
       -0.016699627 -0.02619355 -0.04503355 -0.21793155
000140 46 93 12 be 46 9c 2a bf 51 28 03 bf 81 7f 0e bb
       -0.14313993 -0.66644704 -0.5123339 -0.0021743479
000150 de fd ed bc 66 7b 4f bc af 0c 63 3d 16 26 aa bc
       -0.029051717 -0.012663698 0.055432018 -0.020770114
000160 17 7b d6 3a 3f 4a ab bb b3 df 90 bc 98 d9 65 bc
       0.0016363588 -0.0052273567 -0.017684793 -0.014028929
000170 18 64 09 bd f7 9d 80 bd 26 b8 ea bd bf 2a 00 be
       -0.033542722 -0.062801294 -0.11460905 -0.12516306
000180 1e f7 55 be 02 26 37 3f 25 28 04 3f 2c 13 d9 3b
       -0.20895049 0.7154237 0.51623756 0.0066246
000190 23 d7 4a 3d 53 31 94 3c 2b 0b 81 3d f3 ae 94 3c
       0.049521577 0.018089926 0.06300958 0.018149829
0001a0 3c b0 55 bc 29 17 77 bb 20 66 b5 bc 6a 39 90 bc
       -0.013042506 -0.0037703014 -0.022143424 -0.017605502
0001b0 82 9b ba bc 89 95 63 bd 89 9f 68 bd f0 39 da 3d
       -0.02277923 -0.05556253 -0.05679277 0.10655582
0001c0 72 c4 86 3f 2b 63 53 3a f7 70 3a 3f 4e 0c 0a bb
       1.05287 0.00080637884 0.7282862 -0.0021064463
0001d0 7f 0e 2c bc d5 19 c4 3b 20 93 c4 bc 81 0e 5c bc
       -0.010501503 0.0059845247 -0.023995936 -0.013431192
0001e0 9d f1 84 bb 03 cf 99 3b af c3 c6 3b c8 a0 2d 3c
       -0.004057123 0.004693867 0.006065808 0.010597415
0001f0 80 f9 8f 3c 32 dc 20 3d 46 60 84 3d cc 96 dc bc
       0.017575026 0.039272495 0.06463675 -0.026927374
000200 c0 94 82 3e cf 50 2a bf 85 d6 98 3e e9 e2 e9 ba
       0.25504112 -0.66529554 0.29851165 -0.0017844114
000210 48 69 38 bd b4 17 81 3c 4d 61 99 3c af eb f1 ba
       -0.04502228 0.015758373 0.018723154 -0.001845708
000220 a1 7e 64 3b ce b3 5d bb ee 22 3f ba b8 c6 59 bb
       0.0034865516 -0.0033829096 -0.00072912767 -0.0033230018
000230 6a 3f 1a bc 43 33 8d bc 8e fe 2b bd b4 20 89 bd
       -0.009414533 -0.017236358 -0.04199081 -0.06695691
000240 b2 c3 0f 3e 09 67 ee b9 6a bb 8b 3d af 26 8d ba
       0.14039496 -0.00045471665 0.06822856 -0.0010768975
000250 42 27 9e bb 31 1b dd 3b ee a9 8a be 9c 84 0e 3d
       -0.0048264572 0.0067476262 -0.2708277 0.034794435
000260 c8 24 11 bd 62 a7 89 3c 63 04 21 bd 9c d9 93 bd
       -0.035435468 0.016803447 -0.039310824 -0.0721924
000270 af 0c 22 be c7 a1 93 3d cb 5b 04 3e 54 6b c3 be
       -0.15825151 0.07208591 0.12925641 -0.38167822
000280 56 eb d5 3c e2 e9 5b bf e6 88 ac 3e fd c6 a3 bb
       0.026113193 -0.8590375 0.33698195 -0.0049980865
000290 9e 65 33 bd 93 d9 07 3c d4 14 e3 b9 33 c2 14 3d
       -0.04379808 0.00829162 -0.00043312332 0.036318015
0002a0 00 0e 86 ba 03 d9 ff ba 54 63 d7 bb a4 7f 85 3b
       -0.0010227561 -0.0019519631 -0.00657312 0.004074054
0002b0 1c 82 85 39 53 86 11 3c 8a c4 37 3b 21 f7 83 3d
       0.00025464676 0.008882123 0.002804073 0.064436205
0002c0 38 f4 7f 3e 89 59 88 3e 8f 4a c8 be 59 90 38 3b
       0.24995506 0.2663081 -0.39119384 0.002816221
0002d0 57 df 1d 3c 43 7b 81 bd 84 37 51 bd 4c b3 50 3e
       0.009635768 -0.063223384 -0.051078334 0.20380896
0002e0 88 62 90 bb 8e 19 d6 bb c9 c7 9d 3c f7 c4 ff bb
       -0.004406277 -0.006533808 0.019260304 -0.0078054625
0002f0 45 0a a3 3c 44 cf 29 3d 29 3a 80 3d 50 ae 08 3d
       0.019902358 0.04145743 0.06261093 0.033369362
000300 dd 42 97 3e 76 af 37 3f 35 04 78 be 6d f3 12 bb
       0.295432 0.7175211 -0.24220355 -0.0022422925
000310 8f 76 f2 3c dc 84 6a bc 2e 36 1a bc b2 72 2c 3a
       0.029597549 -0.014313903 -0.0094123315 0.000657837
000320 85 ac 97 ba a4 2d 5f 3b 2d d0 57 3a 7e 9f 6a 3b
       -0.00115718 0.0034054304 0.000823262 0.003580063
000330 dd 8c e8 ba 45 5b a9 bb f8 e0 09 bc 5d ab 8d 3d
       -0.0017742176 -0.005168351 -0.008415453 0.069174506
000340 04 54 49 be 31 1b af 3c 6f db 76 b9 8a b6 04 bc
       -0.19660956 0.02137527 -0.00023542134 -0.008100161
000350 33 c4 7c 3c 3f 3c 0c bd 52 b9 05 bd 84 83 18 bf
       0.015427637 -0.034237143 -0.03264744 -0.59575677
000360 6a 2c 54 bc 42 2f 8d bc aa 74 52 3c e2 43 d0 3a
       -0.012950042 -0.017234448 0.012845198 0.0015889371
000370 12 fe 8d 3c e8 f2 ff 3b 74 35 5e 3d b0 94 ae 3a
       0.017333064 0.007810939 0.054250196 0.0013319459
000380 50 df 28 be fa 5b 64 3f d3 82 f2 3e 68 26 0a 3c
       -0.16491437 0.89202845 0.47365436 0.008432008
000390 06 4f a7 3c a8 48 56 bc cb b6 8d 3d a8 14 0b 3c
       0.020423423 -0.013078846 0.069196306 0.008488812
0003a0 f3 31 e7 b9 31 fe d3 bb b1 9a 3c bc 97 7c 9b bc
       -0.00044096968 -0.006469511 -0.011511491 -0.018980308
0003b0 bb ef 01 bd d5 08 89 bd 2c 58 fe bd c4 99 54 be
       -0.031722765 -0.06691138 -0.12419161 -0.20761782
0003c0 d8 a5 09 3e a0 5b 2f bf 55 ff c8 be d4 80 4e bc
       0.1344217 -0.68499184 -0.39257303 -0.012603957
0003d0 b0 f8 de bc 6a e3 be bc e4 d1 56 3d ed 8b 52 bc
       -0.027218193 -0.023301799 0.05244626 -0.012850744
0003e0 ba 59 df 3a 53 a4 b7 bb 3e 09 94 bb 2e 36 c6 bb
       0.001704029 -0.005604306 -0.0045177033 -0.006048939
0003f0 42 bf c5 bc 3e c6 06 3e 7a 4b 97 3d e4 4d 43 3d
       -0.02413905 0.13161561 0.07387443 0.047681704

AT_obs_encoder.0.bias f4 [48]
000000 d1 46 cb 3e 42 27 0e 3e 1b b6 84 3d 5d 18 1d 3e
       0.39702466 0.13882163 0.06480046 0.15341325
000010 56 60 92 bc a0 df ff 3c 6f 35 07 be d3 04 41 3f
       -0.017868202 0.031234562 -0.13203977 0.75397986
000020 14 3f dc 3e 37 20 08 3e 59 52 69 3d 33 98 09 3e
       0.43016875 0.13293539 0.0569633 0.13436966
000030 68 85 b8 3e 20 60 ee 3a 39 19 08 be 25 43 94 3e
       0.3603928 0.0018186606 -0.13290872 0.28957477
000040 85 f1 07 be 1d 23 d0 3e bb b1 88 bd 4c 85 97 3e
       -0.13275726 0.4065179 -0.066745244 0.29593885
000050 c5 81 e6 3d 73 6e d2 3e 90 39 f3 3d d2 7b 05 3f
       0.1125522 0.4109989 0.118762136 0.5214206
000060 4b 32 20 3e 8b e1 45 3e 5a 28 20 bd b4 5a bf 3e
       0.15644185 0.19324319 -0.039100982 0.37373888
000070 dc 1d 22 3d 05 03 83 3d e8 e8 16 3e f4 33 68 3e
       0.039579257 0.0639706 0.14737284 0.22676069
000080 9c e5 a9 3e 3c 81 3d be 1f 78 c8 3e 1b 96 bd 3d
       0.3318299 -0.1850633 0.39154145 0.09257146
000090 4a c3 99 bd 06 cd 27 3e bc 85 0d 3f 18 68 2b 3d
       -0.075079516 0.16386804 0.5528219 0.04184732
0000a0 61 e2 9c 3e 3d 42 d5 3e 7a af a0 3d dc da 1f be
       0.30641463 0.41652098 0.078459695 -0.15610832
0000b0 a0 47 a8 3e 49 32 b4 3e 37 2f 79 3e 73 d1 c5 3d
       0.32867146 0.35194615 0.24334417 0.0965909

AT_obs_encoder.2.weight f4 [48, 48]
000000 c2 8f 42 3e e4 ff d4 3d cd d5 94 be a2 6e 34 bd
       0.19000152 0.1040037 -0.29069367 -0.04405082
000010 fb d0 77 3e d7 aa 9a 3d 44 06 cb bd 20 ee 7b bd
       0.24200813 0.07552116 -0.099133044 -0.06150639
000020 c1 28 c1 3c 8d 60 3f be 10 9c 1d 3d 91 e8 e8 bd
       0.023579003 -0.18689175 0.03847891 -0.113724835
000030 e6 5c 9a bd d3 53 dd 3d de 77 30 bd 26 42 61 be
       -0.0753725 0.10807004 -0.043083064 -0.2199789
000040 ea e3 56 be e3 3c 35 3e 55 0b 18 bc 38 f1 3f be
       -0.2098538 0.17699008 -0.0092800455 -0.18744361
000050 42 1a 37 3e d2 9c 0a be 65 f3 f3 3d 12 ee f5 bc
       0.1788111 -0.13536385 0.11911658 -0.030020747
000060 2d f3 73 be f8 5d e5 bd bf 71 0a 3e 55 06 10 be
       -0.23823233 -0.11199564 0.13519953 -0.14064915
000070 98 18 e7 3d 59 31 3c bc 2b 18 25 3e c0 18 99 ba
       0.11283988 -0.011486375 0.161225 -0.001168035
000080 b5 8a 5a 3e 1e e2 6e be 1e e0 1f bd 34 3f 5d 3d
       0.21341975 -0.23328444 -0.039032094 0.054015353
000090 95 df ad bc df 06 bf bc c4 e2 5c 3e 4e 06 1a 3d
       -0.021224776 -0.023318706 0.21570879 0.03760367
0000a0 4f 6c eb bd 7b 7b d7 bc 26 b4 a3 3d 2f a2 1f be
       -0.114952676 -0.026303997 0.07993345 -0.15589212
0000b0 55 95 ba bc 82 1d 6c 3d 4d 81 34 bd 9e 3f 7e 3e
       -0.022776285 0.05764533 -0.044068623 0.24828956
0000c0 14 18 19 3e 77 24 7c be 88 56 3a 3d f2 a8 06 be
       0.14950591 -0.24623285 0.04549268 -0.13150385
0000d0 41 15 9a 3e e8 c2 b2 3d 4a 4d a5 bd 2c 91 06 3c
       0.3009434 0.08728582 -0.08071382 0.008213323
0000e0 58 15 32 be cc d6 0c be 4e a4 88 bc ac 75 35 3d
       -0.17390954 -0.13753814 -0.01667991 0.044301674
0000f0 bf 5f 18 bd 4d 3d 99 3d c1 5e 99 3e 1b 69 b4 bd
       -0.037200686 0.07482395 0.29955104 -0.0880911
000100 e6 b6 bf 3e c5 88 c6 3e e4 8d 68 3c 64 85 37 3e
       0.37444228 0.38776222 0.014193986 0.17921978
000110 a9 6d be bd 12 8e da bd 37 03 72 3e cd ae 20 3e
       -0.0929826 -0.10671629 0.23634039 0.15691681
000120 4a 80 75 3d 00 88 97 bd ea 9e 96 bd 61 04 92 3d
       0.0599368 -0.07398987 -0.07354529 0.071297415
000130 f8 70 60 3e e7 6b 84 3e 5e 4b b6 be 2a 2d 4f be
       0.21918094 0.25863573 -0.35604376 -0.20232072
000140 21 fc e9 3d 87 0b b2 bd b4 cd ca bb 79 c4 16 3e
       0.11425043 -0.08693605 -0.0061890725 0.14723386
000150 ab 72 30 be f3 67 1f be be b1 b4 be 68 69 6e 3c
       -0.17231242 -0.15566997 -0.35291857 0.014551498
000160 c0 4f 4f 3c 4c 9f c9 bd 94 3a 9c bd b1 a0 6b bd
       0.012653291 -0.098448366 -0.076283604 -0.057526294
000170 ee c6 c1 bd d2 f1 9f bc 30 f7 64 3c 77 c8 3f 3e
       -0.09461771 -0.019524489 0.01397495 0.18728815
000180 ca 58 54 bd 9d 42 04 be b7 95 de bd bf ed 89 bd
       -0.05184249 -0.12916036 -0.108683996 -0.067347996
000190 18 df 01 3e 34 1c a7 bb 38 d7 ec 3d cc a4 72 be
       0.1268276 -0.0050997976 0.11564487 -0.23695678
0001a0 0f 59 89 3e 55 4d 2e bd e7 36 c3 bc a9 06 23 3d
       0.2682576 -0.04255422 -0.02382989 0.039801273
0001b0 ce d3 db 3d 75 51 08 3e 31 2c 1a 3d 27 b6 6d be
       0.10733758 0.13312323 0.0376398 -0.23214017
0001c0 a2 3e 66 bc 5a 1f 3b be 04 a7 ad be 77 6c d3 3d
       -0.014053019 -0.18273678 -0.33916485 0.103234224
0001d0 95 b6 89 3e 26 24 f8 3d ad e0 05 be dc c9 4b 3d
       0.26897112 0.1211627 -0.13073988 0.049753055
0001e0 ed 40 ac 3c 82 de dd 3d aa 6f 2a be 17 d7 c0 3c
       0.021027053 0.108334556 -0.16644159 0.023540063
0001f0 98 9b a7 3d c2 84 2c be d3 d9 58 bd 76 b6 14 3d
       0.08183974 -0.16847518 -0.05294211 0.03630682
000200 52 d6 6b bd 9a f4 4e be bc 48 09 3e 58 ae 24 3e
       -0.05757744 -0.20210496 0.13406652 0.16082132
000210 98 ac 9f 3e c6 8c d2 3d 1c 80 cc bd d3 dd 47 3b
       0.31186366 0.10280757 -0.099853724 0.0030497208
000220 9a ee b4 3d c4 ab 35 3d 39 b5 72 3e 12 16 30 3e
       0.08834572 0.04435326 0.23701943 0.17195919
000230 6e 09 47 3e e2 87 91 be 74 67 0d 3e 6b ab 5e 3d
       0.19437191 -0.28423983 0.13808995 0.054362696
000240 8e 04 99 bd 4b 05 1f be 2a 77 22 bc fd 86 b4 be
       -0.07471572 -0.15529363 -0.009916106 -0.35259238
000250 79 ce 32 bc 8c 7d 0f 3d 4d c2 41 3d 56 0c db be
       -0.010913485 0.03503184 0.04730444 -0.4278285
000260 17 99 34 bd d4 d0 a0 bd c1 db c3 3d aa 26 d8 bd
       -0.04409131 -0.07852331 0.09563399 -0.105542496
000270 40 6d 38 3d 98 82 10 3e 4a 17 ed be 1f a5 9f bd
       0.045026064 0.14112318 -0.4630683 -0.07795166
000280 31 e2 e8 bd e4 01 0c 3e 2d 24 09 3e f5 f4 62 3d
       -0.113712676 0.13672596 0.13392706 0.05540939
000290 91 8c 10 bd 47 a2 b6 3d 23 53 97 bd c0 b0 89 3b
       -0.035290305 0.08917671 -0.07388904 0.0042019784
0002a0 3e b0 b9 3d b9 b4 1f 3e 84 e4 7c be 32 07 9b bd
       0.09066819 0.15596284 -0.24696547 -0.07569732
0002b0 01 de f1 bd 4f 32 15 3e f1 b2 c0 3e 02 18 36 3b
       -0.11809922 0.14569972 0.3763652 0.0027785306
0002c0 f9 21 1b bc f0 3b dd 3d 01 22 d2 3e b3 0f c3 bd
       -0.009468549 0.10802448 0.41041568 -0.09524479
0002d0 33 d3 26 3e a3 f8 ca bc 95 bd 1b 3e 68 d1 a6 be
       0.16291504 -0.024776762 0.15209039 -0.3258164
0002e0 7e 2f 21 be c2 2b 94 3c d0 8b 85 3d a6 50 2f be
       -0.15740773 0.018087272 0.06520808 -0.17120609
0002f0 1e ef 17 3e 80 1e 69 3e 3a bd 8c be 61 0c 50 3d
       0.1483731 0.22765541 -0.27488118 0.050793055
000300 81 f1 e3 38 6c d6 34 3d 9c 04 22 bd 0e 7d 9c 3e
       0.00010869187 0.0441498 -0.039555177 0.3056416
000310 61 bb 94 3e a8 a9 b0 bd 4a 62 d0 bd f0 3d 53 bd
       0.2904921 -0.08626109 -0.10174997 -0.05157274
000320 70 56 cb 3d 70 42 b8 bd f8 9f 4c 3e 7f 87 92 3e
       0.09928596 -0.08997047 0.19982898 0.28619
000330 be 7f bd 3c 56 93 43 3e 92 46 a1 bd 7c d1 f8 3d
       0.023132201 0.19099173 -0.07874788 0.12149331
000340 7e 22 32 3e 78 c5 a3 3d c4 2e c7 3a 10 03 17 bd
       0.1739597 0.079966486 0.0015196432 -0.036868155
000350 26 a1 44 3d f2 78 aa bd dd 9c 27 3e 3b 73 73 be
       0.048005246 -0.0832385 0.16368432 -0.23774426
000360 55 cb a4 bd a5 a8 07 be ff ef 47 be b0 85 16 be
       -0.08046595 -0.13247927 -0.19525145 -0.14699435
000370 a0 6a 38 be 04 59 fc ba b2 82 ad 3e 5d 2d bb 3d
       -0.18009424 -0.0019252603 0.33888775 0.09139512
000380 fb 1d 52 be 9f 3b 88 3d 7f 90 53 3d e5 c4 08 3e
       -0.20519249 0.06651997 0.051651474 0.1335636
000390 e4 2d 3a be d2 aa 32 bd 73 0c 82 bd c2 58 0e be
       -0.18181568 -0.04361994 -0.06350031 -0.13901046
0003a0 4e 69 6d 3e f4 82 67 3d 1b 94 75 be 5c b1 b1 bd
       0.23184702 0.05652137 -0.23982279 -0.08676407
0003b0 d0 8a 1f be c1 0f 8d 3b 7f 85 07 be ad 87 0d be
       -0.15580297 0.0043048565 -0.13234518 -0.13821287
0003c0 b3 9a 02 be 0e 17 fc bd e1 61 2f be e3 2b da bc
       -0.12754326 -0.12309085 -0.17127182 -0.026632255
0003d0 d7 4c 74 bd d2 8c 9c 3d 83 47 2c be 4c 8c a6 bd
       -0.059643593 0.07644047 -0.16824155 -0.08132228
0003e0 61 00 96 bc b3 9b 8d 3d 04 3f 1a 3e fa a9 2d 3c
       -0.018310728 0.06914463 0.15063101 0.010599608
0003f0 df 02 46 3e 7b fa 55 be 96 59 ce 3d 77 66 07 be
       0.19337033 -0.20896332 0.10075681 -0.13222681

AT_obs_encoder.2.bias f4 [48]
000000 16 59 f8 3d 99 ee 0f be 16 b7 e8 bc 84 77 f7 3d
       0.12126367 -0.14055862 -0.028407615 0.12083343
000010 4f f4 d4 bd 82 e2 41 3e 6c f5 76 bd 78 99 07 be
       -0.10398161 0.18934062 -0.060292646 -0.13242137
000020 82 81 ef 3d 84 3c 89 bd 0c 2f 60 bd b5 17 0c be
       0.116946235 -0.067009956 -0.054732367 -0.13680919
000030 3a 13 78 bd 23 2d ff 3d ee ec f8 3d 9f ba 7f 3e
       -0.06056521 0.12459781 0.12154566 0.24973534
000040 90 da 04 be dc 81 2d 3e bc 66 98 bd 33 88 2e be
       -0.12974 0.16944069 -0.0744147 -0.17044143
000050 f7 20 56 3d ff d0 2e 3e e1 b7 30 38 5e 4f 00 bd
       0.05227753 0.17071913 4.213292e-05 -0.03132569
000060 b2 f1 61 be ae a0 9e bc 02 ae 17 bd ab 7f 67 3b
       -0.22064856 -0.019363727 -0.03703118 0.0035323899
000070 24 58 33 3e b9 46 ad bd c3 6c 1b bd c9 45 d1 3c
       0.17514092 -0.08460755 -0.03794552 0.025545971
000080 ad 61 31 be d9 36 a9 bd 38 69 4b bd 26 37 08 3e
       -0.17322417 -0.082624145 -0.04966089 0.13302287
000090 40 6d 7c be 69 c8 38 3d a5 6c 0f 3e 39 36 af 3d
       -0.2465105 0.045113 0.14006288 0.08555264
0000a0 10 e9 9c 3e f2 02 af bd d1 62 54 3e bf c3 fd 3d
       0.30646563 -0.08545484 0.2074082 0.12390851
0000b0 c8 5b 10 3d 31 f9 a9 3d de 56 22 be 77 d7 84 3e
       0.03524378 0.082994826 -0.1585345 0.25945637

MIX_conc_core_f.CT_W_query f4 [48, 48]
000000 49 05 bd 3e 88 c8 da be 0f 95 e6 3e f0 00 02 3f
       0.36918095 -0.42731118 0.45035598 0.5078268
000010 8b 29 d3 be 1c d1 15 bf 37 66 9d 3f 2c 8b 4a bf
       -0.41242632 -0.585222 1.2296818 -0.7911861
000020 85 85 4d c0 34 c9 79 3e 2d 8b b9 bf c2 17 82 bf
       -3.2112744 0.24393159 -1.4495598 -1.01635
000030 85 1f dc bf 6f 94 aa 3f a8 a6 4a bf 06 6a aa 3f
       -1.7197119 1.3326548 -0.7916055 1.3313606
000040 1f a8 71 3f 24 14 32 3f bc c1 af bf 9d f4 86 be
       0.9439716 0.6956198 -1.3730998 -0.263585
000050 fb da 42 3e 17 1f 8b 3f 26 0f b6 3e b2 9d 6e bf
       0.19028847 1.0868863 0.35558432 -0.93209374
000060 b0 50 5b c0 d0 9e b4 be 83 82 38 3f cd e9 7c 3e
       -3.4267998 -0.35277414 0.72074145 0.24698563
000070 73 cc df 3f 96 f4 8e bf 8a 93 f0 3e 6f ac a7 3f
       1.7484268 -1.1168392 0.46987563 1.3099498
000080 ab 80 3d 40 72 9b e5 3f 8d 47 97 3f 56 a3 98 3f
       2.9609783 1.7938063 1.181871 1.1924846
000090 9f a4 8d bf aa ee 89 be ab 96 41 bf 6d 1a dc be
       -1.1065863 -0.269399 -0.75620526 -0.4298891
0000a0 5a 79 82 bf 12 e3 82 3f a7 4c b6 3f 5c 37 f2 3f
       -1.0193284 1.0225546 1.4242142 1.8923144
0000b0 86 34 94 bf 77 18 5e 3f 2e e8 9a bf d5 92 16 bf
       -1.1578529 0.8675608 -1.2102106 -0.588178
0000c0 2b a7 d6 3d fa 67 c8 3f 97 6c 97 3f 83 83 7d 3d
       0.104811035 1.5656731 1.1830014 0.061892997
0000d0 76 83 7b bf 78 e1 df bf 00 22 26 3e e0 43 14 3d
       -0.9824747 -1.7490683 0.16223907 0.036197543
0000e0 76 b1 69 bf 6d 4d 11 bd 62 dc ac 3e ea ae a9 be
       -0.9128641 -0.03547423 0.3376189 -0.3314126
0000f0 8f 22 7e bf 41 9c c1 bc 08 14 18 3e 4e 41 0b bf
       -0.9927148 -0.023634078 0.14851391 -0.5439652
000100 bd b0 5c 3f 3e e8 9d 3f 26 70 6a 3d 67 dc a6 3f
       0.8620718 1.23365 0.05723586 1.3036011
000110 36 35 95 3f 73 07 69 be 56 39 00 40 7c 45 05 3f
       1.1656864 -0.22756748 2.0034995 0.5205915
000120 f0 3a d5 3d a6 19 95 3e 13 91 b3 3d 61 f9 9d 3f
       0.10411632 0.2912113 0.08767905 1.2341729
000130 53 be 0f bf f2 6f 48 3f f5 4a 20 bf 0b b6 3f bf
       -0.56149787 0.78295815 -0.62614375 -0.7488715
000140 c7 a4 e3 be 5d b6 0c bf 15 21 f8 bf 60 e2 89 bf
       -0.44461653 -0.54965764 -1.9385096 -1.0772209
000150 8e 0f 0d 3f a7 f7 89 be bf 26 49 3f 6e f3 d2 3f
       0.5510186 -0.26946756 0.78574747 1.6480539
000160 66 40 f1 be b3 bd 4f 3f 13 a3 99 40 dd 9d ed 3f
       -0.47119445 0.81148833 4.8011565 1.8563801
000170 ac 34 f6 be 2a d0 b2 3f 5c ec 00 3e f3 ab ca 3f
       -0.4808706 1.3969777 0.12590164 1.5833725
000180 e4 9c cb bf c3 8d 69 bf d9 c3 a9 3f 41 7c 8b 3f
       -1.5907254 -0.91231936 1.3262893 1.0897294
000190 bb 15 43 3f 28 b8 0c 40 2b a3 49 40 49 3e 08 40
       0.76205033 2.19874 3.150584 2.1288016
0001a0 d7 4f af bf a1 af be 3e 11 79 3b bf ce b6 23 be
       -1.369624 0.3724337 -0.7323161 -0.15987703
0001b0 98 6d 1b c0 61 80 22 40 63 46 ac bf 8c 1d ae bf
       -2.428564 2.5390856 -1.345898 -1.3602767
0001c0 19 50 b2 3f e0 6e ed 3f 4c 65 e3 bf 05 07 e4 bf
       1.3930694 1.8549461 -1.7765288 -1.7814642
0001d0 fe 2e 1d bf 33 61 03 40 39 33 6c bd c6 e3 d9 3f
       -0.6139983 2.0528076 -0.057666037 1.7022636
0001e0 37 d1 0c bf 52 b4 5c bf 0f 4e 9b 3f 0d 4a 29 3f
       -0.55006737 -0.86212647 1.2133197 0.6612862
0001f0 4d 0e a6 be e3 df ac 3e ba 2b b7 3f 95 cc 26 bf
       -0.32432786 0.33764562 1.4310219 -0.6515592
000200 52 ff e6 bf 84 0e 0f 40 43 7a 0c 3e d2 28 e0 3e
       -1.8046668 2.235261 0.13718514 0.43781143
000210 a5 0c 09 40 11 91 a3 3f 93 38 05 40 47 56 26 bf
       2.1413968 1.2778646 2.081578 -0.649754
000220 24 86 85 3e ed 77 e8 3f d5 94 c5 3c e6 b7 03 bf
       0.26078904 1.8161598 0.02411882 -0.5145248
000230 91 35 11 3f a8 17 c8 3f 47 33 a9 3f dc 32 2d 40
       0.5672236 1.5632219 1.3218774 2.7062292
000240 9c 2a 89 3f 73 6e 95 3d 9e eb f7 be 17 82 18 bd
       1.0716128 0.07296457 -0.4842195 -0.03723344
000250 17 a8 1e bf 5e 2a fa be 3c 42 b2 3e 06 6d 48 3e
       -0.61975235 -0.4886045 0.34816158 0.19572839
000260 8d 39 63 be d4 d3 10 bf c1 88 cf 3b a8 44 81 3f
       -0.22189923 -0.56573224 0.006333441 1.0099077
000270 c9 2b 73 3e 9e a8 b9 be 31 52 46 3f 07 ad 90 be
       0.23747171 -0.36261457 0.77469164 -0.2825701
000280 6b be ac 3e 49 97 73 3f 6d 8e d3 3d 07 14 ff bd
       0.33739027 0.9515272 0.103299 -0.12454992
000290 6e 87 63 bf 42 fe de 3d af d7 a1 be b2 f5 6d bf
       -0.88878524 0.108883396 -0.31609866 -0.92953026
0002a0 7f 09 cc 3e 17 74 1b bf 7f 99 25 3f 72 f7 8f 3e
       0.39850995 -0.60724014 0.6468734 0.28118473
0002b0 39 34 2a bf 00 d9 35 3e 8c 21 9d be 5a f1 6d bf
       -0.66485935 0.1775856 -0.30689657 -0.929464
0002c0 38 64 bc be bc 64 88 3e f6 52 29 bf 0c 5d 01 bf
       -0.3679521 0.26639354 -0.66142213 -0.50532603
0002d0 e7 1e ca 3f 22 df ad 3f 28 ae 61 3e ac 2b 75 3e
       1.5790681 1.358372 0.22039092 0.23942441
0002e0 80 56 8d bd b6 0d 8b be 2e c1 84 3f aa 45 73 3d
       -0.06901264 -0.27158898 1.0371454 0.05939261
0002f0 b7 9d 68 3d 56 ab 94 3d d3 7c 56 be 7d c4 b2 be
       0.056791034 0.07259242 -0.20946054 -0.34915534
000300 b6 05 19 bf 64 7c aa bd ee 6f cc be 3e 92 45 bd
       -0.5977434 -0.08324507 -0.39929146 -0.04823517
000310 f1 b1 55 bf 36 9e 7d 3e 76 40 4e 3e c3 48 b9 be
       -0.8347464 0.24767384 0.20141777 -0.36188325
000320 f6 d6 88 3d dc 62 aa 3f d8 8d 09 bf c8 31 fb be
       0.066816255 1.331142 -0.5373206 -0.49061418
000330 b0 ff e5 bd d6 7a 9a 3f a8 79 f3 3b 60 e1 bf 3e
       -0.11230409 1.2068737 0.007430274 0.37476635
000340 0e d3 2f 3e 55 a6 52 bf 4f af db be d9 6b 8b be
       0.17170355 -0.8228505 -0.42907187 -0.2723072
000350 b9 91 c4 be 10 10 7b be 65 4b 23 3f 5e 31 f2 bd
       -0.38392428 -0.24517846 0.6378692 -0.11825822
000360 a4 8f 7e 3e 4b 93 a7 3e e3 f2 7d be 53 6f 18 bf
       0.24859482 0.32729563 -0.24799685 -0.5954487
000370 e6 d2 3c bf 73 ca ba bd 22 03 e3 3e 7f 65 34 3e
       -0.73759305 -0.091206454 0.44338328 0.17616843
000380 11 61 af be 31 a7 6a 3f 2c 4b aa 3e 0b 8f 27 bc
       -0.34253743 0.91661364 0.33260477 -0.010226975
000390 9d 8b c0 bf 70 f4 7d 3f f9 06 7d 3e 5a 4d 33 3f
       -1.5042607 0.9920111 0.24709691 0.70039904
0003a0 09 e0 ca 3e 5f 96 10 3e 8e 56 62 bd ef d4 15 3e
       0.3962405 0.14119862 -0.055258326 0.14632009
0003b0 4a 35 56 3f 01 ca 64 3e 63 f3 7f bf 46 40 87 3e
       0.8367506 0.22342683 -0.99980754 0.26416224
0003c0 09 34 29 be 7c 58 c2 be 1d fe 4f 3b 56 ed 73 be
       -0.16523756 -0.37958133 0.0031737157 -0.23821005
0003d0 b4 16 cb 3d f6 49 c2 3e 80 a5 33 3f f7 f4 4f 3e
       0.0991644 0.37947053 0.7017441 0.2030829
0003e0 8f 1b 07 bf 21 27 6d 3e c3 68 2e 3d 1a 50 34 3c
       -0.52776426 0.23159458 0.042580377 0.011005426
0003f0 ca 37 20 3c 06 c0 a3 3f 4a 0e 29 bf 0d 28 27 bf
       0.009778926 1.2792976 -0.6603743 -0.6529549

MIX_conc_core_f.CT_W_key f4 [48, 48]
000000 0d b5 b8 3f 54 fc 58 3f 95 b7 b6 be f0 9f e0 be
       1.4430252 0.8476002 -0.35686937 -0.43872023
000010 c2 92 14 be 20 3b d9 bf 36 b2 f7 3e 32 2f 8f 3f
       -0.14509109 -1.6971169 0.48378152 1.1186278
000020 d5 51 d6 bf 56 b6 77 3f 0a b3 04 3f 8c 6f 30 3f
       -1.6743723 0.967626 0.5183569 0.6892021
000030 43 d4 c8 3e 77 b2 44 3f be 70 8e bf 51 ab 94 3e
       0.39224443 0.76834816 -1.1128156 0.29036954
000040 f7 f0 1e 3f 42 d4 f2 bc e4 ce a7 be c1 ba 55 bf
       0.62086433 -0.029642228 -0.32775033 -0.8348809
000050 1e 59 31 bf 03 c7 19 3e 5f 30 33 3e b5 5e ab bd
       -0.6927661 0.15017323 0.17498921 -0.08367673
000060 c3 db a4 bc 9a 75 a8 bf 3c 0a 92 3e d9 19 10 be
       -0.020124322 -1.3160889 0.28523433 -0.1407236
000070 a9 af 5d 3d 7b 88 b1 be 63 f7 ac 3e 6f f5 7e 3f
       0.0541226 -0.3467444 0.3378249 0.9959325
000080 f5 5c 40 3e 69 22 63 bf 5b a2 06 be 0b 3d a1 3e
       0.1878546 -0.8872438 -0.13147871 0.31491885
000090 b8 10 67 be 84 a9 23 3f 8b cd 98 3f 86 ec 3c 3f
       -0.22564971 0.63930535 1.1937727 0.73798406
0000a0 78 c4 8f be 00 e7 46 bf c0 fb 22 3f ea 80 99 3f
       -0.2807958 -0.7769623 0.6366539 1.1992466
0000b0 84 f6 04 c0 ed a6 61 3e 40 17 1c 3e f8 9d b1 3e
       -2.0775461 0.22036333 0.15243244 0.34690833
0000c0 a2 1d 8f bd 6c 35 71 be 90 25 15 bf 4e 4b 14 bd
       -0.06988074 -0.23555535 -0.5826044 -0.03620463
0000d0 9a 86 1a 3f 2c 28 1c bf 3d b2 73 bf 3a 92 7a bf
       0.60361636 -0.609988 -0.95193845 -0.97879374
0000e0 03 4c c2 be 7f 47 88 3f 32 65 14 bf d9 5a 63 be
       -0.37948617 1.0646819 -0.5796691 -0.22202624
0000f0 67 ae 4e be 80 e6 e4 be 7a b8 f3 be 8b c1 3c 3d
       -0.20183717 -0.44707108 -0.47601682 0.046083014
000100 32 7a 5d bf 7a 42 fe bf 35 fb 8a be 84 9c e2 be
       -0.8651458 -1.9864037 -0.2714478 -0.44260037
000110 62 3e 27 bf 70 7e 02 3e 34 8e 71 3f 86 3a 5f 3e
       -0.65329564 0.12743545 0.9435761 0.21799669
000120 6f 35 d7 3e b7 12 f6 3e 34 43 97 bf 94 fc 63 bf
       0.42032954 0.48061153 -1.1817384 -0.8905728
000130 b0 0a 91 3e 70 a5 a7 bf e5 f6 2a bf fe ad 46 3f
       0.28328466 -1.3097363 -0.6678298 0.7760924
000140 32 61 7e 3e ec 76 c6 be 44 ee d4 be 20 e5 84 3f
       0.24841765 -0.38762605 -0.41588032 1.0382423
000150 d4 2a 97 be 64 aa 74 3e 59 d9 3a 3e c7 c2 ba 3d
       -0.29524863 0.23893124 0.18246974 0.09119182
000160 6a 2d 8b 3e 80 1d 7b be df 46 84 3e 41 75 af bd
       0.27183086 -0.24522972 0.2583532 -0.08567286
000170 5f a4 0c 40 1f 91 82 3f db 46 f8 3e 89 ea 31 3e
       2.1975324 1.0200537 0.48491558 0.17374624
000180 9a ea 8e bf 17 84 fc bf 0f 5f 9e 3e 03 98 80 3e
       -1.1165345 -1.9727811 0.309319 0.25115976
000190 b7 85 57 3f fb 91 33 3f d6 61 33 3f 4c c2 8c 3f
       0.8418841 0.70144624 0.7007116 1.0996795
0001a0 34 db 60 3e 31 42 4e be 30 3f 8c 3d 5f 08 38 bf
       0.2195862 -0.20142438 0.068479896 -0.71887773
0001b0 49 50 85 be 3c b8 16 40 35 2c 82 bf 44 f7 20 bf
       -0.26037815 2.3549948 -1.0169741 -0.628773
0001c0 95 97 f9 3f 20 5a 8f 3f 57 c2 0e c0 7c 10 4c bf
       1.9499384 1.1199379 -2.2306116 -0.79712653
0001d0 5a 60 83 be 15 fc ef be e8 b7 9b bf be c9 5d be
       -0.25659448 -0.4687201 -1.2165499 -0.2165899
0001e0 f1 d3 86 bf 09 9e a6 be 45 5c 75 3e d6 c3 05 3f
       -1.0533429 -0.32542446 0.2396098 0.52251947
0001f0 6a 00 a1 be 56 52 f0 be 12 a2 83 bf bf 50 ce 3f
       -0.31445628 -0.46937817 -1.0283835 1.6118392
000200 3b d0 f6 be 26 46 00 bb af 9a ad 3f ed 27 ba be
       -0.48205742 -0.0019573062 1.3562831 -0.36358586
000210 5e ae bf bf 67 2c aa 3f a0 27 1a 3f 0c 2f b2 bf
       -1.4975088 1.32948 0.6021671 -1.3920608
000220 62 cd c9 bf 5f c1 6c bf f0 0b 4a bd c7 c4 08 3f
       -1.5765803 -0.9248256 -0.04932779 0.5342526
000230 98 f2 91 bf 45 4e c3 bf 94 10 1e be e9 a0 61 be
       -1.1402159 -1.5258261 -0.15436012 -0.22034039
000240 a6 e3 35 3f e9 4a 81 3f b0 e9 5b 3f 3f 97 95 bd
       0.7105049 1.0100986 0.85903454 -0.073042385
000250 48 3d b7 bd 90 96 7a bf c8 38 a8 bf e2 23 89 be
       -0.08947235 -0.9788599 -1.3142328 -0.2678519
000260 55 f1 4e 3f 32 c8 26 3f c9 7e d3 bd 01 d5 3e bd
       0.80836993 0.65149224 -0.10326917 -0.046589855
000270 81 e1 ad bc 2b 33 eb 3d cd 1e 07 3f 05 60 69 bd
       -0.021225693 0.11484369 0.52781373 -0.056976337
000280 24 30 dd 3d 05 3c 71 3e 82 ed 66 3e 64 49 73 bd
       0.10800198 0.23558052 0.2255154 -0.059396163
000290 2d 47 c9 bf d7 fe 8f bf 4e e4 a4 3e 87 41 04 bf
       -1.5724846 -1.1249646 0.32205433 -0.51662487
0002a0 27 0c c8 be 26 c9 43 3f 80 ee 70 be cb d5 a9 3f
       -0.39071772 0.76478803 -0.2352848 1.326837
0002b0 69 89 56 3f 83 7b 9a 3e bb f7 cb be 17 1c 8f 3f
       0.8380342 0.30172357 -0.3983744 1.1180447
0002c0 be bc db bc 25 ab 3e bf 76 65 2d bf f6 74 46 bf
       -0.026823398 -0.74479896 -0.6773294 -0.7752222
0002d0 de 6a 1a c0 01 3c 30 bf 47 42 e3 be 9b 27 3f 3f
       -2.4127727 -0.6884156 -0.44386503 0.7466981
0002e0 31 a9 34 bf 9b 69 d4 bd 3b 6f 67 3f 86 88 68 3f
       -0.70570666 -0.10371705 0.904041 0.9083332
0002f0 9a 9a bb 3f 89 68 3d bd 40 a2 e0 3c f8 00 b2 3e
       1.4656556 -0.04624227 0.027421117 0.34766364
000300 e1 f2 79 bd 85 1e 89 bf 67 13 a3 be 98 51 47 3d
       -0.061022643 -1.0712439 -0.3185074 0.0486618
000310 a8 25 bc be 71 21 ca 3e aa 07 1e 3f 46 3e 2e be
       -0.3674748 0.3947864 0.61730444 -0.17015943
000320 21 30 ee be 70 49 ac 3e ba 49 0e bf 8a cf aa be
       -0.46521094 0.33649778 -0.5558125 -0.33361465
000330 74 50 08 3f fc 8c 6f 3d 43 1a 41 be 31 2c 07 bf
       0.5324776 0.058484063 -0.18857674 -0.52801806
000340 fe df 47 be 7f 63 89 bf 7f 98 7a bf 25 ac 41 bf
       -0.1951904 -1.0733489 -0.9788894 -0.75653297
000350 fd d9 f8 be 25 35 16 3e 4c 9b bb be 7c 5e e3 3e
       -0.48603812 0.1466871 -0.3664192 0.44408023
000360 7b 84 03 bf 31 b8 1a 3e 58 c2 8c bd d5 11 bf 3e
       -0.51374024 0.15109326 -0.06873006 0.37318292
000370 0b 9e b5 3d 00 40 62 bf b3 43 b3 be ba 19 43 3e
       0.08868035 -0.88378906 -0.35012588 0.19052783
000380 da 32 d0 be 9b 89 62 3c 7e e0 53 3f a9 57 28 3f
       -0.40663797 0.013826753 0.8276442 0.6575876
000390 b3 41 2d 3f e2 a0 83 3f ad 66 0e 3e e4 39 04 bf
       0.67678374 1.0283473 0.13906355 -0.51650834
0003a0 0d dd e5 3c 62 3f 10 be 5b 25 0f 3f ba f3 e6 bc
       0.028059507 -0.14086679 0.55916375 -0.02819239
0003b0 e0 37 5a 3f d1 3a 14 be 4c c4 3f bf 2a 60 8a be
       0.8524151 -0.14475562 -0.749089 -0.27026492
0003c0 1e af 11 3f 7a 52 06 be 43 19 6f be 09 70 e8 3d
       0.5690783 -0.131174 -0.2334948 0.11349494
0003d0 c4 22 24 3e 88 03 a9 be bd 04 c1 be fc a3 07 bf
       0.16028887 -0.33010507 -0.37698928 -0.52984595
0003e0 e1 8a c7 3e 26 be 0a 3f a1 28 3e 3d f4 62 d8 be
       0.38973144 0.54196393 0.046425465 -0.42262995
0003f0 f6 01 89 3e cc e6 c3 3e 07 a1 c1 bd 96 6d 9f 3d
       0.2675931 0.38262022 -0.09454542 0.07784574

MIX_conc_core_f.CT_W_val f4 [48, 48]
000000 1e bb d2 3e 7d 75 bd be 51 21 5e 3d 5c e6 c8 bf
       0.41158384 -0.370037 0.05423099 -1.56953
000010 61 d5 96 3f df 2e 1c 3f a5 f9 02 bf 6f 27 d4 38
       1.1783868 0.6100902 -0.5116218 0.00010116293
000020 46 b6 08 bd 06 6a 86 be 3a 4d 8a bf dd 35 ab 3e
       -0.033376954 -0.26252764 -1.0804818 0.33439532
000030 4a ae 68 3d e5 c3 31 be 17 d8 be bb 99 dd 3f 3d
       0.05680684 -0.17359884 -0.0058240998 0.04684219
000040 5c f2 2f bf 2d 19 48 be 84 41 58 be 18 f5 28 bf
       -0.68729186 -0.19540854 -0.21118742 -0.65998983
000050 b6 75 0e bd 87 35 d9 be 81 56 f3 be 0d fd 81 3f
       -0.034780227 -0.4242365 -0.47526935 1.015535
000060 58 6d 02 bf 28 4c 97 3e 8f bb 21 be 1b c7 81 be
       -0.50948095 0.2955029 -0.15794204 -0.25347218
000070 7b 86 83 3e be 80 86 3f 7d ff c5 be 8d 47 52 3f
       0.25688538 1.0508039 -0.38671485 0.8214043
000080 66 b2 84 be 8e 60 3b 40 95 a9 65 be ef eb 51 3e
       -0.25917357 2.9277682 -0.22427972 0.20500158
000090 e8 31 77 3e 9d 9d 87 bf cc 52 93 bc 24 62 3d 3f
       0.24140131 -1.0594975 -0.017983817 0.73977876
0000a0 b9 85 ee 3e 55 96 79 3e 03 a8 bc 3e 77 0d 87 3e
       0.46586397 0.24373753 0.36846933 0.2637746
0000b0 a8 95 1b bf 41 a5 98 be ed 2f 8c 3d e8 59 ab be
       -0.6077523 -0.2981358 0.068450786 -0.3346703
0000c0 0e 73 09 3f 12 5a 33 3f 71 33 1d 3e 70 da bd be
       0.53691185 0.7005931 0.15351655 -0.37080717
0000d0 63 68 ac be fa b9 39 be 40 43 cb 3e 82 ff 73 be
       -0.3367339 -0.1813735 0.39699745 -0.23827937
0000e0 f9 1d 83 3e 0f aa 09 3e fd c2 84 be 25 df 56 3e
       0.25608805 0.13443778 -0.25930014 0.2098356
0000f0 4e 10 f6 3d 11 79 d8 3d 5f b6 b6 3e 9c 45 17 bf
       0.120148286 0.105699666 0.35686013 -0.5909059
000100 98 1a 45 3e bc d8 b6 3f 98 c6 15 be 2d f3 de bd
       0.19248426 1.4284892 -0.14626539 -0.10886226
000110 63 da 9a 3d 07 f7 95 3e 3c d3 3c bf 23 67 62 3f
       0.07561185 0.2929003 -0.7375982 0.88438624
000120 d2 b7 1a 3f dc 0b 01 be 5d 1b 16 bf 45 03 72 be
       0.6043674 -0.1260218 -0.58635503 -0.2363406
000130 63 e2 92 bd e4 19 b0 bf 1c bc dd 3e 09 9b bb be
       -0.07172086 -1.3757901 0.4330758 -0.3664172
000140 ba 2b 19 3f d7 8d 99 3f 16 be 6b be 58 c3 53 be
       0.59832346 1.1996411 -0.23021731 -0.20679986
000150 bd b8 38 bf c2 98 df 3d 03 30 fa be de 6d 7b be
       -0.7215689 0.10917808 -0.48864755 -0.2455363
000160 3d 48 55 bd 98 46 a7 3e 82 eb e4 bb cc 13 77 3f
       -0.052070845 0.32671046 -0.0069860825 0.9651458
000170 38 60 46 3f 88 4b be 3e 57 97 e7 3e 51 0e 76 3e
       0.7749057 0.37167 0.4523265 0.24028899
000180 d2 f0 1e 3e 11 f2 33 3f 41 a3 53 bf a4 5a 91 3f
       0.15521553 0.7029124 -0.8267098 1.1355786
000190 0e ef c2 3e 07 2d 52 be dd 44 83 be c0 e4 90 3d
       0.3807301 -0.20524989 -0.25638476 0.070748806
0001a0 43 b8 96 bf da 13 46 bf 96 fa 9a bf dd 18 00 3e
       -1.1774982 -0.7737404 -1.2107723 0.12509485
0001b0 01 4d 32 3f 0c f0 13 3f 4c c8 2d 3f 81 bf 60 bf
       0.6964875 0.5778816 0.67883754 -0.8779221
0001c0 ea b2 ec 3e 66 88 9c 3f c2 92 bd be ae b7 e3 be
       0.4623025 1.2229125 -0.3702603 -0.44476074
0001d0 21 90 ef 3d cd 79 6d bf f2 e6 0b 3d b2 bf 0f bf
       0.11697412 -0.9276398 0.034155793 -0.5615188
0001e0 0f 91 3a 3f c1 cc e4 be 46 ce 13 3e 00 5d 7d 3f
       0.7287759 -0.44687465 0.14434156 0.9897003
0001f0 28 95 19 3f 02 a6 34 be b5 33 7e 3e 43 cd c4 bf
       0.5999322 -0.17641452 0.24824412 -1.5375141
000200 d4 c0 b6 3e 5f 4e bc bd f1 a4 5c be 35 7e 3a 3f
       0.3569399 -0.091946356 -0.21547295 0.72848827
000210 21 61 4d 3f c6 ee 42 3d f6 13 59 bf 85 ef 18 3f
       0.8022633 0.047590993 -0.8479608 0.5974048
000220 40 99 07 bf 06 85 b7 3c 89 3d 9c bf a1 ed 4b bf
       -0.52968216 0.022402298 -1.2206279 -0.7965947
000230 cb 9d 54 3f 71 86 6b be cb 5e 70 3d 68 b4 86 3d
       0.8305327 -0.23000504 0.05868415 0.065773785
000240 3a bf f2 3e 71 d4 a0 be 40 a8 14 be 43 bd e4 3c
       0.4741152 -0.3141208 -0.14517307 0.027922278
000250 3c 2e 85 3e 7e 75 24 be fc e2 d7 be 03 17 8f 3e
       0.26011837 -0.16060445 -0.42165363 0.27947244
000260 96 43 04 3f 82 dc fe be fd 28 b8 3d 5e e9 25 3e
       0.5166563 -0.4977761 0.08992193 0.16202304
000270 8c 40 0f 3e 9e 19 0b 3e 17 d0 ae 3d e0 3a 0c bf
       0.13989466 0.13583991 0.08535784 -0.54777336
000280 64 40 4d be f6 7d c6 bc f3 c4 a4 3e af 68 e1 3e
       -0.20044094 -0.024229985 0.3218151 0.4402518
000290 93 5d 61 3c 28 c4 39 3f c3 4f 77 3e 73 51 6a be
       0.01375522 0.72564936 0.2415152 -0.22882633
0002a0 65 3c 30 be 95 5b 34 be e5 e2 e4 be b8 eb b6 bd
       -0.17210539 -0.17613061 -0.44704357 -0.089316785
0002b0 24 31 ec 3e 51 41 13 be 73 45 d4 3e 80 7f bb 3e
       0.4613124 -0.14380385 0.41459236 0.36620712
0002c0 aa b2 f1 3e cd 7d 46 be 49 72 c9 bd 6d 92 16 3f
       0.47206622 -0.19383927 -0.09836251 0.5881718
0002d0 d4 d1 2c be 40 a8 23 be 25 82 68 bf 76 19 0b bf
       -0.16876918 -0.15982151 -0.90823585 -0.54335725
0002e0 dd 30 18 3e 4a b3 0d 3f c8 7f ec be 57 16 9f be
       0.1486239 0.553517 -0.4619124 -0.3107173
0002f0 68 a8 57 3e ab 20 5e 3e 7a f0 20 3d 2c da 8e 3d
       0.21060336 0.2169215 0.039291836 0.06975207
000300 d2 86 c9 bc 37 ae 3e bf 5d 6a 43 3a e4 2c 52 bd
       -0.02460042 -0.7448458 0.0007454509 -0.051312342
000310 6f e7 c0 3c 29 19 d6 be 0a 7b 18 bf 58 47 09 be
       0.023547856 -0.4181607 -0.5956274 -0.13406122
000320 58 71 08 bf ca 0d f2 3e 93 67 cf be 25 74 b0 be
       -0.5329795 0.47276145 -0.40508708 -0.3446361
000330 5a 1d 18 3e 79 43 10 bd f9 db 81 3e bc 28 5b bd
       0.14854947 -0.035220597 0.25363138 -0.053505644
000340 7b 4f 67 3d 25 c1 43 bf d4 02 88 3e 5f fc 21 3c
       0.056472283 -0.7646659 0.26564658 0.00988683
000350 b0 4c c4 3e 3b fa e8 bd 85 09 72 bf 79 d5 6b be
       0.38339758 -0.11375853 -0.94545776 -0.23030652
000360 92 41 24 bd 1b 72 f2 bd bc 9b 93 3d 4b 69 59 3e
       -0.040101595 -0.1183817 0.07207438 0.21231572
000370 f5 f3 ad bc 6b 00 48 3f 1b e6 97 3e 85 a1 08 bf
       -0.021234492 0.7812564 0.29667744 -0.5337146
000380 a4 4e 90 be 5a 62 b6 3e 55 e7 9a 3e 3a e0 8e bd
       -0.28184998 0.3562191 0.30254617 -0.069763616
000390 e8 8b 89 3e f3 39 31 3f d8 6d 9a 3e db b7 85 3e
       0.26864552 0.6922905 0.3016193 0.26116833
0003a0 95 e4 dc be 1d 3c f6 3d 9c 08 8f 3e 00 c1 4f bf
       -0.43143144 0.120231844 0.27936256 -0.8115387
0003b0 fb 85 bc 3e a1 0d ad be 45 10 9b 3d 02 6d 91 be
       0.3682097 -0.3379946 0.075714625 -0.2840348
0003c0 ed 32 02 be d1 75 82 be 4d ff 81 3e f1 da 85 be
       -0.12714739 -0.25480512 0.25390092 -0.26143602
0003d0 93 dd 0a bd ac a8 1d be 87 53 96 be b2 90 23 be
       -0.033902716 -0.15396374 -0.293606 -0.15973166
0003e0 11 79 42 be ad 74 6a be a8 28 53 3e 41 9b 9b be
       -0.18991496 -0.22896071 0.20620978 -0.30391887
0003f0 30 dc b8 3d 89 36 07 3e 11 11 74 bb 32 1d 21 bf
       0.090263724 0.13204397 -0.0037241618 -0.62935174

MIX_conc_core_f.CT_motivate_mlp.0.weight f4 [48, 96]
000000 68 a2 b3 be 37 12 af bd 9e 91 0a 3e 67 95 b4 3d
       -0.35084844 -0.08548396 0.13532111 0.08817559
000010 c3 ec 11 3d 07 4d a9 3e 70 40 c0 be 75 56 f7 be
       0.035626184 0.3306658 -0.37549162 -0.4830815
000020 67 98 ac be ba 46 ab be 74 bc 16 bf 7b eb a2 be
       -0.33710024 -0.33452398 -0.58881307 -0.31820282
000030 13 3d 46 be 0b 62 24 3f b8 a5 97 3f 5e ae 69 3e
       -0.19359235 0.642121 1.1847448 0.22820422
000040 57 50 9b 3e 42 f4 2a 3f 59 30 03 bf 15 5c 21 bd
       0.30334732 0.6677896 -0.5124565 -0.039394457
000050 26 6c 9f 3e b2 cc 02 3f 10 9c 3e 3f 7e 99 e0 be
       0.31137198 0.5109359 0.7445688 -0.43867105
000060 36 44 fc be 70 2e 9d bd ed 9a cd 3e 9a a6 54 3e
       -0.4927079 -0.07674873 0.40157261 0.20766678
000070 5e 2c 7c 3e 6d ea a6 be 8a e0 19 3e a0 2e e9 3d
       0.246263 -0.32600728 0.15027061 0.11385846
000080 a1 a1 e4 be d1 29 7e be ea 3c c2 3e 20 3f d2 3d
       -0.44654563 -0.24820639 0.379371 0.102659464
000090 b5 f9 0d be 7d 50 16 3f c3 b0 0a be 8c 55 b4 bd
       -0.13864787 0.58716565 -0.13543992 -0.08805379
0000a0 86 22 b5 3e e5 4b 82 bd 75 ce 03 3e 9a 2e 3e 3f
       0.35377902 -0.06362132 0.12871726 0.7428986
0000b0 26 26 39 3f 2e 4f 97 3e ad 27 4f bc 64 9f 95 3e
       0.72323835 0.29552597 -0.012643737 0.29223168
0000c0 54 9f 55 be 38 96 18 be c0 65 a9 bd 26 5e 7a 3e
       -0.2086156 -0.14901054 -0.082713604 0.24449977
0000d0 de eb 94 bd 80 91 54 bd f0 62 6c 3c 0a 20 a5 be
       -0.072715506 -0.051896572 0.014427885 -0.32251006
0000e0 cf 89 13 3e ee be 72 be 23 ac 05 3e 66 79 80 bd
       0.14408039 -0.23705646 0.13053946 -0.06273155
0000f0 e7 7e ee be f7 e5 db bd 82 0c 4a be 5a 3c 69 3e
       -0.46581194 -0.10737222 -0.19731334 0.22776929
000100 93 e3 45 be 37 08 70 be e4 4e 46 3d d9 d4 2b 3e
       -0.19325094 -0.23440634 0.04841508 0.16780414
000110 81 bd 4e be 2c ea 22 3d 14 9e fa bd f9 bf 69 bb
       -0.20189478 0.039774105 -0.12237182 -0.0035667403
000120 97 c0 7d 3c 66 35 a8 bb 64 cb 89 3e 51 88 23 3e
       0.0154878115 -0.0051333187 0.26912987 0.1596997
000130 7b 6b 36 be dd 98 8e 3e 18 80 e9 be 56 83 1d be
       -0.17814438 0.27851 -0.4560554 -0.15382132
000140 26 05 19 3c 59 b6 7b bd 9e c7 c5 3d 13 03 17 bc
       0.009339606 -0.061453197 0.096572146 -0.009217042
000150 37 d5 17 bd f8 68 5e be 78 8f 1a be 52 1f 94 3d
       -0.037068572 -0.2171973 -0.15093791 0.072325364
000160 1e a1 d9 3d bf 58 ed 3e 6d 31 77 bc 5c a8 50 3e
       0.10626434 0.4635677 -0.015087468 0.20376724
000170 1d 48 9a 3d dc 0c 3e 3e 21 e8 5e 3e 03 f4 cc 3d
       0.07533286 0.18559593 0.21768238 0.10007479
000180 b3 c1 af bf 0f 8f aa bd d6 9c 2a be a9 0e ec 3e
       -1.3730987 -0.083280675 -0.1666139 0.46104935
000190 cc b6 1b 3f 13 e9 a5 3f c8 bf bb bf 93 86 ea be
       0.608258 1.2961754 -1.4667902 -0.45805797
0001a0 4d 58 0c bf 27 82 f5 bf 1e ce 69 3e 44 05 3e bf
       -0.54822236 -1.9180344 0.22832534 -0.74226785
0001b0 82 53 82 bf db bf 0c 3f d3 14 ab 3f 8a e3 1d 3f
       -1.0181735 0.5498025 1.336573 0.6167532
0001c0 55 f1 72 3e 74 48 b6 3f 04 f7 07 bf 4c 64 6a bf
       0.23724873 1.4240861 -0.5311129 -0.9155929
0001d0 3b 2b 88 be 3c fc d2 3f 4a cb 0b 3f b7 8a fb bc
       -0.26595482 1.6483226 0.5460707 -0.030705793
0001e0 c0 38 9a bf 31 2f 0c bf 99 28 ef be 0e 3a e9 3b
       -1.2048569 -0.5475951 -0.4671066 0.0071175164
0001f0 5c 48 5c 3e 26 47 1a 3e e9 e8 07 3d ed 98 a2 be
       0.21511978 0.15066203 0.033181105 -0.31757298
000200 a8 47 f3 bf 6b 60 89 3d a1 d2 ff 3e ad fe 21 3f
       -1.9006243 0.067078434 0.49965385 0.6327923
000210 8e 1c c6 be e0 f1 e5 3e 1c 97 2a bf 80 de 41 be
       -0.3869366 0.44911098 -0.66636825 -0.18932533
000220 ca 79 94 3e 86 63 34 bd 59 0b 0f be ca ba 27 be
       0.28999168 -0.044040225 -0.13969173 -0.16379848
000230 a6 21 93 3f e3 7d a0 3e 3a 35 72 3e ad ba c8 3f
       1.1494644 0.31346044 0.23653117 1.5681969
000240 08 d1 94 3f 50 2f 09 bd 06 5c c1 be 15 22 b9 3f
       1.1626291 -0.033492386 -0.3776552 1.4463526
000250 3b 70 25 3e 82 12 d3 3e 2b 82 22 bf c8 76 ac 3e
       0.16156094 0.41225058 -0.6347987 0.33684373
000260 d0 5d 12 3e b2 09 7a 3f 32 d8 b3 3e d8 f1 40 3f
       0.14293599 0.97671044 0.3512588 0.75369024
000270 91 32 52 3d 0f fe 09 bf 9e f8 6d 3d 7e a5 30 3f
       0.051317755 -0.5390329 0.058098428 0.6900252
000280 f9 03 c7 bd 97 f2 a5 bf 6f 75 28 3e 7a e5 eb be
       -0.097175546 -1.2964658 0.16451047 -0.46073514
000290 34 15 c4 be a0 d0 3c bf 47 25 3d bf 72 6d d3 3c
       -0.38297427 -0.73755836 -0.73885006 0.025809024
0002a0 6d 63 b4 be c4 7f d3 3e 28 f4 ad bf 11 10 5f 3d
       -0.35232106 0.41308415 -1.3590136 0.05445868
0002b0 a0 c5 b8 be 9f e1 32 3f 06 4e 1e bf 0c 77 09 3f
       -0.36088276 0.6987552 -0.61837804 0.53697276
0002c0 d7 ae 2c bd b3 23 80 bf 08 52 d4 3e fb 51 88 be
       -0.042158928 -1.0010895 0.41468835 -0.26625046
0002d0 06 4c 8c 3f f7 2f 2b bf b0 03 ac be f4 db 10 be
       1.09607 -0.66870064 -0.33596563 -0.14146405
0002e0 a2 81 15 3d 5a c5 83 be f1 26 89 3e df 03 58 3e
       0.03650058 -0.25736505 0.26787522 0.21095227
0002f0 12 4b fc be e2 dd 80 be b1 e7 40 be 17 ae 69 be
       -0.49276024 -0.25169283 -0.18838383 -0.22820316
000300 bf c2 28 3e 93 d6 4d 3e 01 5f 0a bf 23 8c 55 3f
       0.1648054 0.20101385 -0.54051214 0.83416957
000310 71 76 ed 3d f0 1d 8c 3e 20 a6 b1 be 40 17 4d bf
       0.115948565 0.2736659 -0.34697056 -0.801136
000320 ba 25 02 bf ef f7 12 bf 8c 8f 2d 3f 9b b5 45 be
       -0.50838816 -0.57409567 0.6779716 -0.19307558
000330 92 ba 5c 3c 48 c3 9e 3e 94 35 94 3f 12 78 22 3f
       0.013472216 0.31008363 1.1578851 0.6346446
000340 09 c6 05 be 08 a5 44 3f c4 ed af be 71 90 03 be
       -0.13063826 0.7681432 -0.34361088 -0.12848069
000350 e2 a1 d5 3e e5 7d 4d 3f ca 26 10 3e a1 4b 02 be
       0.4172507 0.80270225 0.14077297 -0.12724163
000360 9f fd 8b bf 59 a8 62 be 0b fe 26 bf bc f0 79 bf
       -1.0936774 -0.22134532 -0.6523139 -0.97632957
000370 4a a2 b8 3f e0 c5 a1 3f 53 a1 5c be eb ac 8d bd
       1.4424527 1.2638512 -0.21545915 -0.06917747
000380 5c 30 4b bf 74 2f f3 be d1 76 18 3f 4e 50 db 3e
       -0.79370666 -0.4749714 0.595563 0.42834705
000390 57 9e 93 3e b1 d8 23 3f 9a 68 af 3e 68 1b 3d bc
       0.2883174 0.6400252 0.34259492 -0.011542179
0003a0 b1 bc 5c 3f 42 22 78 bd 16 8f 17 3f 68 01 41 bf
       0.8622542 -0.060579546 0.59202707 -0.7539277
0003b0 58 d7 19 3f 62 83 33 3f 50 d5 14 bf ac e2 85 3f
       0.60094213 0.7012235 -0.5813799 1.04598
0003c0 12 52 4c bf 5f 8f b6 3d 1f fd 77 be 9e c8 9b 3e
       -0.7981273 0.089140646 -0.24217652 0.30426496
0003d0 ca ca a9 bb 2d ae 35 3d 62 f0 86 be 7f 8a 14 3e
       -0.005181645 0.04435556 -0.26355273 0.14505957
0003e0 b4 39 7d 3e 92 ee 62 be ed fb 03 be 1a ea 3f be
       0.24729043 -0.2216132 -0.12889071 -0.18741646
0003f0 76 c4 0d be ef 10 cf 3c 70 07 73 be a6 6f 66 bd
       -0.13844475 0.02527663 -0.23733306 -0.05625882

MIX_conc_core_f.CT_motivate_mlp.0.bias f4 [48]
000000 e8 3e f6 be 96 3d ad bf cb d9 7b bf ad 07 17 c0
       -0.4809487 -1.353442 -0.983792 -2.3598435
000010 dd 19 94 be 9d e5 79 be ff 72 ab bf a3 c3 f7 bd
       -0.28925982 -0.24403997 -1.3394469 -0.120978616
000020 16 c9 3e be c3 21 d8 bf 15 96 fc bf 31 c8 d7 bf
       -0.18631396 -1.6885303 -1.9733301 -1.6857969
000030 11 7a d4 3c 9c 00 82 bf d8 16 7e bf 36 c3 75 bf
       0.025937112 -1.0156436 -0.99253607 -0.96000993
000040 7b da 6a bf 00 72 a2 be 81 46 6d bf 29 76 63 bf
       -0.91739625 -0.317276 -0.92685705 -0.88852173
000050 b0 16 33 bf d9 6c 13 c0 5c 12 da bf b6 ef 12 c0
       -0.69956493 -2.3035185 -1.7036853 -2.2958808
000060 ec ba dd be 69 fc 06 c0 5f c2 f3 bf d7 f3 92 be
       -0.43306673 -2.109156 -1.9043692 -0.2870166
000070 9d 5d d3 be 3d ba 6e bf ca 94 07 c0 d5 9f 02 c0
       -0.4128236 -0.9325293 -2.1184564 -2.0410054
000080 b4 c2 8a bf 31 09 b0 bf 2b 4e ef bf af 86 c7 bf
       -1.0840669 -1.3752805 -1.869573 -1.5587977
000090 60 86 c2 bf bd 84 7e bf 4f 53 33 bf db 4a b6 be
       -1.5197258 -0.9942129 -0.70048994 -0.35603985
0000a0 30 59 bc bf d0 ae 3f 3e cb 9d d5 3d 6a 8a 83 3b
       -1.4714718 0.1871903 0.10430487 0.004014303
0000b0 d9 ea 3b bf ff ac 6f 3e b2 fd a2 bf 04 29 56 bf
       -0.73405224 0.23405837 -1.2733672 -0.83656335
